Sample_Based_Extension/UNSW/UNSW_Defense/Defense_Distillation/student_model.pth (torch, 23240 bytes, 8 tensors)

fc1.weight f4 [50, 56]
00000000: 11e9 bdbf 3a1f 223e eea2 2d3f 7f50 dfbe
00000010: b703 a53c 7445 f03f f698 833e 6170 99bf
00000020: b3b0 b1bf 7623 823e e61e cc3f 44a5 b4be
00000030: c020 c03c ea31 2ebf 35dd 703e e3d5 e53e
00000040: 5ea6 4fbf 0fd4 cf3d 33e9 89bb db67 453e
00000050: 285c 403e 53f7 d13e d152 3d3f 91dc 10be
00000060: 8df5 493f a334 003f 6e71 4c3e b1d9 a7bd
00000070: 41fa 2bbd 5445 eb3c b12b c2be 332e 69bd
00000080: fdce 353b ac1f 97be de40 7d3c 0227 32bd
00000090: c046 28be 9f53 b2bd 7552 763d c8e4 50be
000000a0: 72b5 0dbf b51e db3e 13eb 7abd 999c 63be
000000b0: 5b29 93bf 79ff e83e 421a a4bd 54a6 bbbe
000000c0: c884 d9bf e2f0 b3bf a5b6 e8bc 449e afbe
000000d0: 390a 21be a427 ec3e 0b45 f1bf 14d4 eabd
000000e0: f401 e7bf e2f7 973d 1f2b d3bf e071 363e
000000f0: 51f5 99be 1c6c 81be 4d52 02be 4333 b63c
00000100: ef94 9fbe 3b3b b7bf 6526 2ec0 69c9 f43d
00000110: 45ff c73c 0609 223f 5e66 b3be 6f5c 06bf
00000120: 1df1 2640 8396 83bd 0ee0 6e3e 2640 883e
00000130: 85d4 3cbe 3f69 d53e e784 6ebd 4f59 23bf
00000140: 0955 36be 7e95 263d b6b1 aa3e 06bd 1cbe
00000150: 20bd 3e3e 7873 093e 90dd 88be 18a8 7d3d
00000160: 231e 96be 664d 113f 1b02 1b3e b83f ca3d
00000170: 08af a73e 41f2 443c fda8 163e 7bda 423c
00000180: 92a9 683e e051 4e3e afbb 6ebe a613 26bf
00000190: 68ef 753e 7a0e 943e 6389 a63f b51c a13d
000001a0: 5121 fa3e 75d8 0a3f 4b2f 71be 1d7e 36be
000001b0: 258f 93be 69cf 753f ea0d 23bf 3a7a f9bd
000001c0: 6279 9abf cc7c e83f f809 0840 6077 12be
000001d0: 69ae 95be 5145 1fbe 3212 17be fbb4 0bbd
000001e0: 31d4 7ebf b07d 80be 8302 95bf a98c 86bd
000001f0: 8352 5c3e 3675 aa3f 0c5c afbe 3c24 b5be
00000200: 32f6 7c3e 464c fcbe 90bf e73e 3906 063e
00000210: f1b4 8e3d 2c7a d7be 553d 66bd 097e 09c0
00000220: bdf9 6fbf 92d4 e2bd e918 273e 36d1 a43e
00000230: af65 0e3d 3155 043f dcab 023f 35a4 12be
00000240: e3b2 d9bc c667 9abd 11b1 533d b534 2bbe
00000250: 3302 e2bd a05c 42be e810 b5bd 00ea 46be
00000260: ad39 05bf f521 3bbf 3b85 e03d fc0b 353f
00000270: 4480 fa3e 13e9 f9bf fa0e 833d fa98 903e
00000280: 531f 763e 0a65 233f f16c 36bf 9d5a 02be
00000290: 94e2 7a3d e5e0 81be 65a4 403e cd24 a13f
000002a0: 40c9 ae3f 2d75 723f 3f33 c23f 1238 28bf
000002b0: ea09 98be 3dce 5dbe 7d44 29bf b64d 813e
000002c0: e7fe 3dbf 170a 3fbf 61bf 17bf 17f6 a73d
000002d0: 39da d4bd 2822 8ebe c894 a0bf 4787 803d
000002e0: 87b6 dabe 6da0 d4be c286 e03d 3bfb f53c
000002f0: 213e 4e3e 1450 cc3d 8c21 c63d 730d 83be
00000300: cfaa bf3d 25c3 2d3e 5a18 6b3d c34a 65bb
00000310: 341d 4dbb c35b a2bd c9c0 9b3d 00a3 95bc
00000320: 7396 1c3e 8199 a1bd eae8 973d bc2e 203d
00000330: b637 88bd f0c9 533d 1a2c babe 3277 333d
00000340: eaff 8c3e 7263 0dbd 04d3 09bd 3757 983d
00000350: 47cc 0fbe 73d2 4bbd ef81 0b3e 6de6 4bbd
00000360: c865 2f3e 6886 5fbf 81db 9bbd 5cfa bdbd
00000370: 58ce 7fbd 38de 1f3f d469 21be d373 2d3e
00000380: eb1b c03e df42 ff3d bf92 06bf 8eb2 2fbf
00000390: f15b 82be 0c3e 783f 91bd 5abf 0e4a e33e
000003a0: 8cff 55bf bcb4 023e 3641 00bd 3936 423d
000003b0: 8ce0 853d 60e0 00bf 9937 04be f6c0 e0bd
000003c0: ab80 763e a596 7dbf ad0d 863e afa5 14bd
000003d0: cd88 2c3e 3a3b c5bd bdf5 663e c4f2 073e
000003e0: 8750 8b3b 3a4b d33d a9cf 06bd b263 5c3e
000003f0: 87e0 1ebd d130 183e 3e33 123e b032 16bc
-1.4836751 0.15832224 0.67826736 -0.436161 0.020143373 1.8771195 0.25702637 -1.198742
-1.3882049 0.2541768 1.594693 -0.35282338 0.023453116 -0.6804491 0.23521884 0.44889745
-0.8111323 0.10147869 -0.0042087077 0.19277899 0.18785155 0.41009006 0.7395449 -0.1414664
0.78890306 0.5008032 0.19965145 -0.08195818 -0.041986708 0.028719582 -0.3792396 -0.056928825
0.0027741783 -0.2951635 0.01545736 -0.043494232 -0.16433239 -0.08707356 0.06013723 -0.20399773
-0.5535499 0.42796865 -0.06125934 -0.22227706 -1.1496996 0.4550741 -0.08012821 -0.36650336
-1.6993647 -1.4057887 -0.028407404 -0.34300435 -0.15726556 0.46123993 -1.8849195 -0.11466232
-1.8047471 0.07420327 -1.6497535 0.17816877 -0.30069974 -0.25277793 -0.12726708 0.02224124
-0.31168315 -1.4314951 -2.7210934 0.119524784 0.024413714 0.6329502 -0.35039037 -0.5248479
2.6084664 -0.06425192 0.23327658 0.2661144 -0.18440445 0.4168186 -0.058232214 -0.6380815
-0.17805876 0.04066991 0.33338708 -0.15306482 0.18626833 0.13422954 -0.2673154 0.061927885
-0.29319867 0.56758726 0.15137522 0.09875435 0.32750726 0.012020648 0.14712901 0.01189291
0.22720936 0.2014842 -0.23313783 -0.6487373 0.24017107 0.28917295 1.3010677 0.078668036
0.48853543 0.5423654 -0.23553197 -0.17821546 -0.28820148 0.9601961 -0.63693106 -0.12181516
-1.2068293 1.8163085 2.1256084 -0.1430335 -0.29234627 -0.15553786 -0.14753035 -0.034108143
-0.9954253 -0.25095892 -1.1641392 -0.065697975 0.2151585 1.331702 -0.34249914 -0.35379207
0.24703291 -0.49276942 0.45263338 0.13088311 0.069681056 -0.42085397 -0.056210835 -2.1483176
-0.93740445 -0.11075701 0.16318096 0.32190865 0.03476494 0.5169249 0.51043487 -0.14320453
-0.026574558 -0.075393245 0.051682536 -0.16719325 -0.11035576 -0.18980646 -0.08841115 -0.19425201
-0.5204113 -0.7309869 0.10962912 0.7072141 0.48925984 -1.9524254 0.06399341 0.28241712
0.24035387 0.6382605 -0.7125998 -0.12729879 0.061251238 -0.25366893 0.18812712 1.2589356
1.3655167 0.94710046 1.5171889 -0.65710557 -0.29695064 -0.21660705 -0.6612013 0.252546
-0.74217075 -0.7462477 -0.59276396 0.08201235 -0.10393185 -0.27760434 -1.2545404 0.06275802
-0.42717382 -0.41528645 0.10963203 0.030027023 0.20140888 0.09976211 0.09674367 -0.25596198
0.09358751 0.16968973 0.05739627 -0.0034987188 -0.0031297924 -0.079276584 0.0760513 -0.018266201
0.15291767 -0.07890607 0.07417472 0.03910707 -0.06651251 0.051706254 -0.36361772 0.043814845
0.27538997 -0.034518667 -0.033648506 0.0743851 -0.1404277 -0.049761247 0.13623784 -0.049780298
0.1712867 -0.8731446 -0.076102264 -0.09276268 -0.062452644 0.62448454 -0.15763026 0.16938715
0.375213 0.124639265 -0.52567667 -0.6863183 -0.2546077 0.96969676 -0.85445505 0.44392437
-0.8359306 0.12764257 -0.03131219 0.047414992 0.065369695 -0.5034237 -0.12911834 -0.109743044
0.2407252 -0.9905799 0.2618231 -0.03629082 0.1684906 -0.09630437 0.22554679 0.13276201
0.004251543 0.10317083 -0.032912884 0.21522406 -0.038788345 0.14862372 0.1427736 -0.009167358

fc1.bias f4 [50]
00000000: c21d 1cbd 06cf 53be 29bf 67be 59a6 ffbd
00000010: 98d6 d7bd 7a52 1abe fd05 223d 0436 c0be
00000020: 76cb be3c e683 083d 7ecb 8dba bbcd 1a3e
00000030: 2d28 50be d78a b7bd d2ed b4be 9467 1dbf
00000040: 4bde 543e 3771 713e 3070 04bf 2355 7ebe
00000050: 419e 26be 7c2b 8dbe 3fe3 533d 4d45 5bbf
00000060: 5864 9cbd 3e0e 053e 12a5 e4be 51a0 8c3d
00000070: 4f80 89bb fd4a 543e 275c 64be 1a6d 8cbd
00000080: 4daf 81be 08a7 cb3d 162e 913e a2ca 7ebc
00000090: 45db 31be 7029 6c3b eb79 c33e 1447 ccbe
000000a0: 1926 abbd 80ed 13be a2dc 2e3e a809 59be
000000b0: 95a2 073e 8175 04bf 1913 b4bd 0e89 12be
000000c0: 5c3d 563c de82 8bbb
-0.038114317 -0.20684442 -0.22631516 -0.124829 -0.105389774 -0.15070525 0.039556492 -0.3754121
0.023290377 0.033328913 -0.0010818092 0.15117542 -0.20327826 -0.089620285 -0.35337692 -0.6148617
0.20787923 0.23578344 -0.51733685 -0.24837165 -0.16271307 -0.27572238 0.05173039 -0.8565262
-0.076363266 0.12993714 -0.4465719 0.068665154 -0.004196204 0.20731731 -0.22300778 -0.06856747
-0.25329056 0.09943968 0.28355473 -0.015551241 -0.17368801 0.003603544 0.38178954 -0.39897978
-0.08356876 -0.14446068 0.17076352 -0.2119509 0.13245614 -0.51741797 -0.08792705 -0.14310095
0.013076153 -0.004257544

fc2.weight f4 [30, 50]
00000000: 7dcb 50bf 2472 31be 93e5 86be 175b 8dbd
00000010: 6738 8cbc fec5 3abf 5289 a1be 20be 1c3e
00000020: 6cd9 f0ba 46ed 573d cfdb 0bbf cfb4 a9be
00000030: c3b4 f6be ee44 65be 8ea4 be3d ec34 2bbe
00000040: d754 97be 475b 4abe aadf a7be 462b efbd
00000050: 5ba3 403e 3d2f 053d 7a6e 7a3e e1d5 98bd
00000060: 11a4 d0bd 2199 b4be ab59 12be fdd9 0a3e
00000070: 517c 8cbe 278d 35be 3a8b 9e3e a1ad 043f
00000080: 8030 463f 5485 77bd b7b2 17be 66e0 2fbd
00000090: 357a c93e d536 24be 88bb 3ebd 7246 343c
000000a0: f743 af3e afc4 2dbe 2f74 b1be 500c cdbd
000000b0: 09e7 f4be d632 01bd 4d29 8b3d b0aa debf
000000c0: 085e 05be 51e5 3cbe 6b13 a7bd ed93 20bf
000000d0: b0c8 fd3e 1ad7 3d3e d4e1 e2be 350e 46bf
000000e0: 78cc 0b3f f96c b2bf 2f55 8e3e 5101 56bf
000000f0: ab9a e33f cadd 77be 763d adbf 402e 01be
00000100: 9df2 503e db64 2e3f 158f 10bd 7cb1 8dbe
00000110: cd7e e73e 9dd1 8bbf 6489 82be acb6 00bf
00000120: 70fe 50bf 22ce 65be 5e01 66bf d087 04be
00000130: bcdf fcbe 95fd 33bf bc91 e9be c1a3 46be
00000140: 454b b8be 1757 39c0 cfa0 6cc0 e091 e5bc
00000150: b11a d83e dd3a 2a39 1d2e 76c0 a6ec 25c0
00000160: be34 68be 2e04 b3bf e1e0 283e 51dd 2fbc
00000170: 9a7e 4e3f 464d 143c 3744 8abf 1959 35bf
00000180: def0 f0bf 0aab f63e e9f8 71bf 5ac3 4dc0
00000190: c887 a3bf 142c 853e 53c0 18bf 07aa 973e
000001a0: 392c 9c3e c2d2 88bf 2890 f93e 63e7 debe
000001b0: abf6 85bf 643b 8d3d d0c2 8b3f 038d 79bc
000001c0: 1609 e4bd 9360 b5be 2dd6 15bf b318 8f3f
000001d0: 2606 503d de91 29be 5a22 6f3f 852c 0bbf
000001e0: 4a82 943e 9fe4 10be caaa bfbe d513 f93f
000001f0: 00b0 983e 0e34 30be 2ca6 5d3f d195 cc3e
00000200: b552 1fbf 1480 503d 8731 22bf d312 a63f
00000210: 7eb2 a93f a8a7 863e a286 1cbe ff89 463e
00000220: d47f 193f ea4e d5bf b150 acbe 90e4 653d
00000230: 6f66 a43f 9d21 43bf b092 023f 4190 ee3e
00000240: 89da 523e 62ca 50bf 9b0f 2c3e 184f 0bc0
00000250: fdb6 e7bd 1b4a 243f 4fc2 bc3e e28f d03d
00000260: 6acb ee3e 05a2 993d 1324 81bd 0128 6b3d
00000270: 4910 da3e 3390 8e3e ac17 073f d113 d5bf
00000280: 9004 43bf 8859 cc3e 5ac2 87bf a601 b93e
00000290: 180f 043f ded3 f5bd 6a02 a03e ad6a db3e
000002a0: 3c97 36bf e29b 40bf 4f82 b13d e163 bf3e
000002b0: 8de4 05bf d69c e7bd 23d0 4ebf e519 e63e
000002c0: 3c08 e33d 9037 2b3e 0a58 8f3d ddd5 1f3e
000002d0: 8a11 6ebe ff12 c9be 124f a6be cf79 663f
000002e0: 0347 ac3e 2867 e4bf c412 8dbf d4d5 0d3f
000002f0: 68d7 603e dd67 d33e 3c76 d3be ec7c 06be
00000300: f875 a73e 4120 0abf a0d6 afbf b582 2e3e
00000310: 01f4 30bf c626 993f effd 93bf 17d1 443f
00000320: 80a6 393f 1859 76bf 6436 a9be dbd8 58bf
00000330: c9d6 29bf 950d 2a3e c7f9 8d3e 2b84 ca3c
00000340: 37d0 b0be 5597 88bf 9dda 39bf 9db0 50bf
00000350: 7e97 ac3c c11f e6be 80e0 d8be 1c5d 50bf
00000360: c352 99bf a574 7fbf bd21 acbe 2871 413f
00000370: 9e3c e13d 6997 a2bf 9c5b 3dbf b454 483e
00000380: 18fe f3be af44 bdbf 43ea 12be d64d 76bf
00000390: a126 85bf a7b0 2bbf 0640 c4be 73e0 e73e
000003a0: 36c9 93bb 909f 563e a05a 86bf 9730 99be
000003b0: b823 40bf 3c0c b43e 3591 36be f7af a33f
000003c0: 5d60 88bf a0d8 a03e 8d24 70bf cf28 0e3f
000003d0: 8428 503f 2dab 2d3f 5450 90bf 86e4 883f
000003e0: 688d bd3f 5117 debd f5d6 dfbe d3ac 9ebe
000003f0: 680d 96be 847a a03d f2c0 24bd 8956 8ebe
-0.815605 -0.17328697 -0.26347026 -0.0690214 -0.017116738 -0.7295836 -0.3155008 0.15306902
-0.0018375344 0.052716516 -0.54632276 -0.33145759 -0.48184785 -0.22389576 0.0930873 -0.16719407
-0.29556915 -0.19761382 -0.3278783 -0.11678176 0.18812315 0.032515753 0.24456206 -0.07462669
-0.10187543 -0.35273078 -0.14292018 0.13559718 -0.27438596 -0.17729627 0.30965596 0.51827437
0.77417755 -0.060429886 -0.14814268 -0.042938612 0.3935105 -0.16036542 -0.046565562 0.011003124
0.3423154 -0.1696956 -0.34658954 -0.10012114 -0.47832516 -0.03154262 0.06794987 -1.739584
-0.13024151 -0.18446852 -0.081580006 -0.62725717 0.49567175 0.18539086 -0.44312918 -0.7736543
0.5460887 -1.3939506 0.27799365 -0.8359576 1.7781576 -0.242057 -1.3534381 -0.12615299
0.2040505 0.68122643 -0.035292704 -0.27674472 0.4521393 -1.0923344 -0.25495446 -0.50278735
-0.8163824 -0.22441915 -0.89845836 -0.12942433 -0.49389446 -0.7030881 -0.45619 -0.19398405
-0.35994926 -2.8959405 -3.697315 -0.02802366 0.42207864 0.00016234392 -3.8465645 -2.5925689
-0.2267637 -1.398565 0.16492034 -0.010733918 0.8066193 0.009051627 -1.0802068 -0.7083908
-1.8823507 0.48177367 -0.9452043 -3.2150483 -1.2775812 0.2601019 -0.59668463 0.29621908
0.3050249 -1.0689318 0.48742795 -0.4353591 -1.0465902 0.068960935 1.0918827 -0.015231374
-0.111345455 -0.35425243 -0.5852993 1.1179413 0.050787114 -0.1655955 0.9341179 -0.54364806
0.29005653 -0.14149712 -0.3743499 1.9459177 0.29821777 -0.17207357 0.86581683 0.3995805
-0.62235576 0.050903395 -0.6335682 1.2974495 1.3257596 0.26299787 -0.15285733 0.19388579
0.59960675 -1.6664708 -0.33655313 0.056126177 1.284376 -0.76223165 0.5100508 0.46594432
0.20591177 -0.8155881 0.16802828 -2.1767025 -0.11314199 0.64175576 0.36866996 0.101836935
0.46639568 0.07501606 -0.06305709 0.057411198 0.4259055 0.2784439 0.52770495 -1.6646672
-0.76178837 0.39912057 -1.0606186 0.3613407 0.5158553 -0.12003301 0.31251842 0.42854825
-0.71324515 -0.7523786 0.086674325 0.3738089 -0.52301866 -0.11309211 -0.8078634 0.4494163
0.11085555 0.16720414 0.06999214 0.15608926 -0.23248878 -0.39272305 -0.324822 0.90029615
0.33647928 -1.7843981 -1.1021352 0.554044 0.21957171 0.4129018 -0.41301143 -0.13133591
0.3270719 -0.53955466 -1.3737373 0.17042048 -0.6912232 1.1964958 -1.1561869 0.76881546
0.72519684 -0.96229696 -0.3304931 -0.84705895 -0.6634336 0.16606744 0.27729627 0.024721226
-0.34533855 -1.0671183 -0.725992 -0.8151949 0.02106833 -0.449461 -0.4235878 -0.81392074
-1.1978382 -0.9978736 -0.3361949 0.7556329 0.1099789 -1.2702457 -0.7396791 0.19563562
-0.47654796 -1.4786586 -0.14347176 -0.9621252 -1.0402414 -0.67066425 -0.38330096 0.4528843
-0.00451007 0.20959306 -1.0496407 -0.29919884 -0.750545 0.35165584 -0.1782883 1.2788075
-1.0654408 0.31415272 -0.9380577 0.5553102 0.8131182 0.6783932 -1.1274514 1.069474
1.4808779 -0.10844291 -0.43718687 -0.3099123 -0.29307103 0.07835868 -0.04022307 -0.27800396

fc2.bias f4 [30]
00000000: 7da0 3cbd 32c2 973e 9acc e6be f94a c03e
00000010: 92d5 5abf f660 ffbe ca22 74be 49f8 463e
00000020: 1c00 353f 6d47 3d3e e1c5 4cbf 54a5 423f
00000030: 3501 433e d2f7 293f db1a 6dbe a142 173f
00000040: 9b58 27be f4f4 803f 35f2 00bf 69b5 41be
00000050: c689 243f b54d d1be 9c3a efbe cf93 ed3e
00000060: 871f 493f a160 84bd 7def 253f eb37 2d3d
00000070: 140b 49bd cb5a 063f
-0.04605149 0.29640347 -0.45077974 0.375572 -0.8548213 -0.49878663 -0.23841396 0.19430651
0.7070329 0.18484278 -0.7998944 0.7603352 0.19043429 0.6639377 -0.23154776 0.5908604
-0.16342394 1.0074754 -0.5036958 -0.18916859 0.64272726 -0.40879598 -0.46724403 0.46401832
0.7856373 -0.06463743 0.64818555 0.042289656 -0.04908283 0.5248229

fc3.weight f4 [20, 30]
00000000: c797 80be f164 06be 76d4 58be 474f 453a
00000010: 08b5 a3be 1d0f ce3d d27a bfbe 3c87 dbbe
00000020: 6034 8ebe 4623 40be 2fad 9dbd b7b1 14be
00000030: f834 f6bd 3605 e8be 8eeb 95be 57ef fdbe
00000040: 717e 72be f7e9 31be a785 d2bd acc6 57be
00000050: 1179 30be 27d9 1fbb 1a87 013d 6a50 86be
00000060: 22aa bfbe daf4 49be 9789 6bbe 5167 00be
00000070: a45b 32bd fa47 fdbe 7cff a43e 8fe9 8b3f
00000080: f2d7 09be 923b 7d3e 61fb 34bf ed2a dfbd
00000090: b7c4 e8be 0135 923d f539 ef3e ea84 f23d
000000a0: 6359 473e daf4 51bf 150b 5a3e 8426 fbbc
000000b0: 927c 8e3d 3077 dfbc d659 95bc 6967 05bf
000000c0: c4f9 313e 6ae1 d7bc 463c e53e 9762 e83e
000000d0: 5eb4 633e 5b5e c03e 73dd 233f fcf2 2bbe
000000e0: 0180 ce3e d7f5 04bf 476d 373e b811 9c3e
000000f0: 801b a7be 022e 4c3d 9628 26bf 864d 933c
00000100: 4d82 49be bedc bb3d 0f90 a0be e5cd cbbe
00000110: e278 0fbe c685 efbe 851e 65be 7f4d fcbd
00000120: f00f 35be 6d98 4fbf b181 0dbe 11a7 f4bd
00000130: 51d2 1cbf a57d cbbe 7251 28bd a390 50be
00000140: 798d 6dbe b700 07bf 9a8d f8bd e5f7 89bd
00000150: 639e 97bd e5e2 cabe f9d5 eabe 2544 22bf
00000160: e69e 213e 5f50 f6be 9885 61be 4536 b13d
00000170: 4021 73be ba29 7bbd f9ed f6be 9fdf da3e
00000180: cd00 afbf 5eca c0be 7a5b 79be b700 2a3e
00000190: 8072 10bf f40b 4e3e ed49 043d 6f16 e1bc
000001a0: c95b ccbe 54af 82be a1b7 2cbf f6da a83e
000001b0: f0f5 61bd d4b3 1a3f dd93 8b3d 593b d73d
000001c0: 7c66 813e b1f1 e7be b17d 0abf 7c06 923d
000001d0: 12d6 72be e99d a33d e0a5 1fbe 1142 cdbd
000001e0: a8ab 963d 124e 4c3d a113 44be 0fce fc3c
000001f0: d0e9 05be 0eb7 983d f6fd bbbe 4126 0abe
00000200: 7495 1bbe 2a06 abbe ed1b 03bc ab27 e0be
00000210: 5f18 4b3c 63b0 e1bc 1569 72bc d43a 2fbe
00000220: 6b9e 3bbe 80c8 c9be 4d51 0cbe a089 b23d
00000230: 1c76 883d 9f90 c5be 5c6b c43d 894b 14bd
00000240: d660 dabe 064a 7fbd c5a3 87bd 2d0b c83d
00000250: 0bde ec3c bc61 15be e02b a7be 3504 843f
00000260: c765 2abf 832f cc3e 81f9 bcbe 9dc0 aabd
00000270: 24be 3cbd b5dd f23d f6a6 123e c47e 9ebd
00000280: db9d 2bbf 5209 d3bd fe97 d6bd afb9 b53e
00000290: 3887 18bf 51c7 d63e 41ec 8abe 9735 01bf
000002a0: e0ee 17bd 189c f9be b669 a63e c1b5 9d3e
000002b0: 7685 ad3d be46 9b3e ae63 da3e a955 5abe
000002c0: 8616 f23e 1bbf 45be da10 773d 14ff 633d
000002d0: 0d84 c63d 97d8 afbe b2b5 643f 8760 293f
000002e0: 3763 00bf 3af2 973e 2a52 eabb 4257 4e3f
000002f0: 63f5 4bbf 243a 8a39 0e22 033e 0c32 2d3e
00000300: 683d 4f3f 7f2b 3ebf 7b73 323f b690 80bf
00000310: fc78 333f af6a 953d a2a6 a4be 2173 afbf
00000320: 37fd 3dbf aece 9f3e 146d 2b3e d73b 133f
00000330: e503 753b 6631 2fc0 f7a5 3c3e d9e4 2dbd
00000340: e4e1 063e ed9c 7c3e d81c 3ebe 98f2 753f
00000350: 58a9 abbe 135d 103f f628 c1bd cfb9 2cbe
00000360: 3e9c 953d 90eb b6bc 273b 953e ac88 e7bd
00000370: 2e79 5dbf 6d15 753e d48e b63c cf99 963e
00000380: 1506 9a3d 4983 083e d367 e2bd 2c8d 95be
00000390: 51ff 0cbe 2f56 a5bd 7ec7 c43e 8351 993e
000003a0: cd12 95be 7a42 bf3e 0029 0b3f 8bea 8bbe
000003b0: 6f2c be3e f0bf 9ebe 17dc 18be e1d4 1a3d
000003c0: ecbe 003e 6ff4 8d3e 3282 31bd 0e8c 12bd
000003d0: 77f9 3bbf 0429 243e 8b82 42bf 86fa bf3e
000003e0: 03c6 1b3d f56e d93d a72e 793d 5f60 33bf
000003f0: f821 ab3d a073 d93e c255 14be a89d f53e
-0.25115797 -0.13124444 -0.21174797 0.0007526767 -0.31974053 0.100614764 -0.37398392 -0.42876613
-0.27774334 -0.18763456 -0.07699048 -0.14520918 -0.12021822 -0.45316476 -0.29281276 -0.49596664
-0.23681046 -0.17374407 -0.102793984 -0.21071881 -0.17233683 -0.0024390907 0.031622984 -0.26233226
-0.3743449 -0.1972231 -0.23001705 -0.12539412 -0.043544427 -0.49468976 0.3222617 1.0930651
-0.13461283 0.24729756 -0.70696074 -0.10896859 -0.45462582 0.07139016 0.46723905 0.118417576
0.19467692 -0.8201424 0.2129329 -0.030658014 0.06957354 -0.027278513 -0.018231314 -0.52110916
0.17380434 -0.026352603 0.44772547 0.45387718 0.22236773 0.37571988 0.6400978 -0.1679191
0.40332034 -0.5193762 0.1791278 0.30482268 -0.32638168 0.049848564 -0.6490568 0.017981302
-0.19678612 0.091729626 -0.31359908 -0.39805523 -0.14010957 -0.4678175 -0.22374924 -0.12319469
-0.17681861 -0.8109196 -0.13819005 -0.11945928 -0.6125842 -0.39744297 -0.041093297 -0.20367675
-0.23198499 -0.52735466 -0.12136383 -0.06736735 -0.07403257 -0.39626232 -0.45866373 -0.6338523
0.15783271 -0.48108193 -0.22023618 0.08652929 -0.23743153 -0.06131909 -0.48228434 0.42748734
-1.3672119 -0.37654394 -0.24351302 0.16601835 -0.56424713 0.20121747 0.032297064 -0.027476517
-0.39913777 -0.2552439 -0.67467695 0.32979554 -0.055166185 0.60430646 0.06815312 0.105093665
0.25273502 -0.45301583 -0.5409804 0.07130143 -0.23714474 0.07989103 -0.1559062 -0.10022367
0.073569596 0.04987914 -0.19148113 0.030859975 -0.13077474 0.0745679 -0.36717194 -0.13491155
-0.1519373 -0.3340314 -0.0080022635 -0.43780264 0.012395947 -0.027549928 -0.014795561 -0.17112285
-0.1832215 -0.39410782 -0.13702889 0.08717656 0.066631526 -0.385869 0.0959079 -0.03620485
-0.42652005 -0.062326454 -0.066230334 0.097677566 0.028914472 -0.14588064 -0.3265066 1.0313784
-0.6656155 0.3988 -0.36909106 -0.08337519 -0.04607977 0.118586935 0.14321503 -0.077390224
-0.67037743 -0.10304512 -0.10478209 0.35493228 -0.5958133 0.4194894 -0.27133372 -0.50472397
-0.037093043 -0.48751903 0.32502526 0.3080273 0.08472721 0.3032741 0.42654175 -0.2132174
0.4728281 -0.19311182 0.060318805 0.055663183 0.096931554 -0.34344932 0.89339745 0.66162914
-0.5015139 0.29676992 -0.007150908 0.80601895 -0.79671305 0.0002636473 0.1280596 0.16913623
0.80953074 -0.7428512 0.6970746 -1.0044162 0.7010648 0.07295739 -0.3215838 -1.370701
-0.742145 0.31212372 0.16740829 0.57513183 0.0037386355 -2.73739 0.18422686 -0.042454574
0.13172108 0.24669237 -0.1856569 0.96073294 -0.33527637 0.5639202 -0.09431641 -0.16867755
0.073051915 -0.022329122 0.29146692 -0.11305365 -0.8651303 0.23933955 0.022284903 0.29414222
0.07520691 0.13331331 -0.11054959 -0.29209268 -0.1376927 -0.08073079 0.3843345 0.29945
-0.29115906 0.37355405 0.54359436 -0.2732738 0.37143275 -0.31005812 -0.14927708 0.037800673
0.12572831 0.2772555 -0.043337055 -0.035778098 -0.7342753 0.16031271 -0.7598044 0.37495822
0.038030636 0.106168665 0.060835507 -0.70068926 0.083560884 0.42471027 -0.14485839 0.47971845

fc3.bias f4 [20]
00000000: 5b29 ccbe 0298 633f 7b5b 0dbf f6da b23f
00000010: ed59 67be 455e 0e3f f0c3 6c3f 3937 c03e
00000020: 3a00 323f 151f b93d 71b7 c53f 3a54 323f
00000030: f842 f63e 7077 a03d dd77 26bd 32ab 43bf
00000040: 9bc0 a23e 8909 a1be 3e05 183f 7364 77bd
-0.39875302 0.8890382 -0.55217713 1.3973072 -0.22592898 0.55612594 0.92486477 0.37542132
0.69531596 0.090391316 1.5446607 0.6965977 0.48097968 0.07835281 -0.040641654 -0.764331
0.3178757 -0.31452587 0.59383 -0.06039853

fc4.weight f4 [2, 20]
00000000: 1fb1 563e 521d b0bd 7dbf 993e 20d9 8c3e
00000010: 99f8 19be 3dae a4bd 2e40 eb3d c86c babe
00000020: 3c5d 3d3e 6575 c43c 085d 303e 0635 9b3d
00000030: 954a 66be 9458 0b3e ddbc 3bbe a6a5 ffbb
00000040: cabf 353e c4c1 9a3d 6e1e 9bbe bd8e 7f3c
00000050: 9214 c2bd 39b9 b83e 5fb0 7abe c48b 9abd
00000060: 008e 3e3c 67d4 613e af8f abbd a9b2 45bd
00000070: 6e3f 56be 2089 803e cff4 b6bd 867b 9ebd
00000080: ff5b 923e 3206 dabd 9ac7 ccbd ae29 9ebe
00000090: 8ab1 85be 984a 0b3e 1f7d 393d 1910 f1bb
0.20966004 -0.085993424 0.30028906 0.27509403 -0.15036239 -0.08041046 0.11486851 -0.36411119
0.18492597 0.02398176 0.17222989 0.07578473 -0.22489388 0.13608009 -0.18333764 -0.0078017293
0.17748943 0.07556489 -0.30296654 0.015597996 -0.0947658 0.36078814 -0.24481343 -0.075461894
0.011630535 0.22053681 -0.08377015 -0.048266087 -0.20922634 0.25104618 -0.08933412 -0.07738404
0.28585812 -0.10645713 -0.099990085 -0.30891174 -0.26112014 0.13602674 0.04528534 -0.0073566553

fc4.bias f4 [2]
00000000: fcf1 cebd 53e6 993d
-0.101047486 0.07514634
