Sample_Based_Extension/UNSW/UNSW_Defense/Defense_Distillation/teacher_model.pth (torch, 23240 bytes, 8 tensors)

fc1.weight f4 [50, 56]
000000 cb 16 88 bd 62 56 d3 be c2 d3 18 be 7a 7f 6d bf
       -0.066449724 -0.41276842 -0.14924529 -0.9277264
000010 89 e2 00 bf b1 1e e0 be 97 3f 69 bf 3a 93 9f bf
       -0.50345665 -0.43773416 -0.91112655 -1.2466805
000020 1d 89 0b bf 1d 58 2e bf 98 ac 16 3d bc d6 88 3e
       -0.54506093 -0.681032 0.036785692 0.2672633
000030 00 57 53 be 1f 27 01 bf 44 ce ad bf 18 2c 90 bf
       -0.20638657 -0.5045032 -1.3578572 -1.1263456
000040 ec c4 11 40 11 2f 90 bf eb 03 8c 3e 0e 0a 84 3e
       2.2776442 -1.1264364 0.2734674 0.2578892
000050 52 6c 0c bf 99 85 7e 3c f7 cd 08 3f 27 6c 41 be
       -0.54852784 0.015534782 0.5343928 -0.18888913
000060 9c 85 ed bd f6 49 08 3f 4f 16 91 3e 3e 93 99 3e
       -0.115977496 0.53237855 0.28337333 0.2999515
000070 a3 6a 99 3e 45 f3 36 3e 0c 63 c4 bc 22 dc 16 3f
       0.2996417 0.17866237 -0.02397301 0.58929646
000080 57 95 ce 3a 48 97 d0 3e 5c 70 61 3d ff 91 43 3e
       0.001576106 0.40740418 0.055038795 0.19098662
000090 0f 5d 10 3d 49 50 01 be bd 24 87 be e4 53 d0 bd
       0.035244998 -0.12628283 -0.26395217 -0.10172251
0000a0 6d ac b1 bf b8 dc df 3d bc 82 a8 3d 4c 71 3a 3e
       -1.3880745 0.10930771 0.082280606 0.18207282
0000b0 5e 78 ab 3e 6e 4b 46 3f be 68 8e 3e f0 8c bc 3d
       0.3349027 0.77458847 0.27814287 0.09206569
0000c0 3b 8e b0 3f 11 c2 4b 3f 31 de 37 be f2 6d a3 be
       1.3793405 0.79592997 -0.17955853 -0.3191982
0000d0 2b 55 23 bd 59 0d c1 3e 5f c5 9e 3e 7f be c1 3e
       -0.039876144 0.37705496 0.31009957 0.3784065
0000e0 21 7b af bf 21 84 c6 3f 96 1e 35 bf 0c 3c 99 be
       -1.3709451 1.5509073 -0.70749795 -0.29928625
0000f0 03 e8 92 bf 4c dd 06 bf c6 6c 32 bf bd ed be bf
       -1.1477054 -0.5268142 -0.69697225 -1.4916302
000100 23 a7 4b bf f8 af 08 bf 61 9d 31 bf fc 06 07 3e
       -0.79551905 -0.53393507 -0.69380766 0.13186258
000110 a7 93 5c be 87 91 26 40 cc e5 09 c0 39 1b 82 bf
       -0.215407 2.6026323 -2.1546507 -1.0164558
000120 d4 41 3a 3f 5e 4d 3f bf ec c3 3c bf 01 3b 0e bf
       0.72756696 -0.7472743 -0.73736453 -0.5555878
000130 42 76 51 bf 92 38 6f be 25 4c b9 be f2 29 dd bf
       -0.8182107 -0.23361424 -0.36190906 -1.7278426
000140 7f 58 72 3d 40 be 93 be 9b 57 0d 3d 16 ae 7b 3e
       0.059166428 -0.28856087 0.034507375 0.24578127
000150 bf 27 6e be 0d 00 ad 3e 18 e8 2f bf bc ec 77 3e
       -0.2325735 0.337891 -0.6871352 0.24211401
000160 bf 63 91 be fb d3 3c 3f a2 2b 0b 3f 02 29 58 3e
       -0.28396413 0.73760957 0.54363453 0.21109393
000170 f3 e4 0d 3f e5 a2 d6 3e ad b8 be 3e f1 f0 c6 3e
       0.55427474 0.41921154 0.3725027 0.388557
000180 71 01 52 be 2e 80 82 3d 7c 0a 89 3e 1d 16 9e be
       -0.20508362 0.063721046 0.2676581 -0.30876246
000190 6d 28 79 bd 7f f5 9a 3f 43 65 cc 3e a6 a4 48 3f
       -0.06082957 1.210617 0.39921007 0.78376234
0001a0 ec 5e c2 3f 6e 21 37 3e 92 ad 3e be bb 23 39 be
       1.5185218 0.17883846 -0.186209 -0.18080036
0001b0 44 5f 88 3e 27 98 08 3e e2 50 d2 3e c2 5b 90 3f
       0.26635182 0.13339292 0.41077334 1.1278002
0001c0 0d 66 50 be ef 86 b8 3f 78 6e 71 bf 50 a0 97 bd
       -0.2035143 1.4416178 -0.94309187 -0.07403624
0001d0 ce 49 c0 bf 64 f1 1b 3d e8 52 09 bf a9 ed 84 be
       -1.5022523 0.038072005 -0.5364213 -0.2596257
0001e0 75 1b 84 3f 10 a3 de bd 96 65 c8 bf a0 e4 db bd
       1.0320879 -0.108709455 -1.5656002 -0.10736966
0001f0 da bf 9c bb 3d 4b e2 3f 9f 62 0c bf 5a 85 97 bf
       -0.0047836127 1.7679211 -0.54837984 -1.1837571
000200 72 1a 11 40 46 38 d7 be 65 1b 8d 3e 72 6f 5e 3e
       2.267239 -0.4203512 0.27559963 0.217222
000210 01 72 f0 3d be 4e 42 be ce 38 87 be 9f e9 0f bf
       0.117404945 -0.1897535 -0.26410526 -0.5621585
000220 44 de c2 3d b0 97 11 bf 3e d2 9c 3e a5 70 4d 3e
       0.0951505 -0.5687208 0.30629152 0.20062502
000230 bf 92 da 3d b3 ad b3 3d 04 8b bd be 9b b6 be 3d
       0.10672521 0.08773365 -0.37020123 0.09312173
000240 00 e1 8b bf 6d 0b 05 3f 0f 13 06 3f 4b a6 93 3e
       -1.092804 0.5197056 0.5237283 0.2883781
000250 30 97 bd 3e c1 cd 06 3e 49 e5 e2 3e 12 9d 9b bd
       0.3702941 0.13164426 0.44315556 -0.07598318
000260 cc 9c b7 3c 21 c5 8e bd d5 d4 17 3e 56 10 06 bf
       0.022413634 -0.06971193 0.14827283 -0.52368677
000270 d0 1f 30 bd 89 48 0d 3e 16 9c a4 40 3f 33 84 3e
       -0.04299909 0.13797201 5.1440535 0.25820348
000280 6f ef 14 3f e2 9e 69 bc 4d 2f 65 be c1 cf 9d be
       0.58177847 -0.014259072 -0.22381325 -0.30822566
000290 8d f7 ff 3b 10 a5 37 bf 4f 4d 9a bd c3 81 88 3f
       0.007811493 -0.7173624 -0.07534277 1.06646
0002a0 c7 05 95 3f 2a 5f 22 bf c0 9c 2d 3f 64 3d 2d bf
       1.1642388 -0.6342646 0.67817307 -0.676718
0002b0 80 66 65 bf 55 f6 3d 3f 62 af 8b bf ba 36 a4 3f
       -0.8960953 0.74204 -1.0912898 1.2829201
0002c0 4f d9 18 3f 20 62 e1 3e ca ab 27 3e d0 2a b3 bd
       0.59706587 0.44020176 0.16374126 -0.087484
0002d0 d5 a9 43 bb ec 55 85 be 26 fb c6 bd ac 47 7d be
       -0.0029855866 -0.26042116 -0.097158715 -0.24734372
0002e0 f6 61 ba be 05 25 02 bf e3 88 b2 bb cc 4c 13 3e
       -0.36402863 -0.5083774 -0.005448447 0.14384764
0002f0 b9 09 8c bd 6e ff f2 3d 26 c4 a4 3c e5 45 ec be
       -0.06837792 0.118651256 0.020113062 -0.46147075
000300 71 5a f2 bd 2d b7 8e bd 39 c7 af 3d 32 18 97 3d
       -0.118336566 -0.06968532 0.085829206 0.07377662
000310 e3 dc 1d 3f c1 be ab be 9a 4f 86 be 7c 23 70 bc
       0.6166517 -0.3354397 -0.26232606 -0.014656898
000320 ce 2a ca 3b d6 19 ba bc 19 31 43 bd f3 e5 53 bd
       0.0061696535 -0.022717398 -0.047654245 -0.05173297
000330 17 c3 8d 3d 10 ed 39 be 97 99 0c be 02 6a 1a be
       0.06921976 -0.18156838 -0.13730465 -0.15079501
000340 fb d6 91 bd 40 40 86 3d 36 62 50 bc 83 c9 00 3e
       -0.071210824 0.065552235 -0.012718728 0.1257687
000350 e7 da f3 3e 45 90 8e bd bd 0c ee 3e 95 8c dd 3e
       0.47627947 -0.06961111 0.46494094 0.43271318
000360 44 e2 cc 3f 16 7c f9 be 58 93 8f be fa f6 97 be
       1.6006551 -0.48727483 -0.28042102 -0.29680616
000370 78 cc 1a 3d 14 ab 33 3f 5c 2a a7 3e a4 a4 0c bd
       0.037792653 0.7018292 0.32649505 -0.0343367
000380 f2 73 ee 3f f1 4f 4b bf d7 0e cb bb fc b0 77 bf
       1.8629134 -0.79418856 -0.0061968374 -0.9675443
000390 69 8b 76 bf 86 15 86 be 8e 36 c2 bf 4f a7 bd 3e
       -0.96306473 -0.26188296 -1.5172899 0.3704171
0003a0 ed 91 3a 3f 0e ef 0c bf 08 95 1b 40 63 a2 12 be
       0.72878915 -0.5505227 2.4309711 -0.14319758
0003b0 bd 38 0b be f6 d7 ce 3e 6b 4a 13 bf bc f2 5f bf
       -0.13595863 0.4039914 -0.5753543 -0.8747976
0003c0 a4 e8 30 c0 8b 8a 0a bf 26 d2 9c be ac 6f 2c 3f
       -2.7641993 -0.5411765 -0.3062908 0.673579
0003d0 94 1e 88 bf ca 27 8a 3f 98 ef 2e 3e 0a e7 f0 bf
       -1.0634332 1.0793393 0.17083585 -1.8820508
0003e0 40 ec 36 3e 3d 96 bf 3d 35 8c 5d 3f 15 83 5b be
       0.1786356 0.093548276 0.86542064 -0.21436723
0003f0 6b b1 a5 3f ad d4 12 bf b5 8e 44 bf 6b ab fc be
       1.2944769 -0.5735577 -0.76780254 -0.49349532

fc1.bias f4 [50]
000000 d3 0d 90 bf bd fd 72 bf fd bc 6f bf 7a fe 50 bf
       -1.1254219 -0.94918424 -0.9364775 -0.816383
000010 9e a9 a0 bf 67 e8 25 be dd 64 45 bf 43 aa e6 bf
       -1.2551763 -0.16201936 -0.7710703 -1.802071
000020 cd b3 61 bf 18 fc a6 3d 3f d1 9a bf 95 c4 6c be
       -0.8816498 0.08153552 -1.2095107 -0.23121865
000030 00 96 dc be 26 2b 1e bf f5 3f 82 bf c0 09 35 bf
       -0.4308319 -0.6178459 -1.0175768 -0.70718
000040 0d 52 6a bf d9 77 b1 bf 2c d8 45 bf d9 89 7e bf
       -0.9153145 -1.38647 -0.7728298 -0.9942909
000050 55 53 21 bf d2 46 8c bf 03 20 2d bf b0 0d 09 bf
       -0.6301778 -1.0959113 -0.6762697 -0.5353651
000060 99 9b 5f bd dd d7 7b be 4d ac 15 bf 46 bb 50 bf
       -0.05459175 -0.24594064 -0.58466035 -0.81535757
000070 fc 3f b9 bf 7a 35 8d bf 9e e6 15 bf cd ed 59 bf
       -1.4472651 -1.1031945 -0.5855502 -0.8512848
000080 02 db 60 be 28 2e bd bf 9b e9 de be 47 b9 9e bf
       -0.21958545 -1.4779711 -0.43537602 -1.2400292
000090 70 8e 33 3e e6 01 9c bf 29 a8 59 bf a9 b3 64 bf
       0.17534804 -1.2188079 -0.8502222 -0.8933664
0000a0 23 b8 31 bf 72 f1 c5 bf 11 f6 54 bf e8 70 3d bf
       -0.69421595 -1.5464308 -0.8318797 -0.74000406
0000b0 42 cc 91 bf e3 f7 42 be 04 0c 9b 3e 0e 7b 40 bf
       -1.139046 -0.19039874 0.30282605 -0.75187767
0000c0 c4 7c a4 be c7 ae f6 be
       -0.3212644 -0.4818022

fc2.weight f4 [30, 50]
000000 14 49 32 be eb 13 bd 39 94 5d 2d 3d 34 41 4b be
       -0.1741069 0.0003606373 0.04232557 -0.19849092
000010 8f 81 45 3d 95 0d b1 bd 52 4f c8 3d 71 42 8c be
       0.04821926 -0.08645169 0.09780754 -0.2739444
000020 f0 e7 a6 bc a5 7e 32 be ca 33 b3 bd 0d 33 f1 bd
       -0.020374268 -0.17431124 -0.08750112 -0.11777315
000030 f9 bf a9 3d e5 bc 5d bd af 4e 68 be 6c 13 e2 bd
       0.08288569 -0.054135222 -0.22686265 -0.11038861
000040 0e 59 93 3c 53 25 48 be 96 7f 24 bc a8 ad 50 3d
       0.0179868 -0.19545488 -0.0100401845 0.05094686
000050 72 26 3d be 88 15 01 bc ec 41 5f bb 64 74 48 be
       -0.18471697 -0.007878669 -0.0034066392 -0.1957565
000060 6b 3a 00 be 96 f4 6a be 39 c0 a3 bd 23 15 ed 3a
       -0.12522285 -0.22944865 -0.07995648 0.0018087964
000070 9d 19 73 be 58 3d d2 bd 6b f1 54 bd 3c 54 d0 bd
       -0.2374024 -0.10265607 -0.051988047 -0.101723164
000080 e3 23 af bd ef 2e 8c be d5 c0 76 be dd a5 0d be
       -0.08551767 -0.27379557 -0.24096997 -0.13832803
000090 73 37 77 be 0c 06 16 be 76 cd 3e bd 0c 95 a2 bd
       -0.24142246 -0.14650744 -0.04658266 -0.07938585
0000a0 7f d0 a6 be 19 39 02 be 37 c9 5e bc 2b 58 20 bd
       -0.32580945 -0.12717094 -0.013597778 -0.039146584
0000b0 42 d3 43 be 9f 5c 9a bb a6 af b0 bd 77 39 7a bd
       -0.19123557 -0.0047107483 -0.08627252 -0.06108996
0000c0 6d 04 36 be 6c 4f 91 bd a0 cd 5d 3f 7f a9 01 3f
       -0.17775126 -0.07095227 0.86641884 0.50649256
0000d0 cb 93 0c 40 09 3d 36 3e e2 3a f1 3d 2e 2b 03 3f
       2.1965206 0.1779672 0.11778809 0.5123776
0000e0 eb 05 5e bc 3f 1a 89 bd 9d 98 b5 3d 0e d0 3d 3e
       -0.013551216 -0.06694459 0.08866999 0.18536398
0000f0 b4 17 1c be 74 73 94 bf ec cc 24 bf 23 98 01 bf
       -0.15243417 -1.1597733 -0.64375186 -0.5062277
000100 75 b3 75 3e eb be c6 3e b4 7f 47 bf 70 e8 c0 be
       0.23994239 0.38817534 -0.77929235 -0.37677336
000110 54 e2 dc 3e 10 ab f2 3f 32 97 78 3e d3 72 08 be
       0.43141425 1.8958454 0.24276426 -0.13325052
000120 17 11 ec be 41 89 19 3a dc 02 ea bf 29 3c c4 bf
       -0.4610679 0.0005856939 -1.8282123 -1.533086
000130 06 61 17 bf d9 39 73 bf 6a cb 97 be af 60 8f be
       -0.5913242 -0.95010144 -0.2964738 -0.2800345
000140 97 bb b2 bf f7 92 da 3e 57 a0 f7 bf 55 90 19 3f
       -1.3963498 0.4269025 -1.9345807 0.5998586
000150 d0 3f b1 be 25 61 1c bf 54 1b 56 bd 1e dc 71 be
       -0.34618998 -0.6108573 -0.052272156 -0.23619124
000160 06 bf 89 bd ee c9 e6 3d 59 66 94 be a6 b4 75 bf
       -0.06725888 0.11268984 -0.28984335 -0.9597877
000170 ed bc 1b bf 76 87 ba bd 12 62 a3 be ec 8f ff be
       -0.6083515 -0.091078684 -0.3191076 -0.4991449
000180 80 ef 9c 3e a4 4d 5f be 31 8c 6e bf d2 76 9b bd
       0.30651474 -0.21806961 -0.93182665 -0.075910226
000190 b8 96 8c be d6 54 a2 be a6 be db 3f 87 a9 b1 be
       -0.2745874 -0.3170535 1.7167556 -0.34699652
0001a0 e7 93 3c 3e 20 31 e9 3c 2d ac 83 be 23 4d 8e be
       0.18415795 0.028465807 -0.25717297 -0.27793226
0001b0 e0 e6 42 be 0d a4 68 3e 62 a4 51 bf d4 45 12 c0
       -0.19033384 0.2271883 -0.81891453 -2.285512
0001c0 71 75 af be cc ef 85 bd 5f 9d a2 be ef 6f fc be
       -0.34269288 -0.06539878 -0.3176069 -0.4930415
0001d0 67 43 d0 3e c8 3a 3f bf ae c0 51 3f c4 fc c2 3e
       0.40676424 -0.7469907 0.8193463 0.3808347
0001e0 a5 68 f0 3e c8 9f 1c bf 43 24 11 be 84 96 83 be
       0.46954837 -0.61181307 -0.14173989 -0.25700772
0001f0 e2 51 10 c0 f0 e8 64 bf c8 b9 83 3e 9b a6 17 bf
       -2.2549977 -0.89417934 0.25727677 -0.59238595
000200 35 59 63 3d c8 39 29 bf 62 bc 2a bf 5b 12 89 be
       0.055504996 -0.6610379 -0.666937 -0.26771817
000210 c2 48 c6 bf 8a 9d 8a be 00 e5 f2 3e 19 66 29 be
       -1.5490954 -0.27073318 0.47440338 -0.16542853
000220 5c 7c a2 be 9b 3c 05 3e 2b 21 bd bd 89 a8 ac bd
       -0.31735504 0.130114 -0.09234842 -0.08430583
000230 25 5d 5b bf bd 62 47 3f 61 44 a0 be 6d eb b0 3e
       -0.85689 0.7788504 -0.3130217 0.34554616
000240 fd a1 82 bf ad 6d d3 be 5d d5 b2 3e e0 e0 32 3e
       -1.0205685 -0.41294613 0.34928408 0.17468596
000250 21 7a 85 3d ec be c8 be 9e b2 a6 be 2a a5 db be
       0.06517435 -0.39208162 -0.3255815 -0.42899448
000260 15 b4 e3 3c f2 2c ae bd 03 26 a6 be da 3b 62 bf
       0.02779583 -0.085046664 -0.32450876 -0.88372576
000270 c2 ec e7 bd 26 d4 5a be 41 f1 8f 3f c0 7f 81 bf
       -0.11324455 -0.2136999 1.12455 -1.0117111
000280 e4 08 5c bf 76 2b b2 be be 56 90 3c 50 dc 5f 3f
       -0.85951066 -0.34798783 0.017619487 0.87445545
000290 a7 a1 94 3e 19 1a f8 3d e4 bb b5 bd ef ae 8e 3d
       0.2902958 0.12114353 -0.08873728 0.0696696
0002a0 06 74 f7 3d d1 89 ff 3e 47 c3 46 bf 43 55 d7 bd
       0.120826766 0.49909833 -0.7764172 -0.10514309
0002b0 8b 53 1c 3f db b0 b3 3e 29 cb 4a bf 58 84 73 3c
       0.61064976 0.35095868 -0.7921625 0.014863096
0002c0 c5 d2 c0 be da 99 f5 bd bd 50 45 bd 05 af 0a be
       -0.37660804 -0.119922355 -0.0481727 -0.13543327
0002d0 a8 c4 d8 bd 6d 84 01 3f 5e d5 e1 be cb 96 e9 be
       -0.10584384 0.5059269 -0.441081 -0.45622858
0002e0 a7 61 eb be 4d ae e4 bc c1 dc dd be 08 45 b3 3e
       -0.4597294 -0.027915144 -0.43332484 0.35013604
0002f0 c2 24 b2 3c b3 91 a2 3d 82 c1 ca 3d 5e 75 3c 3e
       0.021746043 0.07937946 0.0990019 0.18404147
000300 bd 76 9c be 07 69 d1 be 32 d5 f1 be 19 d8 6c bf
       -0.3055934 -0.40900442 -0.47232968 -0.9251724
000310 4f 92 91 be c9 91 b8 bd 75 c5 96 be 56 37 4d bf
       -0.28431937 -0.09012181 -0.29447523 -0.8016256
000320 82 ab 8f bd ba f8 f7 3c cb 73 3f be dc 2a b8 bb
       -0.070151344 0.03026997 -0.18696515 -0.0056203436
000330 69 56 01 bd 2c b3 9d bd 68 93 f8 bd d8 e9 7f bd
       -0.031576548 -0.0770019 -0.121374905 -0.06247887
000340 dc 05 97 bd e3 d7 af be 19 ca d7 bd ea fb 5a be
       -0.073741645 -0.34344396 -0.10536594 -0.2138516
000350 66 1d 00 be 14 10 79 bd 38 f8 09 be 2b 54 98 bd
       -0.12511215 -0.06080635 -0.13473594 -0.07437929
000360 69 55 52 bc af aa 4a bd 82 d6 37 be da 7e 46 be
       -0.012837746 -0.049479183 -0.17952922 -0.19384328
000370 94 ed a5 be e9 cd 75 bd 11 d9 ea bc 99 51 80 bd
       -0.3240782 -0.060010824 -0.028667958 -0.062655635
000380 48 a4 dc bd cc d6 22 be d8 30 7a bd 73 e8 bf be
       -0.10773522 -0.15902251 -0.061081737 -0.37482032
000390 77 13 7d bc a4 0a f9 bd c9 12 22 bf c0 81 82 bd
       -0.015446535 -0.12160233 -0.63309914 -0.06372404
0003a0 e7 db 65 be d1 41 ff 3c c3 9d c9 bc c1 01 25 3b
       -0.22447167 0.031159313 -0.02461136 0.0025178047
0003b0 9f 3e d2 be 33 02 ac bd c7 1e 46 bd a5 15 0c be
       -0.410634 -0.08398857 -0.048369195 -0.13680132
0003c0 ab 57 04 be 5d 94 16 be 66 e1 be 3c 4d a7 37 be
       -0.12924068 -0.14705034 0.023300838 -0.17934914
0003d0 8e ed 42 be 6f 97 a9 be bd ad 5f be 5d da 0c bc
       -0.19035932 -0.33123347 -0.2184362 -0.008596984
0003e0 5b ae bb 37 96 8a 27 be 52 05 3a be 89 ea 0d bd
       2.2373328e-05 -0.1636146 -0.18166092 -0.0346475
0003f0 11 40 2e 3d e4 6f c7 3c f8 ce be 3e 91 ac 0e bf
       0.042541567 0.024345346 0.3726728 -0.55732065

fc2.bias f4 [30]
000000 72 c1 50 be a9 ee 27 3f e0 d2 28 3e 72 51 b2 bd
       -0.20386294 0.6559854 0.16486692 -0.08706941
000010 83 ca 0a bf 49 57 de 3f 97 e9 9b bf 14 31 22 bf
       -0.5421526 1.7370387 -1.2180661 -0.6335614
000020 00 0f 40 3e 49 d4 df 3f 59 ac 88 bf 38 3d 06 40
       0.18755722 1.7486659 -1.0677596 2.0974865
000030 e4 2d bb bf cc d1 b9 be 67 17 57 bd eb 7d b0 3e
       -1.462338 -0.36292875 -0.052512553 0.34471068
000040 e4 74 ce be af 73 80 bf 28 ba af bf 44 d2 ad 3e
       -0.40323555 -1.0035304 -1.3728685 0.33949482
000050 f7 a4 c4 be 8c f8 15 3f c7 03 68 bf b6 6e 89 bf
       -0.38407108 0.5858238 -0.90630764 -1.0736911
000060 5f 91 5b 3f cc b8 9e 3f 7c a0 a7 bf 54 74 18 3f
       0.85768694 1.2400146 -1.3095851 0.595525
000070 50 d3 91 bf 77 b5 26 bf
       -1.1392612 -0.65120643

fc3.weight f4 [20, 30]
000000 d4 07 16 bd 6f aa 42 be 85 ea d4 bd 97 94 c5 3e
       -0.03662856 -0.19010328 -0.103962936 0.38589928
000010 3e fe 2e 3d 3f 37 74 3d 8f 11 92 3e 8c 56 33 be
       0.042722933 0.059623 0.2852902 -0.17513484
000020 1c 5b e2 bd 9f f9 41 bf 37 1b 02 bf 56 30 a3 bd
       -0.11052534 -0.75771517 -0.50822777 -0.07968204
000030 7b ea 71 3e 0b 6e b1 be 5e 57 65 bf 12 2d ab be
       0.23624603 -0.3465427 -0.89586437 -0.33432823
000040 62 71 c1 3e fd 07 65 bc 06 6a 2a 3f 9f d8 5e be
       0.37781817 -0.013978955 0.6656803 -0.21762322
000050 ec db 45 be b9 ad 5c bf ed e0 92 be f3 0a a7 3e
       -0.19322175 -0.8620258 -0.2868723 0.3262554
000060 fd da 54 bf ed 10 c0 bd d0 25 41 be 4b 41 ab be
       -0.8314665 -0.09378228 -0.1886208 -0.33448252
000070 3b b7 b2 bd 9f c1 7c 3e 6c 7b 05 3e f1 7d e1 be
       -0.08726355 0.24683236 0.13035363 -0.44041398
000080 b5 a4 ab be 56 e9 25 3f d5 34 b9 bc f6 94 9a 3a
       -0.335241 0.6480917 -0.0226082 0.0011793661
000090 08 ca 55 3f ff 01 30 bf d3 13 96 3d a3 0c 6d bd
       0.835114 -0.68753046 0.07328 -0.05787338
0000a0 09 af 54 3d 56 e2 bf 3a 75 ef a3 3f a2 45 61 bc
       0.05192474 0.0014639597 1.2807451 -0.013749512
0000b0 60 05 e1 be c1 4b 86 be 09 bb 33 be 5e 10 01 3e
       -0.43949413 -0.2622967 -0.17551817 0.126039
0000c0 8f 62 2c 3f 43 95 ac 3c f7 20 cc be 80 44 0e bf
       0.6733789 0.021067267 -0.398689 -0.5557327
0000d0 77 96 16 3f 73 d7 6f 3f 4c 8b 53 bf 92 4c 9c be
       0.5882334 0.93688124 -0.82634425 -0.3052717
0000e0 a5 9e e5 3e eb 0f 4d bf a2 90 00 bf d6 5f cd 3e
       0.448476 -0.80102414 -0.5022069 0.4011218
0000f0 6d 84 a6 bd 8f 5e 22 bd 4e 95 8d 3c 95 77 3a be
       -0.08130727 -0.03964096 0.017283108 -0.1820968
000100 c1 1e 05 3d 4c 93 89 3c 73 96 9d bb ff ed 94 be
       0.032500032 0.01679387 -0.0048091947 -0.29087827
000110 82 dc 0e bd 35 ab 9f bd f9 00 fd bd d4 a3 00 3e
       -0.03487826 -0.07796327 -0.12353701 0.12562495
000120 1a 5e 82 be c8 bc b8 3b b2 52 41 be 35 f0 25 bd
       -0.2546242 0.005637739 -0.18879202 -0.040512282
000130 14 a0 a5 3d 88 16 46 be 70 47 ce bd 06 73 37 be
       0.08087173 -0.19344532 -0.10072219 -0.17914972
000140 7e bb de bb a8 26 b3 bd 42 53 53 be 92 56 71 be
       -0.006797253 -0.087476075 -0.20637229 -0.2356818
000150 d4 8c ea 3d 9a 73 a3 bd 6b 61 e1 bd 22 d2 b1 bd
       0.11452642 -0.079810336 -0.11004909 -0.08682658
000160 85 b8 48 3c c3 8d ec 3c 24 a2 28 be 47 e6 19 be
       0.012251024 0.028876191 -0.16468102 -0.1502925
000170 20 55 07 bf 87 4b 8e bd 0e 61 f4 bb 8e 27 9a 3d
       -0.52864265 -0.069479994 -0.007457859 0.07527076
000180 0f 1a 12 be 0e 0f 8b be eb 62 03 bf 1d 7f 05 3e
       -0.14267753 -0.27159923 -0.5132281 0.13036771
000190 3c 16 24 ba 16 da 17 3e 02 d9 dd be 39 59 92 bc
       -0.00062594167 0.14829287 -0.43329626 -0.01786481
0001a0 87 5c ef bd 5c ba 31 be d1 0a 8a be e0 54 07 3e
       -0.1168757 -0.17356247 -0.26961377 0.13215971
0001b0 12 5f d4 3d 09 fa 10 bf d5 ca 49 bf 11 d6 9a be
       0.10369696 -0.56631523 -0.7882512 -0.30241445
0001c0 d0 cb 52 3e b7 be 77 3d 96 94 89 bd d8 42 86 be
       0.20585561 0.060484614 -0.06717794 -0.26222873
0001d0 58 0b b0 bc 6f af c0 be bb 9d 59 3d 53 d9 b0 be
       -0.021489784 -0.37633845 0.05312894 -0.34540805
0001e0 e6 2f f3 bd a1 8c 2d bf 60 b5 28 3e 36 ce 30 bd
       -0.1187437 -0.6779271 0.16475439 -0.043165408
0001f0 ba b5 68 bd 58 e0 09 bf ec 8b 8d bd 7c bf 17 be
       -0.056813933 -0.53857946 -0.069114536 -0.14819139
000200 61 82 2f bf bd 39 f9 be 24 8f 70 3e 8f f4 95 be
       -0.6855832 -0.48676863 0.23492104 -0.29288146
000210 6b 60 ea 3e 85 25 d6 bd c7 bb db be 43 28 49 bf
       0.45776686 -0.10456375 -0.429167 -0.7857706
000220 94 df da 3e 71 58 15 bd 42 55 87 3e 9b 2b 28 bf
       0.42748702 -0.036461297 0.26432234 -0.65691537
000230 1f f1 1e bf 10 4e ea be 96 c6 59 be 04 de 27 3e
       -0.6208667 -0.45762682 -0.21267161 0.16393286
000240 17 be 81 bd e8 5d a8 bd fa 48 1f 3d 12 20 42 be
       -0.06335085 -0.08221036 0.038887955 -0.18957546
000250 a8 3c 3c bf b0 c0 9b 3d e7 3a ba 3b a8 4e 9f bc
       -0.73530054 0.076051116 0.0056832912 -0.019446686
000260 5d 01 87 bd 95 d9 b1 3e ec 4b d5 bd 47 70 a4 be
       -0.06592057 0.34736314 -0.104148716 -0.3211691
000270 0d 09 ab be 99 a7 d8 bd 2a 76 17 bf 86 40 0e bf
       -0.33405343 -0.10578842 -0.5916468 -0.55567205
000280 6f 68 bb bd 8d 14 bc be e1 40 e5 be f2 b8 ef bd
       -0.091507785 -0.3673443 -0.4477606 -0.117051974
000290 30 c4 be be 4c 6e f3 be 8d 70 80 be cf f6 d1 be
       -0.37259054 -0.47545087 -0.2508587 -0.41008613
0002a0 ff 0e 24 be 52 c9 3d bf ec 97 80 bf 85 4d 14 bf
       -0.16021346 -0.74135315 -1.0046363 -0.57930785
0002b0 5d ed db be d6 f6 b9 be 66 11 03 3f 1b 1d 0a be
       -0.4295453 -0.36321133 0.5119842 -0.13487665
0002c0 27 24 17 bf e8 db b2 bd 17 28 78 be bb 63 7f be
       -0.5903954 -0.0873335 -0.24234043 -0.24940388
0002d0 86 31 07 3e f7 f4 1d bd f4 6d 28 be b3 53 4b be
       0.13202485 -0.038563695 -0.16448194 -0.19856147
0002e0 c6 e0 50 bd e8 d8 d1 3c 35 aa ce be 1d ad c4 be
       -0.05099561 0.025616124 -0.40364233 -0.38413325
0002f0 ea b3 09 bf a5 44 f5 3c 73 50 ae be c1 f0 a0 be
       -0.5379015 0.029939959 -0.34045753 -0.3143368
000300 0d 91 31 be f9 59 32 be 9e 6b 2a bf d1 2d ed be
       -0.17340489 -0.17417134 -0.6657046 -0.46324018
000310 44 aa 82 3d ee 99 9d 3d 6a 0b 7c be ac c5 9a be
       0.06380132 0.076953754 -0.24613729 -0.30228937
000320 08 09 26 bf f7 a7 41 bf 9e 19 92 3d 05 53 01 bf
       -0.6485753 -0.7564692 0.07133792 -0.505173
000330 1a 67 7a bd f2 fb 91 3d a2 81 60 be 64 ec 1c bc
       -0.06113348 0.07128133 -0.21924451 -0.009577844
000340 43 c7 23 be a9 91 0c 3e 46 c9 d7 3d 4b 79 b8 be
       -0.15993981 0.1372744 0.10536437 -0.3603004
000350 ba db 13 be 4c ee b9 bd 75 b9 8f bd 54 ea 19 3e
       -0.14439288 -0.09078655 -0.07017795 0.15030795
000360 9e b8 fd be b4 e2 c3 be 68 4b 10 bf be 9d 33 3c
       -0.49554914 -0.38258898 -0.5636506 0.010962902
000370 07 13 b6 bd 79 1b ba 3e fa fc 95 be 16 4b 4d bd
       -0.08890348 0.36349085 -0.29294568 -0.050120436
000380 e4 02 7a bd 7d 32 b4 bd 7b d8 a5 bc c1 c3 e7 be
       -0.061037913 -0.087986924 -0.020244827 -0.45266536
000390 c8 64 ad be 90 ca 93 be 03 b0 9f be d5 c1 af be
       -0.33865952 -0.2886548 -0.31188974 -0.3432757
0003a0 8e 50 98 be 85 f4 b5 be b6 0c 9f bd a6 b7 18 bf
       -0.29748958 -0.35538116 -0.07766096 -0.59655225
0003b0 94 d7 95 be 87 9f 70 be 42 37 eb 3c 1b eb 54 be
       -0.29266036 -0.23498355 0.028712872 -0.2079281
0003c0 12 48 c9 3d fd 73 fb 3c bb b4 45 bf 7f 82 87 bd
       0.098281994 0.030694956 -0.772289 -0.06616687
0003d0 da 72 e6 3d 36 5a ac bc b5 fd 49 be f5 04 4e be
       0.11252375 -0.02103911 -0.19725688 -0.20119078
0003e0 46 73 20 bf f2 ee 08 bf 1a dc 31 bf 7e 3f 7f bd
       -0.62675893 -0.534896 -0.69476473 -0.06231641
0003f0 92 5f 90 3d ac 4f 63 be cf 4f 8b be 2b 0c af 3a
       0.070494786 -0.22198361 -0.27209327 0.0013355067

fc3.bias f4 [20]
000000 d6 16 f2 3d 6c 28 9a bf f5 64 d0 be 3f d9 9c bd
       0.11820762 -1.2043586 -0.40702024 -0.07658624
000010 81 09 1c 3e 68 fa 26 bf fb aa 5a be 0c a3 b1 be
       0.15238 -0.6522584 -0.21354286 -0.34694707
000020 fb 7a 33 bf c0 4e 58 bf ff 45 b5 3e ce ec e4 be
       -0.7010953 -0.8449516 0.35404965 -0.44711918
000030 20 46 08 bf 3a 7f 06 bf b6 94 30 3f e1 42 a4 be
       -0.53232 -0.5253788 0.68976915 -0.32082275
000040 b6 4b 6a be 2a cf 94 bf 27 30 7a 3f ee 7f 6d bf
       -0.22880444 -1.1625721 0.97729725 -0.9277333

fc4.weight f4 [2, 20]
000000 5e 03 96 bd f6 a5 82 3e e8 7e e3 3d 35 60 08 3e
       -0.07324861 0.25517243 0.1110819 0.1331795
000010 19 c5 8a 3c 1a 79 43 be dd e5 41 bd 5b 1c d3 3d
       0.016939687 -0.19089165 -0.047338355 0.10308143
000020 be 45 94 be e4 7c 67 3e 8d 49 e9 bd bf cc c0 bd
       -0.2895946 0.22606236 -0.11390982 -0.09414052
000030 d8 1d ed bd e3 42 98 3d 62 76 da bd b9 c2 09 be
       -0.11577958 0.07434633 -0.10667111 -0.13453187
000040 16 ef 88 be a5 db 80 bd 5c 62 be 3d 82 8d 19 bc
       -0.26744908 -0.06291894 0.09296104 -0.009372117
000050 b8 02 94 bd 79 a7 2d 3d 1e 72 da 3b 7b f9 d4 3d
       -0.07227081 0.042396042 0.006666436 0.10399147
000060 54 94 92 3e fc c1 bf bc 4c 34 82 3d 7f 49 9b bd
       0.2862879 -0.023407929 0.06357631 -0.07582378
000070 d2 3a 13 3f 54 21 98 be c5 a7 ff 3c f8 cd e5 bd
       0.5751163 -0.29712927 0.031207928 -0.11220926
000080 40 46 c3 3e ff 2d 06 3d ed 54 ed 3e 39 ab d2 3d
       0.38139534 0.03275871 0.46353856 0.102865644
000090 b9 f5 43 bd 63 da 91 be f7 5e 37 be d8 9a 2b bd
       -0.04784176 -0.28486928 -0.1790732 -0.041895717

fc4.bias f4 [2]
000000 34 09 47 3f a6 21 3a bf
       0.7774842 -0.72707593
