attack-tabular/trained-models/adult-mlp.ckpt (torch, 555730 bytes, 33 tensors)

model.model.0.weight f4 [89]
00000000: 12bd 943f 06ea 823f 4d01 843f 964d 883f
00000010: 0198 783f 9a56 893f 0fe0 783f 4b52 843f
00000020: c586 6d3f d6c7 783f d8c2 793f 0375 833f
00000030: e718 833f 4e37 713f d854 843f d365 743f
00000040: 6e92 833f 4836 823f 071b 823f 20e0 833f
00000050: 3d10 853f 6ea0 863f 424b 793f 7182 843f
00000060: 2c94 7f3f 3afe 813f 3415 823f fe8f 823f
00000070: 5ca6 843f 4f26 833f 2448 7e3f 43cf 7a3f
00000080: d6cc 793f cf40 7f3f 8007 843f b822 803f
00000090: 2865 833f 3469 833f a4f6 823f 57a9 863f
000000a0: ec93 7c3f 1a80 7d3f 8cf4 823f 9284 803f
000000b0: e1df 823f ee0a 7e3f fc53 823f ea21 833f
000000c0: ce2c 743f ff95 783f eb30 783f 3a46 7e3f
000000d0: 4317 763f de16 843f 00e3 773f acd2 7d3f
000000e0: 8e27 743f f875 733f 0cde 723f 481b 783f
000000f0: 0944 7e3f 1d35 773f 8cda 623f 752d 733f
00000100: 6665 783f bee9 773f 8a52 743f 487d 713f
00000110: 9765 753f b90e 7b3f 8ec6 793f be24 743f
00000120: e0b1 763f bd77 813f de45 7a3f 8429 763f
00000130: 2fce 753f 3a63 763f c99a 743f e937 793f
00000140: aba1 803f 90dc 743f b70b 793f a5e9 733f
00000150: f2df 773f 9b03 793f a9b8 803f e93c 7f3f
00000160: 389f 753f
1.16202 1.0227668 1.0312897 1.0648677 0.9710694 1.0729554 0.97216886 1.0337614
0.92783767 0.97179925 0.9756293 1.0270084 1.0241975 0.94225013 1.0338392 0.9546787
1.0279062 1.0172815 1.0164498 1.0302773 1.039558 1.0517709 0.9738046 1.0352308
0.9983547 1.0155709 1.0162721 1.0200193 1.0363269 1.0246066 0.9932883 0.97972506
0.9757818 0.99708265 1.0314789 1.0010595 1.0265245 1.026648 1.0231519 1.0520428
0.9866321 0.9902359 1.023088 1.0040457 1.0224572 0.9923543 1.018188 1.0244725
0.95380867 0.97103876 0.9694964 0.9932591 0.96129245 1.0319479 0.9683075 0.99149585
0.95372856 0.9510188 0.94870067 0.9691663 0.99322563 0.9656542 0.88614726 0.94991237
0.9702972 0.9684104 0.95438445 0.9433179 0.9585814 0.9806934 0.97568595 0.95368564
0.96365166 1.0114666 0.9776286 0.961571 0.96017736 0.9624516 0.95548683 0.9735094
1.0049337 0.9564905 0.972835 0.9527839 0.9682609 0.97271127 1.0056354 0.99702317
0.95946074

model.model.0.bias f4 [89]
00000000: de24 b6bc 12a7 58bc cfe8 79bc 988c c8bc
00000010: 44de 1abd 33e3 74bc 7db1 b1bc 3c9d c4bb
00000020: 0e31 3f3a d130 533c 8ff3 96bc 58b1 703a
00000030: ef03 11bc e7e3 973c 7165 083d b465 9fbc
00000040: 42b7 d7bc a995 e7bc cd8e ae3c 3339 1cbd
00000050: 9e85 053d 1f5f ce3c a43d 71bb 984a 983c
00000060: caae 82bc 0dd2 c23c c953 873c d635 cd3b
00000070: 8274 e23b 35d4 363c 1699 0bbd 9612 703c
00000080: d65c 063d 94e5 26bd dc00 99bb 67b6 f0bc
00000090: 4f39 823c be86 c53c a77e 103d b350 dd3c
000000a0: e34b cabc 8633 063d 9151 7bba 5568 743c
000000b0: 0f92 22bb 5d02 093d 15b4 03bb 546a 41bc
000000c0: cf9c 96bc 99c8 05bc c816 63bc 865e 283d
000000d0: 5570 d03b 3df9 99bc 5cea 4c3a 392f 503d
000000e0: 4408 28bb 2d45 d03c c4b0 3dbc 410e 9e3c
000000f0: a1c9 f5bc b2fe 933c 4ec2 d9bc 7312 febc
00000100: 993e e03b f05b 8f3b 6501 9ebc ecc0 82bb
00000110: cd6e a138 f03c 8d3c 08da 49bc c53d 3cbc
00000120: 7a22 613c 30f3 cd3c 6182 5dbc 15ec 843c
00000130: efa3 29bc 3117 ba3c b67d 36bc 1451 91bc
00000140: fa58 873c f5ab 42bc 5c48 263c 3b9d 243c
00000150: 75eb a5bc 17dc 303b a251 dc3c 9c09 03b8
00000160: 8181 a63c
-0.022234377 -0.013223426 -0.01525326 -0.024481103 -0.037809625 -0.014946747 -0.021691078 -0.006000189
0.00072933815 0.012890057 -0.018426685 0.00091817 -0.0088510355 0.01854129 0.033299867 -0.019457676
-0.026332501 -0.028269606 0.021308327 -0.038140487 0.03259813 0.025191842 -0.0036810422 0.018590257
-0.015952487 0.0237818 0.016519444 0.0062625213 0.0069108615 0.011158993 -0.03408154 0.014652869
0.03280338 -0.040746287 -0.004669292 -0.029383851 0.015896467 0.024112102 0.035277035 0.02701602
-0.024694389 0.03276398 -0.00095870445 0.014917453 -0.0024806296 0.03344952 -0.002009635 -0.011805136
-0.018385319 -0.008165502 -0.013860412 0.04110577 0.0063610473 -0.018795604 0.00078169047 0.050826285
-0.0025639692 0.02542361 -0.011577789 0.019293906 -0.03000337 0.018065784 -0.02658191 -0.031014657
0.0068433997 0.0043749735 -0.019287774 -0.0039902832 7.6977165e-05 0.017240971 -0.012320049 -0.011489336
0.01374113 0.025140375 -0.013519854 0.016225854 -0.010354026 0.022716137 -0.01113837 -0.017738856
0.01652192 -0.011881818 0.010149088 0.010047252 -0.020253876 0.0026986653 0.026894394 -3.1241783e-05
0.020325424

model.model.0.running_mean f4 [89]
00000000: ca6d 1a42 a73c 3948 1278 2141 d8aa 8944
00000010: 9575 ac42 cf09 2242 1a5e f23c 93c1 823d
00000020: f8de b139 7eaa 403f ff76 113d 7a39 9f3d
00000030: 7883 233d ac39 ea39 ef7d 0a3e bafa 733a
00000040: 6c97 ec3e 712a 4d3c 47c1 a73e 9220 013d
00000050: 7f0e f63c 0b32 ed3d 3e1e 2539 d824 033e
00000060: 88e7 fd3d 6242 fd3c 85b3 2b3d 810e 7e3d
00000070: dca2 cc3d 8ffc 9b3b 8c5d 3a3e 7bc0 a23c
00000080: 7844 e53d 490f f53c a884 473d 55f7 d03e
00000090: 68e3 803e a0d5 f43c 21b1 203e 566f d83d
000000a0: d01b 433d b090 173c 8445 063d 62d4 c43d
000000b0: 98e4 0b3c 4073 5a3f e519 a93e 0973 2b3f
000000c0: c6e7 203a 489d 5a3b 2d1a 133b d367 043b
000000d0: 7025 3a3b 92fd 153b 0e31 843a 1fa7 493b
000000e0: 276a 423b a06b 7b3a 59c8 963b 74fe 763a
000000f0: 641c f53a 9916 bf3a b3c1 1138 80d7 8e39
00000100: 1863 163a f23f ac39 040b 4a3b 666a ca3a
00000110: 0753 503a 2d34 203b 285c 1f3b ce06 003b
00000120: db94 293a 21dc a13c e723 8d3a e676 083a
00000130: 319e 913a 2f88 bf3b 4722 d13a 74c6 933a
00000140: 63d9 6c3b dabc cb39 6f04 253b 07f9 c13a
00000150: 7315 0d3a 99fe 283a df9c 693f a038 183b
00000160: a1ac 163a
38.607216 189682.61 10.091814 1101.3389 86.22965 40.50958 0.029585887 0.063845776
0.00033926195 0.7526015 0.035513874 0.07774635 0.0399203 0.00044674927 0.13524602 0.00093070755
0.46209276 0.012522326 0.32764646 0.031525202 0.03003621 0.115818106 0.00015746892 0.12807024
0.12397677 0.030915443 0.04191925 0.06202555 0.099920005 0.004760332 0.18199748 0.019867172
0.111947 0.029914515 0.048710495 0.408137 0.25173497 0.02988702 0.1569257 0.10568111
0.047633946 0.009250805 0.03278114 0.09610821 0.008538388 0.8533211 0.33027568 0.66972405
0.00061380526 0.0033357907 0.0022446022 0.0020203486 0.0028403662 0.0022886735 0.001008542 0.0030769778
0.0029665323 0.00095909275 0.00460152 0.0009422072 0.0018700478 0.0014578878 3.475109e-05 0.0002724491
0.0005736812 0.0003285404 0.003082932 0.0015443086 0.00079469424 0.0024445162 0.0024316404 0.0019535306
0.00064690196 0.019758286 0.0010768146 0.00052057055 0.0011109767 0.005845092 0.001595565 0.0011274354
0.0036140315 0.00038859883 0.0025179645 0.0014798947 0.00053819193 0.00064466294 0.9125499 0.002322711
0.00057477696

model.model.0.running_var f4 [89]
00000000: 8f40 3a43 360a 2650 409d d340 1c0e 594c
00000010: 2a51 1c48 be35 1943 482e eb3c 91df 743d
00000020: 69dc b139 96ab 3e3e 9a40 0c3d b5d7 923d
00000030: 3dff 1c3d 0221 ea39 4986 ef3d fab6 733a
00000040: b88c 7e3e 6a9d 4a3c 098b 613e 671b fa3c
00000050: 48ab ee3c 87c4 d13d bb18 2539 dca8 e43d
00000060: 1780 de3d e96d f53c 737d 243d a246 6e3d
00000070: f023 b83d fd37 9b3b 9573 183e bf7b 9f3c
00000080: faa1 cb3d f8c7 ed3c 5acb 3d3d ed58 773e
00000090: a6e2 403e 237d ed3c 8e81 073e cc9c c13d
000000a0: 28e0 393d 6726 163c 7ce3 013d 83f1 b13d
000000b0: bdb6 0a3c 602e 003e 1c83 623e 1c83 623e
000000c0: 56d2 203a b9e8 593b d3cd 123b 6a21 043b
000000d0: 8c9d 393b 1eae 153b 2009 843a 1a05 493b
000000e0: 84da 413b d028 7b3a 2e1e 963b bec4 763a
000000f0: 91a7 f43a adc4 be3a b5c1 1138 94d2 8e39
00000100: 1b4e 163a 7239 ac39 6374 493b d10f ca3a
00000110: 5d2e 503a aec6 1f3b e001 1f3b 7b9b ff3a
00000120: 6272 293a 12ab 9e3c c2fc 8c3a 3963 083a
00000130: 2172 913a 026e be3b dfc6 d03a 16a0 933a
00000140: 7607 6c3b f2b4 cb39 0ea5 243b 22b3 c13a
00000150: 7aff 0c3a 92e6 283a 1660 a33d fde5 173b
00000160: cf99 163a
186.25218 1.1142748e+10 6.6129456 5.6899696e+07 160068.66 153.20993 0.028708592 0.059783522
0.0003392429 0.18620142 0.034241296 0.07170049 0.03832935 0.0004465655 0.11695535 0.000929698
0.24858367 0.012366632 0.22025694 0.030530645 0.029134408 0.10242563 0.00015744839 0.1116502
0.10864275 0.029959636 0.0401587 0.05817283 0.089912295 0.004736899 0.14887841 0.019468186
0.09943004 0.029026017 0.04633651 0.24155016 0.1883646 0.028990334 0.13233015 0.09453735
0.045379788 0.009164429 0.031711087 0.08688643 0.00846642 0.1251769 0.22120327 0.22120327
0.0006134858 0.0033250286 0.0022400513 0.0020161518 0.0028322665 0.0022839378 0.001007352 0.0030673207
0.0029579708 0.00095809717 0.0045812344 0.0009413472 0.0018665661 0.0014554464 3.4751098e-05 0.00027241244
0.00057336845 0.00032849197 0.0030739538 0.0015416091 0.0007941479 0.0024379897 0.0024262592 0.0019501293
0.0006463883 0.019368682 0.001075648 0.00052027736 0.0011096635 0.005811454 0.0015928409 0.0011262919
0.003601519 0.00038853992 0.0025122794 0.0014778117 0.0005378645 0.0006443049 0.07977311 0.0023177855
0.0005744965

model.model.1.weight f4 [128, 89]
00000000: d391 03be 225d 8fbd f4da 0f3d 88ad f0bd
00000010: f9f2 983b dd5c 13be 8743 a13d d7c2 383d
00000020: 8d12 ee3d d7dd 51bc 62e0 983c e31e 83b9
00000030: fb5e cd3d 5584 bbbd ef63 953d 870a 993d
00000040: cc26 01be 1158 2a3d 035e 18bd be22 8d3d
00000050: c47e 8dbd ebf1 663c fd53 963c 1d89 fe3d
00000060: e242 2b3c 9cbd 2f3d 006b 79bd 70d9 aabd
00000070: 1669 98bd ee09 c7bd 010a b1bd eaa5 09be
00000080: f6dd cb3d 959c 9a3d c247 02bd ce08 3cbd
00000090: f0a5 5d3d e043 31bd 5120 ae3c 68d9 0d3d
000000a0: a20b 07be dba7 7e3d 5559 21bc 1df5 1dbd
000000b0: ddb1 b4bc 44a0 6d3c bb47 ab3d cf78 debc
000000c0: b9a5 c63c 0110 c5bb 163f 8d3b ddcb 233c
000000d0: cea5 cc3c f7b3 85bc 6d88 a3bd 05d8 133d
000000e0: ad04 963d 8424 093d 7b6a 543a 7f22 42bd
000000f0: ef62 7ebd 46ee b6bc aefd 173d 0020 3a3d
00000100: 3ac9 cebd 5255 aabd 6133 493d fccc 373c
00000110: 2491 d5bd 56ee 033d 00b0 8e3b 9116 39bc
00000120: 535b d7bd f352 8ebd 0ffd b23d ca6e ac3c
00000130: e4b5 283c 9835 e1bc cb0c b6bd 3445 8fbd
00000140: c70d 7c3d 21f9 90bd 304d 17bc 3e26 b23d
00000150: 773e a9bd b7e8 b1bc 53ee 99bd 5cd5 fd3c
00000160: 5316 b6bd df22 0fbe 16f9 7a3d 036d a13b
00000170: 901a 573d 1bed 023e c090 c93d 5ff4 e53d
00000180: 9778 173c aac0 a63d df10 a1bd ff4e d4bc
00000190: f83f 1fbc ae18 523c f6eb dcbc aab2 10bd
000001a0: 97b4 2fbd f24c 0abd cf71 27bd 9b2d db3c
000001b0: aacb c6bd 09a1 963d d0c4 423d fdf5 19bd
000001c0: 5559 70bd 5f78 cdbc 4c8b 84bd 01be 24bd
000001d0: 81eb 75bd 21b1 c53d cd78 5ebc bb82 e0bc
000001e0: 5bfd 16be fbaa 383b 574c 433d d685 9dbd
000001f0: 0bc5 c03d 2daf c13c f01d 2b3d 5a9e b7bc
00000200: 2c67 853b 3533 55bd 74ef 993d 750a 67bd
00000210: ea95 cabd bf48 623d a75d 963b ffae 6f3d
00000220: 2dd2 83bd b072 f23a f849 0f3a acc2 933c
00000230: a349 9d3d 1af7 113b 733b 94bd 0bf2 5d3d
00000240: fa23 d53c 7c5d fbbc 0ee8 51bd 44b4 4abd
00000250: 4ecb 1abd c140 29bd cca9 6ebd 3c93 833d
00000260: d3ad 17bd d8aa 8e3d d6a9 843c 84a4 d8bc
00000270: 1eef 9cbd 563a c9bc c8f9 49bd f58d 7d3d
00000280: e210 453d 156f 093d 64e6 713d dcc0 8b3d
00000290: 310e 85bd a66e ad3d 2acd 8bbd 18b0 24bd
000002a0: 317d b3bc bf0c d6bc 1c6e eab9 68f1 13bd
000002b0: 445a 99bd 0ca7 8d3c 5697 0fbd 0d24 353d
000002c0: c21b 953d f562 86bc ab99 58be 6252 f3bc
000002d0: 92ac a9bd adf0 cfbd 2dc3 5cbd c155 a6bd
000002e0: c45c 2dbd 4669 883d ba03 9e3d 7de9 5a3d
000002f0: efd2 813d 0960 623c 58a9 bd3b 3bee 903d
00000300: 2f6f 74bd 133d 0e3d b7ff 403d 3537 8abd
00000310: fbfa cd3d 8a48 f43d 832c c7bd 8189 c53d
00000320: 9daf 2abd 5f32 e03d b474 f0bd e1e9 183c
00000330: d076 c63d f51e 3abd 5b1b 57bd f4d8 683d
00000340: f71b d33d 11e4 833c b9f1 413c b16e 9f3b
00000350: b36b e6bd fb49 263d c4bc c4bd 6dc2 76bb
00000360: fcff 1b3c 7853 993d b482 bdbd f56f 313d
00000370: cf23 24bd a789 9e3d 361a 1a3d 4ed7 9e3d
00000380: 0fcf b7bc 1dda 7bbd 243c dc3c 70a0 613d
00000390: 71b8 99bd 232e 99bd a5aa aebb 60a4 d73d
000003a0: cfa9 013d b3c9 6e3d f857 893d 6039 3b3d
000003b0: d33a fd3c f335 c2bd 5dcd b33d 047f 65bd
000003c0: 5ef4 dd3d 75df 8a3c 51af d4bd f24f 5cbd
000003d0: d65d 8fbd 1c99 45bd 8da3 cabc 5731 4d3d
000003e0: e7ca a4bd 7a11 693d 43e7 70bc 6ddc 0ebb
000003f0: ba31 6d3d 16a8 7a3d a31b 81bc e35a df3c
-0.12848596 -0.070001855 0.03512092 -0.117518485 0.0046676365 -0.14390893 0.07874208 0.04510769
0.11624632 -0.012809238 0.018661682 -0.0002500928 0.10027882 -0.091561 0.072944514 0.07472711
-0.12612456 0.041587893 -0.03719903 0.06891392 -0.06908944 0.014095764 0.018350596 0.12428496
0.010452958 0.042905435 -0.06089306 -0.08342254 -0.074419186 -0.09718691 -0.08644486 -0.13442197
0.09954445 0.07549397 -0.031806715 -0.045906834 0.05411333 -0.04327762 0.021255644 0.034631163
-0.13188031 0.0621718 -0.009847959 -0.038563836 -0.022057468 0.014503542 0.08363291 -0.027157215
0.024248945 -0.0060138707 0.004310499 0.009997335 0.024981406 -0.016321165 -0.079850055 0.036094684
0.073251106 0.03348209 0.0008103025 -0.04739618 -0.06210607 -0.022330415 0.037107162 0.045440674
-0.10096975 -0.08317055 0.049121264 0.011218306 -0.10428074 0.032209717 0.004354477 -0.011296884
-0.105154656 -0.06949415 0.08739673 0.021048922 0.010297272 -0.027491376 -0.08889159 -0.06995621
0.061536577 -0.070787676 -0.0092347115 0.086987 -0.08263867 -0.021717412 -0.0751616 0.030985527
-0.08890977 -0.13978146 0.061272703 0.0049263253 0.052515566 0.12785761 0.09842062 0.11228251
0.009245059 0.081422165 -0.07864546 -0.025916575 -0.009719841 0.012823267 -0.026967984 -0.035326637
-0.042896833 -0.033764787 -0.04088002 0.026755145 -0.097068146 0.07354934 0.047550976 -0.03758811
-0.058678944 -0.025081811 -0.06471881 -0.040220264 -0.060039047 0.09652925 -0.013578606 -0.027406087
-0.14745085 0.0028178084 0.047680225 -0.07691543 0.09412583 0.0236431 0.041776597 -0.022414375
0.004071137 -0.052050788 0.07516375 -0.056406457 -0.09891875 0.055245157 0.004588801 0.0585165
-0.06436572 0.0018497314 0.00054660393 0.018037163 0.07680061 0.0022272528 -0.072379015 0.05418591
0.026018132 -0.030684225 -0.051246695 -0.04948832 -0.037791543 -0.04132152 -0.0582674 0.06424567
-0.037031006 0.069661796 0.016194265 -0.026445635 -0.076627955 -0.02456395 -0.049310476 0.06190296
0.048111804 0.0335532 0.05905761 0.068238944 -0.064968474 0.0846837 -0.06826241 -0.040207
-0.021910282 -0.026129125 -0.00044713996 -0.036118895 -0.0748792 0.017291568 -0.035056435 0.044223834
0.07280685 -0.016404608 -0.2115237 -0.02970237 -0.08284868 -0.10153327 -0.05389707 -0.08121825
-0.042324796 0.06660704 0.077155545 0.053445328 0.063390605 0.013816842 0.0057880096 0.07076689
-0.059676345 0.034726214 0.04711887 -0.06748811 0.10057636 0.11927898 -0.09725287 0.096453674
-0.041671384 0.109471075 -0.11741009 0.009333105 0.096906304 -0.04543968 -0.052516323 0.056847528
0.10308068 0.016099961 0.011837416 0.0048654904 -0.11251011 0.040597897 -0.09606317 -0.0037652508
0.009521481 0.074866235 -0.09253445 0.04331966 -0.040073212 0.07741099 0.037622653 0.0775591
-0.0224376 -0.061487306 0.026884146 0.055084646 -0.075058825 -0.07479503 -0.005330401 0.10529399
0.031656083 0.058297824 0.06706232 0.045709014 0.030911839 -0.09482946 0.08779404 -0.056029335
0.10837625 0.016952256 -0.103850015 -0.05378718 -0.0700032 -0.04824172 -0.02473619 0.050095882
-0.08046513 0.056901433 -0.014703575 -0.0021798864 0.05790875 0.061195455 -0.015760249 0.027265018

model.model.1.bias f4 [128]
00000000: 8b0e 26bd bf81 113d 96ff 183d 510b 413d
00000010: 0717 1c3d 1c5a 55bb 9147 a9bd 3e38 b4bd
00000020: 0099 44bc b3f1 4fbc 2817 233c 6046 d73d
00000030: 4cdc 893d 06ea 08bd 82b7 99bd 19b4 f2bc
00000040: 44b3 673c 05cc ec3d a98b bc3d 4183 8cbd
00000050: 7c5a a5bd dfcf 15bd 20c8 26bd 4eb4 973c
00000060: 727f 7abd 019f d63d 85ca bebd 78c0 edbc
00000070: 74b4 a5bd 494f 8b3d d5a2 abbc eab8 663d
00000080: 1bb6 f73d e3ba b8bd ac66 3bbd 3da6 1e3d
00000090: 240c 95bd d6ae 8e3b a875 393d e100 bc3c
000000a0: ba0e b5bc 3777 1d3d ec72 8abd 8de0 b0bb
000000b0: 49f3 92bd 3027 af3d 0f29 09be 7a24 033e
000000c0: ba68 063c 5ccf 383d 7b1c b0bd 8724 443d
000000d0: 438a 73bd cae6 403c 70ff 3abd 3cd0 f73d
000000e0: cb7c aabd afb3 57bb 48ca 1dbd dc8d 67bc
000000f0: c811 f73d 7f54 96bc cf3b 983d 0a9b 9fbd
00000100: 5b71 7fbd 33f1 b83c df12 e23b 862a f13d
00000110: 84f9 4f3d 2377 483d 5743 d63d 5bdc 993d
00000120: 4586 8cbc e50e d1bd 328d 30bd 6386 e43d
00000130: 6b06 ebbc 2a25 713d 8bf7 25bb de16 d23d
00000140: abd7 543d 856d babc bff3 a33d 38db ddbc
00000150: fc42 05bd e458 d8bc 65cb 823d e5cb b9bc
00000160: 9e44 463d ab3f a93d fe59 d83b 87ad 353d
00000170: 3ce3 81bd f8bb 4a3d 0bdf 9c3c 4122 51bd
00000180: ff7e 91bd eba1 0fbc 57eb 38bd 8fe0 2cbd
00000190: c861 913d 1a0a d53c db49 08bd 49aa 87bd
000001a0: ff3a 41bd 6c86 86bd 5226 b8bc ad05 c13d
000001b0: fecf ed3d bac0 6cbd dc2d 013d f09c 923c
000001c0: 3059 003e c1d5 bfbc b562 053c ab13 b83d
000001d0: c273 c3bd 5ad7 c53d fc9d 98bd 6e0a 92bd
000001e0: ad40 043d 6f10 8cbd 5428 5cbc b6a1 c1bd
000001f0: 025e babd 2e5c 5cbd 53c4 0ebd 8eb5 7a3d
-0.040541213 0.035524126 0.03735312 0.047129933 0.038107898 -0.003255493 -0.08265603 -0.0879979
-0.011999369 -0.012691903 0.009954251 0.1051147 0.067314714 -0.033426307 -0.075057045 -0.029626893
0.014141861 0.11562351 0.092063256 -0.06860972 -0.08073899 -0.036575194 -0.040718198 0.018518593
-0.061156698 0.10479546 -0.09315971 -0.02902244 -0.08091059 0.06802232 -0.020951668 0.05632869
0.12095281 -0.09020021 -0.045752212 0.038732756 -0.07277706 0.004354338 0.04527822 0.022949638
-0.022101749 0.03844377 -0.06760201 -0.0053978623 -0.07175309 0.08552396 -0.13394569 0.12806883
0.00820368 0.04511963 -0.08599182 0.047886398 -0.05945803 0.011773774 -0.04565376 0.121002644
-0.083245836 -0.0032913496 -0.03852299 -0.014132943 0.120639384 -0.018350838 0.074332826 -0.07793243
-0.062363964 0.02257595 0.0068992223 0.11775689 0.050775066 0.048941743 0.10462063 0.075127326
-0.017153868 -0.10207919 -0.043103404 0.11158445 -0.028689584 0.058873333 -0.002532455 0.10258268
0.05196349 -0.022757301 0.08005475 -0.02708207 -0.032534584 -0.026409574 0.06386451 -0.022680232
0.048405282 0.08264097 0.006602525 0.04435494 -0.0634217 0.049495667 0.019149324 -0.051058058
-0.07104301 -0.008766632 -0.045146313 -0.042206343 0.070987284 0.026005793 -0.03327356 -0.06624276
-0.047175404 -0.06568608 -0.02247921 0.09424911 0.11611937 -0.057800986 0.031537876 0.0178971
0.12534022 -0.023417355 0.008141209 0.08988126 -0.095435634 0.09660216 -0.07452008 -0.071308956
0.032288242 -0.06839072 -0.013437349 -0.09454672 -0.09099962 -0.053798847 -0.034855198 0.0612083

model.model.3.weight f4 [128, 128]
00000000: c0b4 6b3d 1f38 283d 7351 30bb b529 423c
00000010: 1760 0dbd 06a4 55bc c4ad 42bd 2437 e1bd
00000020: 70d6 a93b 8f6a ddbb d20c 693d 55c5 903d
00000030: d46c febc ff3c 623d 7f92 f0bb e048 c93d
00000040: 4f57 dc3d e5b3 ad3d 2114 453d 38a8 1d3d
00000050: 21db f63b da48 473d 36c2 90bd 9c66 2f3c
00000060: 571b b9bc 0e69 f63d 51cc 1dbd fbcf efbc
00000070: 5168 11bd af38 9f3d 8484 173d a598 6ebd
00000080: ebac 90bd 6c87 923c 999f 9cbc e262 c0bd
00000090: 2ce1 bb3d 38b5 c33c b6f9 8cbd 9352 49bd
000000a0: ef77 37bd d6a4 9dbd ac96 26bd 14ed 70bc
000000b0: e862 debd af88 b3bc a380 22bd eca6 f9bc
000000c0: 47b7 3c3d 6a8a 803d c640 b2bd 4f99 903d
000000d0: d0a7 c43d 8964 b33d bcb3 93bc 10f7 803d
000000e0: 0f5a 04be 3af1 be3d 7b82 32bd 3ca7 80bd
000000f0: 95a1 5a3d 53a5 893d 86c4 48bd a498 603d
00000100: a400 46bd 13b8 f93d c68d 06bd bccf bc3d
00000110: 9857 65bd f29a 14bd 5863 3e3d 873d c73d
00000120: 03d1 98bd 3c95 b53c fec5 b23c 1f30 df3d
00000130: 8aef 8d3d eab8 97bd 7d7c 903d 4d5f 86bd
00000140: 791f bd3c b3a4 46bd 7b05 863d 846a a7bc
00000150: 69eb 883d 5c78 bbbd 57fa abbd f274 4c3c
00000160: d06f 84bb 1cf8 34bc a96a 08bd 7b9c e5bc
00000170: eb76 11bd 8de7 b9bd 8c25 2a3c 6c3d d03c
00000180: fdd9 77bc 4a6d 4dbd 6304 7ebd 4d1a a2bd
00000190: c22e 63bd b915 473d 4abb 41bd ce95 65bd
000001a0: e3ee edbc aa09 0d3d 0809 b13d 254f bd3b
000001b0: 7bda 52bd 5508 e53c 4fe1 cdbc 67f7 8a3d
000001c0: 4019 b23d cf11 c2bd 81a7 e2bd 67dd 543d
000001d0: 6358 183d 355c c03c 471d 79bc 1d74 553d
000001e0: 5b10 86bd fd41 9a3c 7970 043d a3a3 f0bc
000001f0: c96d ca3a d243 843d 218f 91bd fa8b d23d
00000200: 4b88 0b3d 114d adbd 6cb6 9b3d 3961 38bd
00000210: 902a e33d de0b aa3d a7fa 2e3d 3edb 71bd
00000220: f321 973c ac67 efbb c06b ab3c 87d9 41bd
00000230: 62e3 1ebd 62f1 eabc 8e5f 73bd efd7 6b3d
00000240: dc04 02bd 6265 773d a648 913d 8830 69bd
00000250: a301 1bbc 672f a53d 5e02 223c 9a19 983d
00000260: 2015 92bd 4302 853c 444d 9e3c c723 15bd
00000270: b4fb 983d 58bc 49bd 2ba4 bc3d d9a5 793c
00000280: ff12 a13d cc41 0fbd 76ce b2bd 6086 4f3d
00000290: 2d3d 1abd a1a9 f73c b7dd 59bd 059c cb3c
000002a0: b497 a2bd 777b 283d 67d7 c53c 0307 4abc
000002b0: a5e3 2fbd 6911 713d 7a4d de3d fae2 4c3c
000002c0: b2c4 893d 8b92 a5bc f25f b63c a7ff 6dbd
000002d0: 454d 2f3c 9aab 1ebd b3f9 9e3d fb53 e93d
000002e0: d5e9 72bc 1938 ab3d c367 cabc be63 673d
000002f0: 0e8d 16bd 4f4a a2bd 5e29 8f3d 59e1 023d
00000300: 0c92 2b3d 164c a8bc 69ae 1a3c 8d00 ca3d
00000310: b7f8 a8bd 2e71 c03d bd15 00bd 49cd 07bd
00000320: 1338 863d 015e a2bc a047 e33c 77f4 a0bc
00000330: ebf9 2d3b fed4 683d e576 59bd 20ff dabc
00000340: f621 98bc d5ee 44bc f74f 3f3c 629c 893d
00000350: ac51 b23d ea45 9a3c 4a43 963d 8aec 2cbc
00000360: ff97 a53d 13d1 bc3d 84d1 13bd 3f1d a83d
00000370: 0a92 bb3d 6a7a 6a3d f318 b53b f3e4 0cbd
00000380: 0f31 faba 5697 81bd ff3a a5bd acbd 18bd
00000390: 8850 673d 0e93 803d 4706 06bd d4e3 cc3d
000003a0: a65a c83d 84aa 513d 5579 583d db2b 28bc
000003b0: 9420 51bc 272b 433d f85c a93d 4992 c83c
000003c0: 0468 5abc ca75 953d cd7f 6abd 5f04 42bc
000003d0: 2e9f 0f3c a6d1 45bd 5c0b 6a3c 56bd 6dbd
000003e0: d910 f33c af9a 883d aa99 353d 4485 e23c
000003f0: 3764 3c3d ff19 71bd 0abf 05bd b195 c93c
0.057545424 0.041069146 -0.0026904016 0.011850764 -0.034515467 -0.0130395945 -0.047528997 -0.10996845
0.0051830336 -0.0067570875 0.056896992 0.07068888 -0.031057753 0.05523395 -0.0073416824 0.09828353
0.1075884 0.08481578 0.0481149 0.038490504 0.0075334464 0.04865346 -0.07068293 0.010705616
-0.022596044 0.12031756 -0.03852493 -0.029273978 -0.035499875 0.077744834 0.03699161 -0.058251042
-0.070642315 0.01788684 -0.01911907 -0.093938604 0.091738075 0.023890123 -0.06883566 -0.049151015
-0.044792112 -0.076974556 -0.040671036 -0.014704961 -0.108587086 -0.021915762 -0.03967346 -0.030475102
0.046073224 0.062764004 -0.08703761 0.07060491 0.0960232 0.0875941 -0.01803004 0.062971234
-0.1292498 0.09323354 -0.043581467 -0.062818974 0.053376753 0.06720986 -0.049015544 0.05483307
-0.048340455 0.121933125 -0.03285005 0.0921931 -0.05599174 -0.03628058 0.04648146 0.09728532
-0.07461741 0.022165887 0.021822926 0.1089785 0.06930454 -0.074083164 0.07054994 -0.06561146
0.023086296 -0.048496913 0.06544014 -0.020436533 0.06685526 -0.09153816 -0.08397358 0.012479054
-0.0040416494 -0.011045482 -0.033304844 -0.028028717 -0.0355138 -0.09077368 0.010384928 0.025419913
-0.015127656 -0.050153054 -0.062015902 -0.07915173 -0.055464514 0.0486047 -0.047297753 -0.056051068
-0.029044574 0.034433044 0.08644301 0.005777257 -0.05147789 0.027958075 -0.02513185 0.067854695
0.08696222 -0.09476053 -0.11067105 0.05196896 0.037193667 0.023481468 -0.015204734 0.052112687
-0.06546088 0.018830294 0.032333825 -0.029374903 0.0015444095 0.06458248 -0.07107378 0.10280605
0.034065526 -0.08461965 0.076031536 -0.045014594 0.110921025 0.08303045 0.04271951 -0.059046976
0.018448805 -0.00730606 0.020925403 -0.04732659 -0.038791068 -0.028679553 -0.0594173 0.057578977
-0.031742916 0.06039942 0.07093935 -0.05693105 -0.009460839 0.08065682 0.00988826 0.07426758
-0.071329355 0.01623643 0.019323952 -0.036411073 0.074698836 -0.049251884 0.09211 0.015237295
0.07864951 -0.03497486 -0.087307855 0.05066526 -0.037655998 0.030232253 -0.05318996 0.02485467
-0.07939091 0.04113337 0.024150563 -0.012330773 -0.042941708 0.058854494 0.10854621 0.012505287
0.0672697 -0.020211479 0.022262547 -0.058105137 0.010699575 -0.03873787 0.0776247 0.11392971
-0.014826258 0.08360309 -0.02470768 0.056491606 -0.036755614 -0.079243295 0.06990312 0.03195319
0.041887328 -0.020544093 0.009440997 0.09863386 -0.082505636 0.09396587 -0.03127073 -0.03315476
0.06553664 -0.019820215 0.027744114 -0.01964782 0.0026546668 0.05684375 -0.053091902 -0.026732981
-0.018570881 -0.012019833 0.01167678 0.06719281 0.08706984 0.018832166 0.07337053 -0.010554442
0.080856316 0.09219565 -0.03608848 0.08208703 0.09158714 0.05724565 0.005526656 -0.03439803
-0.0019088107 -0.06327693 -0.08067893 -0.03729026 0.056473285 0.062780485 -0.03272083 0.10004392
0.09782915 0.051188007 0.052850086 -0.010264362 -0.012764115 0.047648575 0.082696855 0.024483817
-0.013330463 0.07297857 -0.057250787 -0.011841862 0.008765979 -0.04829564 0.014284935 -0.058041893
0.02967112 0.066701286 0.044336 0.027651437 0.04599401 -0.058862682 -0.032652892 0.024607511

model.model.3.bias f4 [128]
00000000: 2b47 f73c 7658 233c de59 06bb 4dd6 363c
00000010: c474 773d ee56 6f3d ef30 e13b 1c19 5a3a
00000020: e892 97bd 10df efbc 08f1 8f3d a1a7 80bd
00000030: 5450 18bd 67a0 e0bc 765c 3cbd 50e7 0dbd
00000040: 7e2c ae3c 12aa 0dbb 9d13 40bc 3342 26bc
00000050: 144d 7ebd 01ee 16bc b6a4 b9bd 6352 64bd
00000060: 28f8 a4bb 60e7 24bc 6978 95bd 0f25 0cbc
00000070: ea4f 72bc 6d79 94bc bfb0 983d bc26 323d
00000080: 4b5c efbc 81e1 1fbd 967a 7a3d 5a1f 8b3c
00000090: a00b 923d 3640 ae3d fcea fa3b 4350 56bd
000000a0: 1a33 bbbd f587 65bd f36e 193b 1f3a 0e3d
000000b0: 3918 51bd a1a4 6cbc 84ca 663b 7993 14bd
000000c0: 015c b13d e4f7 ae3c 5eae 8bbb 8edc 7f3d
000000d0: 5753 353d b19a 8cbd eec5 f3bc 5019 343d
000000e0: 2db0 73bd d9de ae3b 1694 c53c 5d56 cb3a
000000f0: b4c8 14bc 645f cb3d 9ebd 47bd d0f8 28bd
00000100: 4ae2 5fbd 27c0 2dbc 7ae5 8cbd db33 cf3c
00000110: 1a2d 2e3b 8414 9dbd fe99 03bd ba06 c5bc
00000120: b4ce a8bd 62db 34bd dccb 643d 101f bf3c
00000130: fa5a 6b3d 863d dcbc 8b41 b8bb f09f 443d
00000140: e8bb 433d a51f b9bd d5e8 1b3d b4e7 98bd
00000150: 1592 74bd c248 b03d f2a5 8e3d 05f0 9f3d
00000160: 14cb e93c b7a8 583d fec1 a0bd fe53 883d
00000170: ecb9 1cbd e8e5 1bbd 08f2 a43d d0dd 11bd
00000180: ffca 56bd 2978 7dbd e02c 963c 9894 39bd
00000190: 4382 643d be3c 723d 8c4e 763d 9df0 993c
000001a0: b8e4 da3c d7b2 14bd aa31 9f3c 751e d7b9
000001b0: 426a 8e3c 9d37 773d d3bf 913d 82e2 e43c
000001c0: 181c 66bd 69e0 eebc 812c a6bc 832c dabb
000001d0: ef0f c1bb 675b 3d3c fa63 3ebd cb7c 8b3d
000001e0: c2ee 7e38 a746 43bc e048 583d 18b3 8e3d
000001f0: 4d67 72bc 02d8 5f3c 5754 cc3d c732 403d
0.030185303 0.009969821 -0.0020500342 0.011159492 0.06041409 0.058432512 0.0068722884 0.00083197816
-0.07401067 -0.02928117 0.07028395 -0.06281973 -0.037185982 -0.027420236 -0.045986615 -0.034644425
0.02126145 -0.0021616262 -0.011723426 -0.010147619 -0.062085226 -0.009212018 -0.09064619 -0.055742633
-0.0050344653 -0.01006493 -0.07298357 -0.008553757 -0.014789561 -0.018124307 0.07455587 0.04349397
-0.029218813 -0.039033417 0.061152063 0.016982723 0.071311235 0.08508341 0.007657407 -0.052322637
-0.09140606 -0.05603786 0.0023412078 0.034723397 -0.05104849 -0.014443547 0.0035215924 -0.036273453
0.086601265 0.021358438 -0.0042627295 0.062466197 0.044268932 -0.068654425 -0.029757466 0.043969452
-0.059494186 0.005336624 0.024118464 0.0015513409 -0.0090810545 0.09930304 -0.048764817 -0.04125291
-0.054659165 -0.010604895 -0.06879707 0.025293281 0.0026577176 -0.07669929 -0.03212928 -0.024051059
-0.082425505 -0.044154532 0.055858478 0.023330241 0.05745981 -0.026884805 -0.0056230477 0.04800409
0.047786623 -0.09039239 0.038063843 -0.07466069 -0.059709627 0.086076275 0.06965245 0.07809452
0.028539218 0.052895274 -0.07849501 0.06656645 -0.038263246 -0.038061053 0.08053976 -0.035611928
-0.052439686 -0.06188217 0.018331945 -0.045307726 0.05578829 0.05913996 0.060133502 0.018791491
0.02672039 -0.036303367 0.019432861 -0.00041030688 0.017384652 0.06035577 0.07116666 0.027940039
-0.056179136 -0.029159741 -0.020284893 -0.0066581382 -0.005891792 0.011557437 -0.046482064 0.06810912
6.078068e-05 -0.0119187 0.052803874 0.06967753 -0.014795137 0.01366234 0.09977024 0.046923425

model.model.5.weight f4 [128, 128]
00000000: e4c8 cc3d 8b62 583d 4824 9bbb ea2c 3fbc
00000010: fbb4 153d 8532 b3bc 5e4d 203d 039b 97bd
00000020: 1d1f 163d 623e 6fbd 512c aa3d d186 b33c
00000030: ea8a 9abc ec2f 433e d305 a6bc 1df3 843d
00000040: c2e6 b8bd db74 a8bc cb3b c43d 03ca 2bbd
00000050: 94fd a73d 8cfe ad3d 0129 023d 5ce2 9a3d
00000060: 6755 f1bc 65ba 41bd 1858 2bbd 13ad dfbd
00000070: 4c5c 823b 4486 c03c 9c6f be3d 0072 59bc
00000080: d908 e93c 7b1e 253d 22b2 c93b 7845 b3bc
00000090: 2b15 503c b606 43bd b9e8 48bd df58 ab3d
000000a0: eed6 ab3d a85a d8bd 78cc 4cbc c60a 2dbd
000000b0: cd99 cd3d d215 e0bc 753f bb3d 8a88 ccbd
000000c0: 9425 eabc 00f6 8f3d cf06 67bd 7834 53bd
000000d0: 590f 463d 360e c23c be1b cfbd 4f49 77bd
000000e0: 0ad3 5e3d 75a4 7bbd ba50 4f3d 2584 7fbd
000000f0: 5a9f 34bd f687 61bd 8e24 ab3c 2a78 a13c
00000100: ad09 78bd f387 bc3d ae83 d03d d4d2 e93c
00000110: 4fbb 213d c837 803d 49e9 a53c af2d 2dbd
00000120: 80de 83bd 428c 9c3d 0820 15bd 1308 1fbc
00000130: 1b0b b73d c0f7 8c3d 58aa b1bd c65b 8dbd
00000140: ab89 9ebc 3c38 f8bb c1ab b43d 153f fbbb
00000150: f8f3 60bd 83ae 4a3c 2014 50bd 756a 62bd
00000160: db9e 82bc 2c06 8b38 3252 ae3c 492c 22bd
00000170: 45a1 4b3d af64 463d b359 9bbd 1504 b63c
00000180: 8e01 8ebc e3cf 1a3c 95d9 263c c360 9bbd
00000190: 92fc aa3d 3881 603d 4c87 34bd c15a ab3d
000001a0: 5466 743c 0c81 9f3d 19ff 9e3d 3831 61bb
000001b0: 57d6 f03d bd16 06bd d6e9 0dbc 5c49 bbbc
000001c0: 5d21 8e3d 91bc 5b3d eea7 93bb 377d d3bd
000001d0: 7d2a 1d3d c691 86bd 1e42 20bd 1edd 893c
000001e0: a37a beb7 2804 c93d a83a 873d 0d4e 5fbd
000001f0: 1831 8c3d 61b1 623d 3e13 cd3c 7eef b23d
00000200: 5b78 9abc ea93 2bbc 6a5e 3f3d 77bd 653d
00000210: bfc1 903d c78a 7dbd b67d 923d 85d2 953d
00000220: 85e9 123d c531 a53d b9e5 d9bc f874 a0bc
00000230: 71af 8f3d 1fda 60bc c27e 7a3c 116e 48bd
00000240: c813 283d fee0 063d d9e1 8d3c 5907 ca3c
00000250: 063b bebd eebf 8a3b df92 debc 1737 173d
00000260: 4b4f b2bd 2c6e 9fbd e9ec ee3a 08b8 713d
00000270: 75b0 1cbd ec42 a6bc 3ae2 18bd 9e39 453d
00000280: edcb f63c 560a 95bd d197 ecbd b5ad 3e3d
00000290: c01e cebd 9b4d d43b c05c 66bd c3a8 07bd
000002a0: b117 31bc b7f0 39bc ba12 d5bb 622b 6d3d
000002b0: b364 91bc 78da 533d 94b4 2d3d 10dc 3ebd
000002c0: fd42 b0bd 54b3 523d 1591 d43c c062 26bd
000002d0: 6306 39bd 1f9d 3ebd 7ec9 a93d 037f d23d
000002e0: 0d41 143d 2b3b f23c 2a3b c23c 63f2 4ebd
000002f0: 01f7 843d 9495 963d 2f5e 88bd e9fc 8b3d
00000300: fdb4 1e3d d26c 26bd acc3 613c c33e 53bd
00000310: d6e6 403c e934 42bc 74f4 2ebd 16dd 0ebd
00000320: 5c93 823d 3de4 6d3d 5e17 0abd bc2e 3d3d
00000330: 8e08 893d ef51 043c 8758 ed3a 96ab acbd
00000340: 8e76 493d 3503 bebd 89bd 9abc c37c b93c
00000350: dfb7 6abd 7858 2d3d 015f 23bd 6370 9339
00000360: fcce 89bc 7908 e6bc a356 823d 383a 0f3d
00000370: 95c2 10bb 8643 da3c d3d6 c83d 43ba 98bd
00000380: 666a f93c 1903 c5bd 257d 91bd b233 93bb
00000390: 7d90 d23b b137 6bbc 3559 6fbc 6ab4 3ebd
000003a0: ec24 883d e950 7fbd 955e 223d 68db b33d
000003b0: bd6b 6abd 87d3 733c c81f abbd 9c5f 44bd
000003c0: 5238 72bd 3938 dbbd cfa2 49bb 920e 813d
000003d0: 1460 e7bc e45e 653d 112c 943d dabe bdbd
000003e0: e7cc 823d 0e57 b7bc dbc1 7abd 13b0 a83b
000003f0: 34cd 97bd 04d0 3d3d 094d 093d 3973 a9bd
0.09999254 0.052828353 -0.0047345497 -0.011668423 0.03654955 -0.021874676 0.039136283 -0.07402613
0.036650766 -0.058409102 0.08309234 0.021914871 -0.018865068 0.1906125 -0.02026645 0.06491683
-0.090283886 -0.020563534 0.09581717 -0.0419407 0.08202663 0.084958166 0.031777386 0.07562706
-0.029459668 -0.0472969 -0.04183206 -0.10921683 0.003978288 0.023501523 0.092986315 -0.013271809
0.028446602 0.04031227 0.0061552683 -0.021883711 0.012700359 -0.047613822 -0.049050067 0.0836656
0.08390604 -0.10564166 -0.012499921 -0.042246602 0.10039101 -0.027354155 0.09142963 -0.0998698
-0.028582372 0.07029343 -0.056402978 -0.05156371 0.04835448 0.023688417 -0.10112713 -0.060372647
0.05440048 -0.061436135 0.050614096 -0.062381882 -0.044097282 -0.055061303 0.020891454 0.019710619
-0.060556103 0.09205618 0.10181366 0.028542913 0.039485272 0.062606394 0.02025284 -0.042279895
-0.06438923 0.076439396 -0.0364075 -0.009706515 0.08937665 0.06883192 -0.086750686 -0.0690227
-0.019352755 -0.007575063 0.08821822 -0.007667432 -0.054920167 0.012370708 -0.050800443 -0.055277307
-0.015944889 6.629186e-05 0.021279428 -0.039593015 0.049714345 0.048435863 -0.07585468 0.022218743
-0.017334726 0.009448978 0.010183712 -0.07586815 0.08348955 0.054810733 -0.04407434 0.08366919
0.014916975 0.077882856 0.077635 -0.0034361612 0.11759632 -0.03273653 -0.008661708 -0.022862129
0.06939957 0.053646628 -0.0045061028 -0.10326617 0.038370598 -0.06570773 -0.039125554 0.01682907
-2.2706872e-05 0.09815246 0.06602985 -0.054517794 0.068453014 0.055344943 0.02503359 0.08737086
-0.018856218 -0.010472277 0.0467209 0.05608889 0.07068204 -0.061899927 0.07152884 0.07315544
0.035867233 0.080661334 -0.026598798 -0.019587025 0.07015885 -0.013723879 0.0152890105 -0.048933093
0.04103449 0.032929413 0.017319607 0.024661707 -0.092886016 0.0042343056 -0.027169643 0.036917772
-0.0870653 -0.077846855 0.0018228564 0.059013397 -0.03825422 -0.020295583 -0.03732512 0.04815065
0.030126536 -0.07277362 -0.11552394 0.04655238 -0.10064459 0.006478978 -0.056240797 -0.033119928
-0.010808871 -0.011348895 -0.0065024765 0.0579027 -0.017748212 0.05172202 0.04240854 -0.046596587
-0.08606527 0.051440552 0.025948087 -0.04062152 -0.045172106 -0.04653656 0.08290385 0.10278132
0.03619485 0.02956923 0.023709852 -0.050524127 0.06492425 0.073527485 -0.06658589 0.06835348
0.038746823 -0.040631123 0.013779562 -0.051573526 0.011773786 -0.011853435 -0.042713597 -0.034878813
0.06375763 0.058078993 -0.03371369 0.046187147 0.06691085 0.008076175 0.0018108048 -0.08431165
0.04918533 -0.092779554 -0.018889206 0.022642499 -0.05730426 0.0423207 -0.039885525 0.0002812176
-0.01682233 -0.028080212 0.06364181 0.03496763 -0.0022088636 0.026643526 0.098065995 -0.074574016
0.030446243 -0.096197315 -0.071039476 -0.0044922465 0.0064259158 -0.01435654 -0.014608671 -0.046558775
0.06647667 -0.06233302 0.03964098 0.08782083 -0.057231653 0.014881975 -0.08355671 -0.047942743
-0.059135742 -0.10704083 -0.0030767207 0.06301607 -0.028244056 0.055998698 0.072349675 -0.09264918
0.06386738 -0.022380378 -0.06122003 0.005147943 -0.07412186 0.046340957 0.033520732 -0.0827393

model.model.5.bias f4 [128]
00000000: bfbc 463d 9203 c7bd 1cb4 4f3c 984f 213d
00000010: 4e61 183d 1478 21bd f3dc 7fbd a9c2 9abc
00000020: 1d91 863d 0f5c 473d 7496 b4bc b260 253c
00000030: e83d e1bc 3cc0 76bc 15bb 47bd 3244 bebc
00000040: d236 253d c6ad 743d 3243 56bc ba14 553c
00000050: 766e a43d 5639 f33a f64e 483c 1cab 983d
00000060: f65e 853b bfae 86bb 6cea bf3c c1a8 a2bb
00000070: fc0c b0bd a910 89bd 252b 4b3d 6a0a 9abd
00000080: 917a 533d c7e3 86bc e295 183d 515f 95bb
00000090: e1ce 463d c968 793d c5e3 7a3d 83a8 8cbd
000000a0: 568e 783d 22b0 f5bc 7a63 e23c e72b 843d
000000b0: 4720 d3bc f094 67bd 41fe 1ebc 79c5 95bc
000000c0: 4c99 a6bd d27c bfbc af8b 39bd 280a 42bd
000000d0: 7fba 883d 0ba3 9ebd d58d 65bd a9e9 9c3d
000000e0: 76eb c0bb 250f af3d cf65 b6bd e011 c73d
000000f0: 62c2 02bc ff50 4c3d b6c9 4fbc 8cf9 c6bd
00000100: e207 89bc 1f58 a13d f097 b13c 4494 913d
00000110: e0ff 24bd 4aaa 963d bcd6 583d 7f6d 2cbc
00000120: 236c babc 79c4 72bd f4d5 253d 696a 053c
00000130: 0d69 09bd b909 5e3a 8d7f 903d 8b99 5abc
00000140: 2803 983d 724a a9bb 4077 a63d d55a 9abb
00000150: 256f efbc c09c 9abd 5810 cc3c 090d 613d
00000160: 3d4d e3bc d9fd bc3c 2e4b 61bd 02fc 8bbd
00000170: d7a8 09bd 8ca1 69bd d439 383d 9ce8 c53c
00000180: 5ad9 293d afa0 9b3d 7cc5 573d 8525 be3d
00000190: 9bfb f13c e19c 863d 3ee3 3d3c 0f26 283d
000001a0: 4432 953c ac0e 28bd 3276 133d c098 773d
000001b0: 38ec bebc e33a 473d 1dbd 643d 6f0d 15bd
000001c0: dbac 58bd 43b3 d13b 2d73 913d f657 933c
000001d0: d331 98bc dc6c 9fbd d47e 273c 8bc1 313d
000001e0: 6b8c a23d 2a8f b3bc fbfb 0abd 33be 4fbd
000001f0: 6803 9bbd 7ae7 f03c 8a20 923d 160e d9bc
0.048519846 -0.09717478 0.012677219 0.039382547 0.037202172 -0.039421156 -0.062466573 -0.01889165
0.06570647 0.04867178 -0.022044398 0.010093855 -0.02749534 -0.015060481 -0.0487624 -0.023225877
0.040335484 0.059736036 -0.013077544 0.01300543 0.08028881 0.0018556516 0.012225857 0.074545115
0.004070158 -0.004110187 0.02342721 -0.0049639647 -0.085962266 -0.06692631 0.049601693 -0.075215176
0.05163056 -0.016466035 0.037252314 -0.0045584817 0.04853714 0.060890947 0.061252374 -0.068680786
0.060682617 -0.029991213 0.027635325 0.06453686 -0.025772227 -0.056538522 -0.009704174 -0.018282639
-0.08134708 -0.023374949 -0.04529923 -0.047372967 0.06676196 -0.07745942 -0.056043465 0.07661755
-0.005887444 0.085478105 -0.08906137 0.09720206 -0.007980915 0.04988193 -0.012682369 -0.09715566
-0.016727392 0.07878136 0.021678895 0.071083575 -0.040283084 0.07356699 0.05293916 -0.010524153
-0.022756642 -0.059269402 0.040487245 0.008143046 -0.03354745 0.0008470077 0.070555784 -0.013342272
0.07422477 -0.0051663453 0.08128214 -0.004710535 -0.029227803 -0.07549429 0.024910137 0.054944072
-0.027746791 0.023070263 -0.055003338 -0.06835176 -0.033608284 -0.05703883 0.044977024 0.024158768
0.04146705 0.07599007 0.05267857 0.092845 0.02953892 0.06572891 0.011589823 0.04105192
0.018212445 -0.041029617 0.03600139 0.060448408 -0.023305997 0.048640143 0.055844415 -0.036389764
-0.052899223 0.0063995435 0.07102046 0.017986279 -0.018578446 -0.07784435 0.010223109 0.043397468
0.07936939 -0.021918852 -0.033931714 -0.050718497 -0.07569009 0.029407252 0.071351126 -0.026495975

model.model.7.weight f4 [2, 128]
00000000: 185b 493d e02a dabd b8fb d03d 1c6a f7bd
00000010: 5774 713d 9648 863d 7b1d 313b 208b 9d3d
00000020: efc3 24bc 63dd 8d3d a1ef 23be 52c8 35bc
00000030: 57e4 e23d c016 c63d 4c6c 883b a239 73bd
00000040: 054d 00bd e5dd 893d 7b90 83bc 5129 ccbd
00000050: 61cd a23d 7fb0 393d 1a97 8dbd 5722 2bbd
00000060: b8bc 733c 8bec 4ebd 09a4 91bc fe64 9ebd
00000070: 62c5 ffbc fdc1 bf3d 43e8 f73a b39b 51bd
00000080: 5884 a43d 140d 81bd 6ab9 bdbd 21c2 a13d
00000090: 5352 a93d 41a1 d03d 9d02 c73d 353c a03d
000000a0: 94d8 0abe 7573 c33d c114 d63c ea5e edbc
000000b0: cdfc 06be df2f 19bd b049 91bb 7a83 88bc
000000c0: 8ca8 9f3d 676c 14be fb26 e6bc 0a97 c03b
000000d0: 43b1 99bd 534e 97bd a801 d13d ecc7 df3d
000000e0: 9bb0 0fbe 6585 893d b06c 5e3d 4b62 a13d
000000f0: 1260 953c f7ee d1bd 93fb b93d 4b40 d83b
00000100: e27e 98bd 6a90 bf3d 12d8 d33d a397 80bd
00000110: 4395 eabd 3a33 e8bc 7291 823d 0470 bcbd
00000120: 68ba cebd 789b 533d 6bcc 1c3c be9b 53bd
00000130: 4cca 923d edbd 9b3d 9da7 f53d 19e0 a5bc
00000140: 25ac 11bc 42ba 9a3d 2b0e adbd 31ef d73d
00000150: db65 e73d 1330 42bd 8701 573d 7399 cd3c
00000160: 1201 f4bc 9c56 af3d 3df0 2cbd 990e 5fbd
00000170: 6e85 a23d d933 ce3d 82b0 8c3d 4fe4 273c
00000180: a480 09bc f397 7a3d 2841 1f3d 807a c23d
00000190: 7ec9 533d b1a7 483c e84a 593b e0a5 bb3d
000001a0: bdae 233a 8358 cd3d 6509 393d 12e2 ba3c
000001b0: b583 cf3d 2b5e 88bd e51d 303d bb6a 8cbc
000001c0: 7d84 b63a 6b2e 54bd 3486 3fbd 66a9 3a3d
000001d0: a716 8f3c 4eb3 6abd 563c e63d cc72 aa3d
000001e0: e534 a33d f353 8b3b 8632 44bd 2f4e dabd
000001f0: 18ee 5ebd d5ee 4e3d 5793 f53c 2851 3fbd
00000200: f9fc ccbd 4f4d 3d3d b2b3 463d b8e2 1c3d
00000210: ed34 823d 72b7 89bc 39ba 24bd 7fca 63bc
00000220: 8cf7 85bd b470 af3b 3f8d ca3d 24d7 12bc
00000230: 6d6d 93bd fba8 c0bd 762f 343c 0e20 1abd
00000240: 5a15 ed3d bcbd 333d e37f 4ebc 16ae dcba
00000250: b43f b3bc e4af 713d 6003 23bd 184d a33d
00000260: 9b44 743d 3039 103c 353a e0bc ac07 a73d
00000270: b088 bb3d 0740 e3bd d128 d53d f551 3a3d
00000280: c584 6cbd 4f7d 88bc 856c aa3d 09ab 79bd
00000290: 46ec 253d a1d0 86bd 5427 debd 5fde 77bd
000002a0: 57d6 443d 0092 60bd 52a0 1d3c 208e 7f3d
000002b0: e7cc fa3d d94c 2b3e f97e ea3c 84fa abbd
000002c0: 2984 823d 0b12 293e 2aac cdbd f06b 05bc
000002d0: a597 873d efb4 583d b3fa b7bc 222f bfbd
000002e0: 6103 013d 539d 96bc 92b0 8f3d 0339 84bd
000002f0: 6c21 973d 9088 043e d37c bcbd 43a7 923d
00000300: 9edf 143e e300 35bc d7d8 a1bc d25e 9e3d
00000310: 0648 193e b9e5 813d 54fd c7bc e393 1c3e
00000320: dfb9 053e ebb9 51bd 23b5 e93d b181 713d
00000330: f3ec 63bd 0c48 8f3c 582e 3b3d 7225 8abd
00000340: 6410 a4bd 9a02 c83c eed0 de3d 68d6 89bc
00000350: c510 0e3d 9488 9f3d fcfd 2cbd 5c85 00bd
00000360: b138 aa3d 0362 6d3d 13d8 a93b edc4 e3bc
00000370: 9d39 a33c b5ba 973a 0f61 26bc eca3 ccbd
00000380: 3c76 97bd e3c9 2cbd 30ab 67bb 861e b23c
00000390: a8e1 d4bd 89ec a2bd 1ff4 243e a4bf abbc
000003a0: 781b 98bd cd68 ddbc b2aa f9bd d539 7ebd
000003b0: 3da0 98bd 6dd0 263d f597 26bd 2df3 c7bc
000003c0: 0741 9cbc e344 ec3c 5458 a03d 7c9e 443d
000003d0: 7112 51bd e09c 5b3d 69be 14bd 134c 27bd
000003e0: b107 353d 7ac0 953b be11 513d 763c c63d
000003f0: 74ad 1e3b 3f8c 0cbb c87b b3bc 8265 1f3a
0.04915914 -0.10652709 0.102042615 -0.12080786 0.05894884 0.065568134 0.0027025628 0.076925516
-0.01005648 0.06926992 -0.1600938 -0.011095123 0.110787086 0.09672308 0.0041633006 -0.059381135
-0.03132345 0.06731776 -0.016060105 -0.09968818 0.07949329 0.045334335 -0.06913586 -0.041780796
0.014876537 -0.050518554 -0.017778413 -0.077341065 -0.03122205 0.09363172 0.0018913824 -0.051173877
0.08033055 -0.063013226 -0.092638806 0.07898355 0.08267655 0.10187007 0.09717295 0.078239836
-0.1355918 0.09543506 0.026132943 -0.028975923 -0.13182373 -0.03739917 -0.004433833 -0.016664255
0.0779582 -0.14494477 -0.02809476 0.0058773803 -0.07504513 -0.07387986 0.10205394 0.10926804
-0.14032213 0.06714896 0.05430287 0.07880076 0.018234286 -0.10250657 0.09081187 0.006599461
-0.07446076 0.09353717 0.103439465 -0.062789224 -0.11454251 -0.02834474 0.06375398 -0.09201053
-0.10094148 0.05166194 0.009570221 -0.0516622 0.07167491 0.07604585 0.1199486 -0.02024846
-0.00889114 0.07555057 -0.08449968 0.10543669 0.11298724 -0.04740913 0.05249169 0.025097584
-0.029785667 0.08561441 -0.042221297 -0.05445728 0.07935606 0.10068483 0.06869604 0.010247304
-0.008392487 0.061180066 0.038880497 0.09496021 0.05170583 0.012247012 0.003315622 0.091624975
0.00062439946 0.10026648 0.045174975 0.022812877 0.10132543 -0.06658586 0.04299726 -0.017140737
0.0013924983 -0.05180208 -0.046758845 0.045571707 0.017466856 -0.057299905 0.11241977 0.08322677
0.07969073 0.004251951 -0.047899745 -0.106594436 -0.054426283 0.050520737 0.029977484 -0.046708256
-0.10009188 0.046216305 0.048511215 0.038302153 0.06357751 -0.016811106 -0.04021666 -0.013903259
-0.065413564 0.0053540114 0.09890222 -0.008962426 -0.07198606 -0.094072305 0.010997644 -0.037628226
0.11576338 0.043882117 -0.012603733 -0.001683655 -0.021880962 0.059005633 -0.03979814 0.07973689
0.05963574 0.008802697 -0.027371505 0.0815576 0.091569304 -0.110961966 0.10408176 0.045488317
-0.057743806 -0.016661314 0.0832148 -0.060954127 0.04050853 -0.065827616 -0.10847345 -0.060514804
0.048055973 -0.054826736 0.009620743 0.0623914 0.12246113 0.16728534 0.028624998 -0.083973914
0.06372864 0.16510789 -0.10042603 -0.00814341 0.06620721 0.052906927 -0.02245841 -0.09335162
0.031497363 -0.018385565 0.070161 -0.064561866 0.073794216 0.1294272 -0.09203496 0.07160809
0.14538428 -0.011047575 -0.019756718 0.07732929 0.14968881 0.06342644 -0.024412788 0.1529079
0.13059185 -0.051202696 0.11411502 0.058961574 -0.055645894 0.01749041 0.045698494 -0.067454234
-0.08010939 0.024415303 0.10879694 -0.01682587 0.03468396 0.07789722 -0.042234406 -0.03137718
0.08311594 0.0579548 0.0051832288 -0.027803862 0.019924933 0.0011576029 -0.0101549765 -0.09992203
-0.07395598 -0.04218472 -0.0035349838 0.02174307 -0.10394603 -0.07955272 0.1610875 -0.020965405
-0.07427114 -0.027027512 -0.12190761 -0.06206687 -0.07452438 0.040726114 -0.04067226 -0.024407947
-0.019073976 0.028841441 0.07829347 0.048002705 -0.051042978 0.053616405 -0.0363144 -0.040844034
0.04419679 0.004570064 0.05104231 0.09679501 0.0024212273 -0.0021445898 -0.02190961 0.00060804945

model.model.7.bias f4 [2]
00000000: 23c7 b73d 308e a9bb
0.08973529 -0.005174421

best_model_score f8 []
00000000: 24b1 54d0 f897 e93f
0.7998012608491405

exp_avg f4 [89]
00000000: 6a3f 1b39 f1da bbb9 b1c6 f3ba 7a59 083b
00000010: 310c 8139 e14c b2b9 d1be c338 6990 0ab9
00000020: e2cd 4f36 e68d e1b8 ccb5 bcb9 9fc5 e6b8
00000030: 4a23 00b8 842b 00b6 e3ac 9c39 3a21 6f39
00000040: af6c b0b9 0c26 d538 45b6 06ba 4890 34b9
00000050: 8cae 15b9 0ae5 a8b9 4574 6437 f82a cab9
00000060: 3d8c 06ba cc9e 0bba 68e5 ac39 b654 92b9
00000070: 764e a2b9 0872 9eb8 d8c8 dab8 fb8c 40b9
00000080: 37fa 69b9 030d a9b7 7d67 2cba f77c 57b9
00000090: 68db adb9 0fc0 a6b8 0dba 7438 0125 9ab9
000000a0: 2a8f 2cb9 bd7c cd38 2361 2eb8 2e7a 3439
000000b0: a5b5 eab8 8437 4f39 da97 6339 d2d5 34b8
000000c0: dee5 9038 6296 1837 1034 5339 ce8b 11b8
000000d0: 1a37 a5b5 2324 cab7 e0fe 3db7 3622 8a38
000000e0: abdc 8c38 c6bd b738 b3fd 4237 4d80 c338
000000f0: afa3 8338 6db1 f538 1f27 1e37 0e3c 8837
00000100: 74eb 3639 c51f 2939 fc9a 6639 9421 6737
00000110: 7897 bf39 da40 14b8 63d8 8239 b198 0139
00000120: 36e6 3037 1226 0a39 7225 5539 65cd 49b6
00000130: 7d49 3939 ef8d 3237 edda 2939 52f2 be38
00000140: 03da 81b8 cfc2 d338 de13 bd39 6216 8a38
00000150: 66b1 a239 76c6 e138 a22a f239 53bc 2539
00000160: c85b 9438
0.00014805575 -0.00035830543 -0.0018598643 0.0020805285 0.0002461388 -0.00034008085 9.333867e-05 -0.00013214503
3.0965243e-06 -0.00010755267 -0.00035993604 -0.000110040644 -3.0550444e-05 -1.9098816e-06 0.0002988345 0.00022805194
-0.00033650312 0.00010163718 -0.00051388546 -0.00017219887 -0.00014274771 -0.00032214104 1.361693e-05 -0.00038560457
-0.00051325915 -0.0005326092 0.00032977317 -0.00027910405 -0.00030957506 -7.555267e-05 -0.0001043246 -0.00018363066
-0.00022313824 -2.0152429e-05 -0.00065767 -0.00020550551 -0.00033160602 -7.9512705e-05 5.8347407e-05 -0.0002940074
-0.00016456531 9.798396e-05 -4.15753e-05 0.00017211653 -0.000111918234 0.0001976174 0.00021704976 -4.311448e-05
6.909271e-05 9.09492e-06 0.00020141923 -3.4700897e-05 -1.2309495e-06 -2.4097104e-05 -1.1324621e-05 6.586725e-05
6.716823e-05 8.761468e-05 1.162237e-05 9.3222225e-05 6.277055e-05 0.000117155585 9.4266425e-06 1.6240429e-05
0.00017444586 0.00016128931 0.00021992245 1.3776491e-05 0.00036543212 -3.5346347e-05 0.00024956753 0.0001235928
1.0544018e-05 0.00013174888 0.00020327212 -3.007089e-06 0.00017670351 1.0642673e-05 0.00016198652 9.105042e-05
-6.191807e-05 0.0001009755 0.0003606369 6.584522e-05 0.0003103122 0.00010765802 0.000461896 0.00015805782
7.0742855e-05

exp_avg_sq f4 [89]
00000000: 22c9 8036 2c39 8634 0b7d ea36 3f97 4937
00000010: 1c12 8e35 e84e 1636 5b9e 1834 b409 bd34
00000020: 081f 2b2f a1af 3834 8e16 3c34 82f0 2b35
00000030: 0ca7 e733 8738 682f 713c 2235 0d2d 5c33
00000040: 832a 6936 42c6 dc33 b0be 0c36 89ed 2034
00000050: 6c79 2434 53ff d834 0a40 5131 1261 2d35
00000060: fe5e e534 2878 1d35 3eb9 ee34 5704 8635
00000070: c08f 4035 5a5a f932 7e4e 5d34 9548 5334
00000080: 5b19 4c34 dd59 6734 4c6c 4f35 b9a0 e635
00000090: d732 e734 d061 cf33 e59d 2335 e288 4f34
000000a0: c3a8 ac35 764f 8b33 791b 0934 0053 1234
000000b0: c9e7 3e33 415e ad34 9bf3 0935 e9a2 8934
000000c0: 4d63 5a33 3773 ed33 9551 ff33 6f32 fd33
000000d0: 4657 c733 efbf 9832 9914 4a33 012f 5533
000000e0: a494 0b34 e38b 0034 c975 bd33 20ed 0b34
000000f0: b602 1833 24b6 5333 94bc b32e 4f7a 6f2f
00000100: 4608 a033 a416 1a33 4498 5434 0d9b f833
00000110: b462 8633 d03f 0c34 a12a 8933 82f1 0e34
00000120: c0a1 c333 0689 9b34 a4ef 4733 2174 a72f
00000130: 3975 8f33 2510 0634 fcc5 a133 ea67 4633
00000140: 1daf cd33 067d 3633 1d81 4d34 2661 b233
00000150: fb87 fe32 c27a 5333 d6bd de34 9af9 8133
00000160: 9701 4833
3.838112e-06 2.5001043e-07 6.9883004e-06 1.2015748e-05 1.0585095e-06 2.2397671e-06 1.4213713e-07 3.5211053e-07
1.5563384e-10 1.7200229e-07 1.751707e-07 6.405245e-07 1.07871614e-07 2.112036e-10 6.0437657e-07 5.1263715e-08
3.474445e-06 1.0280611e-07 2.097262e-06 1.4987576e-07 1.5317863e-07 4.0418908e-07 3.0449905e-09 6.458878e-07
4.272369e-07 5.866191e-07 4.4465736e-07 9.985041e-07 7.173476e-07 2.9028502e-08 2.0610784e-07 1.9677312e-07
1.9008205e-07 2.1546244e-07 7.72711e-07 1.7183112e-06 4.3064094e-07 9.6569806e-08 6.0952e-07 1.9328175e-07
1.2864115e-06 6.487146e-08 1.2769114e-07 1.3627505e-07 4.444863e-08 3.229234e-07 5.139097e-07 2.563677e-07
5.0847394e-08 1.105713e-07 1.18892025e-07 1.17904044e-07 9.2825346e-08 1.778241e-08 4.7050523e-08 4.9635677e-08
1.2999459e-07 1.197182e-07 8.822423e-08 1.303165e-07 3.5392723e-08 4.929292e-08 8.173476e-11 2.1780376e-10
7.4520855e-08 3.587651e-08 1.9799432e-07 1.15766035e-07 6.257815e-08 1.3061731e-07 6.387314e-08 1.331264e-07
9.109817e-08 2.8970697e-07 4.655125e-08 3.0459638e-10 6.680279e-08 1.2485596e-07 7.53316e-08 4.6194977e-08
9.577909e-08 4.2488885e-08 1.9139084e-07 8.306442e-08 2.9631329e-08 4.9238913e-08 4.1488846e-07 6.052433e-08
4.6567575e-08
