attack-tabular/trained-models/bank-mlp.ckpt (torch, 466514 bytes, 33 tensors)

model.model.0.weight f4 [32]
000000 ab 4c 89 3f 14 f5 9f 3f 9c ad 90 3f bf a2 89 3f
       1.0726522 1.2496667 1.1302981 1.0752791
000010 c7 99 98 3f af ec 85 3f 30 31 84 3f 18 eb 82 3f
       1.1921929 1.0462855 1.0327511 1.0227995
000020 c3 4d 78 3f 67 10 7a 3f b4 cb 82 3f a2 34 85 3f
       0.96993655 0.9768128 1.0218415 1.0406687
000030 08 05 84 3f 14 1e 86 3f b4 f4 84 3f 46 65 7b 3f
       1.0314035 1.0477929 1.0387177 0.98201406
000040 67 bc 7a 3f 3d b4 81 3f 93 ea 68 3f 6c a2 81 3f
       0.9794373 1.0133129 0.9098293 1.0127692
000050 30 64 7a 3f ba 5a 73 3f ca f3 89 3f 5a 8c 83 3f
       0.97809124 0.9506031 1.0777524 1.0277207
000060 43 4e 88 3f 04 ba 83 3f 7c 7f 86 3f 1e 28 84 3f
       1.0648884 1.0291142 1.0507655 1.0324743
000070 b0 00 87 3f 24 9b 87 3f ab 94 82 3f 27 b9 8a 3f
       1.0547085 1.059422 1.020162 1.0837754

model.model.0.bias f4 [32]
000000 88 45 ea bc 57 93 be 39 10 f0 54 bc a8 58 ce 3b
       -0.028597608 0.000363494 -0.0129966885 0.0062971897
000010 1f c0 ab 3c 8d 2c b5 bc 4d 7a 18 bc fc 3d 39 3d
       0.020965634 -0.02211597 -0.0093065025 0.04522513
000020 79 74 f1 ba 6f ec 97 3c 39 13 3e bd d3 8f 27 3c
       -0.0018421552 0.018545358 -0.04640505 0.010227161
000030 10 99 4a 3d 45 0d da bc d5 52 ee 3c 3c a8 58 3c
       0.049462378 -0.026617656 0.029092232 0.013223704
000040 6c 3b ff 3b e0 2a f1 3c 36 89 f5 3c c2 71 0e bd
       0.007789066 0.02943939 0.029972654 -0.034776457
000050 92 f9 ec 3c 96 a4 85 bc 1a c6 03 3c 27 5d f3 bb
       0.028927598 -0.016313832 0.008042837 -0.007426876
000060 9c 85 a6 3c 77 24 86 bb bd 70 c7 3c 66 3a 88 3c
       0.020327382 -0.0040937024 0.02434575 0.016629409
000070 48 6c 3c 3d e6 2f c5 3b dc bb 83 3c 60 16 8b 3c
       0.046001703 0.006017673 0.01608079 0.016978443

model.model.0.running_mean f4 [32]
000000 5f 55 81 43 f9 31 a9 44 b6 95 23 42 99 f3 56 44
       258.66696 1353.5616 40.896202 859.8062
000010 9a f0 30 40 d3 f3 0f 3f 3d ed d7 3d 08 0b 25 3d
       2.7646852 0.5623142 0.105432965 0.040293723
000020 1f 69 09 3d 11 1b 52 3f 65 27 e9 3d 8b 11 5f 3e
       0.033547517 0.8207255 0.11384467 0.21784036
000030 f8 bb 06 3d d2 58 e0 3c c7 e7 53 3e 7f 68 4b 3d
       0.032894105 0.027386103 0.20693885 0.049660202
000040 e7 c0 12 3d 5d 08 bc 3d 3b 09 a1 3c c1 6f 2d 3e
       0.035828497 0.09181283 0.019657722 0.16937162
000050 61 9e e7 3c 74 b2 d4 3b c4 5c 26 3f 0d 0a 80 3d
       0.028273763 0.006491 0.649853 0.06251917
000060 ea 43 93 3e 6f 46 28 3d d2 3c 1c 3e cd 59 04 3f
       0.28762752 0.041082796 0.15257576 0.51699525
000070 29 25 94 3e 8f 28 ea 3d 11 a5 1b 3f b8 2b 8e 3e
       0.289346 0.11433517 0.60798746 0.2776773

model.model.0.running_var f4 [32]
000000 29 7f 82 47 e6 7b 05 4b ec 88 e0 42 7c be b1 47
       66814.32 8.748006e+06 112.267426 91004.97
000010 97 ee 1c 41 49 f4 8c 40 57 2a c1 3d 8d 67 1e 3d
       9.808249 4.40482 0.09431904 0.038672972
000020 3e d4 04 3d 78 ad 16 3e 47 8f ce 3d cc 7f 2e 3e
       0.032428972 0.1471461 0.10085922 0.17040938
000030 00 53 02 3d ca 3b da 3c 1e 0d 28 3e 70 4d 41 3d
       0.031817436 0.026639838 0.16411254 0.04719299
000040 18 89 0d 3d ef cd aa 3d cd e1 9d 3c 1c 19 10 3e
       0.03455457 0.0834006 0.01927271 0.14072078
000050 17 1f e1 3c 5e 59 d3 3b 43 0a 69 3e 3f 07 70 3d
       0.027480645 0.0064498624 0.22757821 0.05860066
000060 44 d8 51 3e 1f 64 21 3d d3 70 04 3e 98 c2 7f 3e
       0.20492655 0.039402124 0.12933664 0.24976575
000070 1c 93 52 3e 8c 6f cf 3d ec 11 74 3e 2b 5c 4d 3e
       0.2056393 0.10128698 0.23834962 0.2005469

model.model.1.weight f4 [128, 32]
000000 9f d6 88 bd f9 ad f8 3c 5b 8d 36 3e b7 5d 0d 3e
       -0.06681561 0.030356394 0.1782736 0.1380528
000010 db 35 1d 3e 11 8b c6 bd 44 63 7f bd 27 25 d3 3d
       0.15352575 -0.096944936 -0.062350526 0.103098206
000020 bd e9 76 bd e1 c4 a0 bd f0 a3 db ba 44 c4 78 3d
       -0.060281504 -0.07850052 -0.0016757231 0.06073405
000030 a3 3a 57 3c 0a f9 68 be 9e b8 01 3e e3 7b c9 3d
       0.013136539 -0.22751251 0.12668082 0.09838083
000040 a8 96 55 3c 8a 72 1c 3e 22 2a 40 bd 88 1c 91 3d
       0.0130364075 0.15278068 -0.04691518 0.0708552
000050 15 4c 1e 3d aa 48 85 bd 95 c6 4a be e6 10 0d 3e
       0.038646776 -0.06508 -0.19802316 0.13775977
000060 97 3d 49 3d c5 72 c1 3c 6e d9 46 3d d0 4a 53 be
       0.049131002 0.023614297 0.0485472 -0.20634007
000070 91 d6 7d 3c d7 35 0e 3e bb 9a 2f bd 7d 7b 38 3c
       0.015493051 0.13887726 -0.04287217 0.011259911
000080 1e 60 df bd fe e2 91 be aa 03 17 3d 7b e2 05 be
       -0.10907005 -0.28493494 0.03686873 -0.13074677
000090 5c 9d 72 bd 19 b1 af bd 18 b6 12 3e 3e 7b 43 be
       -0.0592321 -0.085787006 0.14327276 -0.19089982
0000a0 48 7c b1 3b da 14 02 3e 5b 4d 83 3d d2 e6 4f 3e
       0.005416427 0.12703267 0.06411239 0.20302895
0000b0 90 3c cc 3c 3a b4 13 be ee 03 28 be b1 ff 46 3d
       0.024931222 -0.1442422 -0.16407749 0.04858369
0000c0 3b cb 08 3e 82 70 ea 3a 3a f6 81 bd 70 89 9e 3d
       0.13358776 0.0017886313 -0.06345792 0.07741058
0000d0 5a 5b 1e be 1f d2 92 bd 97 5b 15 3e 76 b1 0a be
       -0.15464535 -0.07168984 0.1458572 -0.13544258
0000e0 1e 5a 9d 3d 85 70 e0 bb e2 2c e5 bd ac c5 e9 bd
       0.07683204 -0.006849351 -0.11190201 -0.11414656
0000f0 a6 27 27 3e 6b 88 b5 3d d5 06 5e bd 87 5f 5f be
       0.16323718 0.0886391 -0.054205734 -0.21813785
000100 5a 58 ae 3d dd 8b 7d bd 57 d9 ba 3d ad 1a 3d 3e
       0.085129455 -0.061900962 0.091234855 0.18467207
000110 66 ed 39 3e a4 07 78 bd 0c 40 eb 3d 50 de 8b 3d
       0.18156967 -0.06055416 0.11486825 0.06829512
000120 52 52 07 3e 71 37 1e be ca a5 b5 bd fc 0e 01 be
       0.13214996 -0.15450837 -0.088695124 -0.12603372
000130 5f 30 a5 bd 98 f3 d5 3d c2 1a bd 3d be bf c7 bd
       -0.08065867 0.104468524 0.09233619 -0.09753369
000140 4a 6e d5 3d 8e bf 5d bd 5c 29 f5 3d 93 f0 f8 bc
       0.104214266 -0.05413776 0.11970779 -0.030388152
000150 63 e2 5b be c0 e8 de bd 74 e6 4a 3c 96 7e 1f be
       -0.21473078 -0.10884237 0.012384046 -0.15575632
000160 ba 96 e7 3d 98 36 de 3d a3 3d 61 bd 51 8c f0 bd
       0.11308046 0.10850257 -0.054990422 -0.11745513
000170 46 e2 31 be 96 1a b0 bc f7 21 09 3d c3 92 cf 3d
       -0.17371473 -0.021497052 0.033479657 0.101354145
000180 50 fa 6f 3d 00 7f cf 3d 7a 4d b5 3c cf 74 84 3b
       0.058588326 0.10131645 0.02213167 0.004042245
000190 b7 0f d4 bd 1c 1e 26 be 48 cd 62 3d 29 06 37 be
       -0.1035456 -0.16222423 0.055371553 -0.17873444
0001a0 7c c8 0a 3e 66 8c 30 bc d3 b7 0c 3e b0 aa eb 3d
       0.13553041 -0.010775661 0.13741998 0.115071654
0001b0 b7 ff 83 3d cf 6c 32 be 73 b1 5a bc bc 8d 58 be
       0.06445258 -0.1742432 -0.013347971 -0.21147817
0001c0 9f ee e0 3d 44 04 ed bd c1 a6 53 be d9 49 52 bc
       0.10983013 -0.11573079 -0.2066908 -0.0128349895
0001d0 c1 b5 29 be f7 f5 93 bd e1 2c 85 bc 70 1b 26 be
       -0.1657324 -0.072246484 -0.016256751 -0.16221404
0001e0 36 5b 9f bd 34 36 64 3d a7 fe 5f 3e e5 a1 1a 3e
       -0.07781069 0.055715755 0.21874486 0.1510082
0001f0 4b 08 73 bc 7a 06 1e be 3c d4 00 be 58 1d 43 bc
       -0.01483352 -0.15432158 -0.12580961 -0.011908852
000200 f2 61 27 be 51 3a 91 3d d7 a0 a9 bc c7 78 d9 3d
       -0.16345957 0.07091201 -0.020706577 0.106187396
000210 cf bf e0 3c 94 c1 f5 bd 22 16 43 3d b8 bb 34 be
       0.027435211 -0.11999813 0.04762853 -0.17649734
000220 40 6f 90 3d ef a5 1c 3d a4 1e fa bc 45 eb 6c bc
       0.07052469 0.038244184 -0.030532189 -0.0144603895
000230 72 8c df 3d 15 de 03 be d1 3e 4e 3e ee 34 ac 3d
       0.1091546 -0.12877686 0.2014115 0.08408533
000240 6d 42 7b 3c 45 9a 1c be 42 cc 16 bc c6 58 8d bd
       0.015335661 -0.15293224 -0.009203972 -0.06901698
000250 70 42 1b be d5 03 33 be 09 39 17 be 95 3a 1e be
       -0.15162063 -0.1748193 -0.14767851 -0.15452035
000260 18 fc 09 3e fb 30 b3 3c d8 36 e7 bd cc 8f 59 3e
       0.13475072 0.021873942 -0.112897575 0.2124626
000270 f9 3b b9 3d be f1 58 3d 14 11 2f be d9 45 ef bd
       0.09044642 0.05296492 -0.17096359 -0.11683244
000280 29 d6 56 3c 88 83 e4 bc 8d 44 72 be 20 de e2 3d
       0.013112583 -0.02789475 -0.23658963 0.11077523
000290 e2 08 96 3c 99 06 31 bc da c9 73 3e a9 c0 e1 3d
       0.018314783 -0.010804796 0.23807469 0.11023075
0002a0 b4 e3 9e 3d 24 d9 e3 bd 99 de 07 bd cb c3 e1 3c
       0.07758275 -0.11125401 -0.03317127 0.027559182
0002b0 f3 e8 3c be 25 74 04 3e b8 ee 6a 3d 27 23 e1 3b
       -0.18448238 0.1293493 0.057356566 0.0068706456
0002c0 68 98 44 3d 31 de c0 3d 03 81 fc 3b 71 0c 05 3e
       0.04799691 0.0941738 0.007705809 0.12993027
0002d0 28 74 ed bd a3 7a 82 3d ef e4 17 3e a3 49 06 3e
       -0.11594421 0.06371047 0.14833425 0.13114028
0002e0 19 56 c6 3b 66 48 af bd d6 bb e1 bd 9f 86 3f 3e
       0.006052744 -0.08558731 -0.11022155 0.18703698
0002f0 50 02 d6 3d 13 d0 2d be 28 1b b3 3d 89 47 2a 3c
       0.1044966 -0.16973905 0.08745414 0.010393032
000300 80 8a 38 3e 2e 99 80 3d 14 93 8d be 4e c3 33 be
       0.18021584 0.06279217 -0.27651274 -0.17554972
000310 b0 35 0e bd c6 a8 0d bd 59 53 47 bd e4 fa 26 be
       -0.03471917 -0.034584783 -0.04866347 -0.16306645
000320 2d 0a 8d 3d 1b 31 0a be 2c 84 a0 3d 5c d5 7d bd
       0.068867065 -0.13495295 0.0783771 -0.061971053
000330 1f 8d 56 bc 0b fa 3f be 6b d2 45 3d 15 fb e6 bc
       -0.013095169 -0.18747728 0.048296373 -0.028195897
000340 21 76 78 bb 63 46 aa bc 56 cd 1b bd 01 d5 e8 bd
       -0.0037912207 -0.020785516 -0.03803762 -0.11368752
000350 35 53 36 3d 73 94 b2 bd 86 b5 ad 3d bb 43 fc 3d
       0.044512946 -0.08719721 0.084818885 0.12317606
000360 1b ce 40 bd f0 53 ee 3d b6 41 16 be ad a8 d8 3b
       -0.047071557 0.116371036 -0.14673504 0.0066119046
000370 88 b7 8b bd 5f cc 68 3d 77 da 87 bd 54 aa 6a bd
       -0.06822115 0.05683553 -0.06633466 -0.057291344
000380 b2 56 1e be f2 b0 38 3e c3 ac 00 be c6 1a 9b 3d
       -0.15462759 0.1803625 -0.12565903 0.07573466
000390 a6 9f 13 3d 87 d6 1c be d0 8d 6b 3d 86 7d 89 be
       0.036040924 -0.1531621 0.05750829 -0.2685358
0003a0 cd 99 81 3d da 88 ef bd 0c 90 52 be ff 92 43 bd
       0.06328163 -0.11696024 -0.20562762 -0.04774761
0003b0 03 e8 89 3d 19 ab 49 bd 1e dc aa bd 27 98 7e 3d
       0.06733706 -0.049235437 -0.08342765 0.062156823
0003c0 88 32 90 bd 63 a8 11 be b8 5e d1 bb c8 db b3 3d
       -0.07040888 -0.1422439 -0.006389465 0.08782154
0003d0 8d 0c 4f bc c7 bd 61 be bc b8 06 3e ef 9e 55 bc
       -0.01263727 -0.2204505 0.13156408 -0.013038381
0003e0 70 6c 0b 3e 06 88 10 3e 37 2b 39 3d 28 7d 78 bd
       0.13615584 0.14114389 0.04520723 -0.060666233
0003f0 aa 1f e6 bd cc c3 36 3e 99 1f f2 3d 70 b2 40 be
       -0.11236508 0.17848128 0.11822433 -0.18818069

model.model.1.bias f4 [128]
000000 1b 48 0a 3c 62 5f 0b be 79 70 4a 3c 1c b3 07 be
       0.008440043 -0.13610604 0.012355917 -0.13251919
000010 39 4e 04 3e 99 40 a1 bd b2 e5 2a 3d 3f 81 f6 bd
       0.12920465 -0.07873649 0.04172296 -0.120363705
000020 fd 34 f0 bd 65 3d c1 3c f1 54 c8 bd dc 37 95 3d
       -0.11728857 0.023588846 -0.09781826 0.07286045
000030 44 67 24 be 7b f3 f6 3d 30 6a 90 3d e7 4e 11 3e
       -0.16055018 0.12058159 0.07051504 0.14190255
000040 8e de 1b be 9b 8e 50 3c 8a 17 8d bd f1 54 23 3c
       -0.15221617 0.012729312 -0.06889255 0.009968982
000050 89 43 4d be 07 ae c8 3d 2b 77 2c 3c f9 a7 ef bd
       -0.20045294 0.09798818 0.010526459 -0.1170196
000060 da b5 24 3e cd 60 af bc c8 7d 36 3e e8 93 82 3d
       0.16084996 -0.021408463 0.17821419 0.06375867
000070 c3 17 00 be 4f dc f8 bd 52 33 ec bd a9 7e 20 be
       -0.12509064 -0.121513955 -0.11533226 -0.15673317
000080 cf 5f 8c 3d 78 ec 9b bb ee 5a 8f 3d 9c f5 06 bd
       0.068542115 -0.004758414 0.06999765 -0.032949075
000090 a4 b8 89 3d 63 a2 ef bd 16 4f 84 bd 9d a5 71 bc
       0.067246705 -0.11700895 -0.06460397 -0.014748958
0000a0 80 ee a2 bb 52 3c 9c 3d 66 00 29 be 2a 76 05 3e
       -0.004972279 0.07628693 -0.16504058 0.13033357
0000b0 7e 08 49 be 25 2b fc bd e3 03 dc bd 33 fc c6 bd
       -0.19632146 -0.12312917 -0.10742929 -0.09716072
0000c0 1c cc 10 be 5b 97 a6 3d ae c4 ea bc b9 55 0f be
       -0.14140362 0.081343375 -0.028658237 -0.13997544
0000d0 f4 4c 28 3e 14 8c cb 3d b3 9a d4 bc 84 a9 d2 3d
       0.16435605 0.09938827 -0.025952673 0.10286239
0000e0 46 dd ea 3d 29 7b db bd ec 52 26 3e 49 81 41 bd
       0.11467986 -0.1071685 0.1624257 -0.047242437
0000f0 13 37 19 be 7d e4 94 bd 3c 7c 2c 3e 59 98 8e bc
       -0.14962415 -0.07270143 0.16844267 -0.01740663
000100 c3 0a 8f 3d 99 29 0a be 4c 9e af 3d d3 62 21 3d
       0.069844745 -0.13492431 0.085751146 0.039400887
000110 be cb 19 bd 7a c9 85 3c c5 2f 2b 3c ce 2e a9 3d
       -0.03754782 0.016331423 0.010448401 0.082608804
000120 ab 44 30 be 8b 71 b7 bc 4b 14 bd 3c bf be 02 3e
       -0.17213695 -0.022393009 0.023080966 0.12768076
000130 34 35 cf bd 81 68 01 3e e6 83 69 3d 65 df c7 bd
       -0.101175696 0.12637521 0.057010554 -0.09759406
000140 95 de 2e be dc 58 74 3d 89 12 be 3b 0b 52 d2 3d
       -0.17077096 0.059655055 0.0058005494 0.10269555
000150 2b 74 c2 bd 6b 99 b3 3d ed 9f 2b 3d e4 53 16 be
       -0.094948135 0.087694965 0.041900564 -0.14680439
000160 b7 7f 18 3d cc 5e 0b 3e ba 02 31 3c 2b a2 ce bd
       0.037231173 0.13610381 0.010803873 -0.10089525
000170 de f0 4e bd 97 61 e1 3d 69 e0 a1 bd 33 37 21 bd
       -0.050522678 0.11004942 -0.07904131 -0.039359283
000180 6f 76 29 3c e5 6a 83 3d e0 02 cb bd dc d6 99 3c
       0.010343178 0.06416873 -0.09912658 0.01877921
000190 c8 5f 39 be 22 fb 16 3e 83 ff 29 be 41 14 49 be
       -0.18102944 0.14744237 -0.16601376 -0.19636633
0001a0 6f 5d c4 bc 36 27 13 3d 09 95 fc 3d ef e6 38 be
       -0.023970334 0.035926066 0.12333114 -0.18056844
0001b0 4b 75 51 3d 94 07 67 3d da 40 58 3d e9 1b d1 3d
       0.05113725 0.05640371 0.052796222 0.102104016
0001c0 d8 fc e6 bd 9c bd f4 3d c3 12 25 3e 9a 05 b4 bd
       -0.11278695 0.119502276 0.16120438 -0.08790131
0001d0 0e 51 6f bd d8 a7 ab 3d 29 68 96 3d 9e 85 8a ba
       -0.05842691 0.08381623 0.07344086 -0.0010568385
0001e0 38 31 74 bd 35 53 3f be ad a1 d6 3c fd 0d a1 3d
       -0.05961725 -0.18684085 0.02620014 0.07863996
0001f0 67 b7 de bb 5f 84 52 be 55 ef 81 3d b5 47 86 bd
       -0.0067967656 -0.20558308 0.06344477 -0.06556646

model.model.3.weight f4 [128, 128]
000000 d2 18 a4 bc c6 7b e9 3d 6e 2a dc 3d 3b 7c 1c bd
       -0.020031366 0.11400561 0.1075028 -0.038204413
000010 ae 89 a3 3d 40 e8 8f 3d 50 bb b8 3d ed 8a 26 3d
       0.07985245 0.0702672 0.09020102 0.040659834
000020 e5 12 e9 3d e1 d0 3a 3d d1 ac 96 3d 7b 07 13 bd
       0.11380557 0.04560936 0.07357181 -0.035895806
000030 4e 8f d2 3d 72 7e 3f 3c 75 ab 7d bc ec 78 6a bd
       0.102812394 0.011687862 -0.015482773 -0.057244226
000040 80 f8 77 3d 20 96 9a ba 1f 39 b1 3d 52 c4 d0 3b
       0.060539722 -0.0011794008 0.08653473 0.0063710595
000050 a1 31 d1 3d 68 c4 ee bc 34 20 d2 3d d4 27 d5 3b
       0.10214544 -0.029146388 0.102600485 0.006504992
000060 92 3a 8e bd 7f c2 2c 3d e2 3b 45 3c f0 94 37 bd
       -0.06944765 0.042177673 0.012038203 -0.044819772
000070 0a a9 c5 bd 9d 25 e7 3d 0c 42 06 3e fd 0b 12 3e
       -0.09651382 0.11286471 0.13111132 0.14262386
000080 56 bd 96 3d c1 f3 7a 3c 73 cc db 3d b1 d6 69 bd
       0.07360332 0.0153169045 0.10732355 -0.05708951
000090 3b d3 06 3e 58 c2 94 3d ae 6d d5 3d 84 05 e2 3d
       0.13166516 0.07263631 0.1042131 0.11036208
0000a0 4e 5b ab 3d c0 fd 8c 3d e7 04 0a bd 2c c9 2a 3c
       0.08367024 0.068843365 -0.03369608 0.01042394
0000b0 ef b4 b9 3c 96 0c 6f bd 2b df b8 3c 33 b4 bf 3c
       0.022669284 -0.058361612 0.022567352 0.023401355
0000c0 4e 24 8d 3d f7 4a 63 bd b0 8f 03 3d 82 d1 01 bc
       0.0689169 -0.055491414 0.032119453 -0.007923486
0000d0 89 5f b7 3d c1 e6 2c bd 81 9f 90 bd 96 a1 9f 3d
       0.08953769 -0.04221225 -0.07061673 0.07794492
0000e0 1e d4 5c 3d e0 f3 6f bd e5 c5 6e bd 0e c4 d1 bc
       0.05391323 -0.058582187 -0.058294196 -0.025606181
0000f0 4c 60 a3 bd a1 6b 68 3c 23 69 31 bd b0 aa 3c bd
       -0.079773515 0.014185817 -0.043313157 -0.046061218
000100 10 fa bc 3d fe 06 3c 3d 5b a0 fa 3d 5d d1 7d 3d
       0.09227383 0.045905106 0.12237617 0.061967243
000110 d6 94 22 3d d0 d3 41 3d 57 ee fa 3d 47 76 b3 bd
       0.039692722 0.04732114 0.12252491 -0.08762794
000120 e6 03 ae 3d 77 54 11 3c 52 ef cf 3d c2 ea cf 3b
       0.08496837 0.008870236 0.101530686 0.006345124
000130 41 26 be 3d 8c 0d 6f 3d 21 bf 74 bb f8 5a dc 3d
       0.0928464 0.05836253 -0.0037345367 0.107595384
000140 55 be 42 bd b9 a4 ad bd 9c 32 9d 3d 55 27 32 b9
       -0.047544796 -0.08478684 0.076756686 -0.00016990055
000150 c8 27 62 3d 51 36 a7 bd 80 75 1b 3e 8a da c9 3d
       0.05521372 -0.08164657 0.15181541 0.09856136
000160 31 23 99 bd b7 33 8a 3d d3 3b 7d 3d e5 9f 6e 3c
       -0.07477415 0.06748145 0.06182463 0.014564489
000170 0b 01 21 bc 2f 0e 81 3d 31 ba a4 3d bc 24 02 3e
       -0.009826909 0.063015334 0.08043326 0.12709326
000180 38 c5 b5 bd 31 38 c7 3d 62 68 7f bd 1c a0 f8 3c
       -0.08875507 0.097275145 -0.062355407 0.030349784
000190 96 31 c0 3d c0 52 1e bc d4 4f 96 ba f5 f1 1f 3c
       0.09384458 -0.009663284 -0.0011467882 0.009762277
0001a0 20 8d b9 3d 7d a6 ac 3c 97 b5 f1 3c f6 02 3c 3d
       0.090601206 0.021075482 0.029505534 0.04590126
0001b0 34 94 e2 3c ae 1e 1b bb 19 5d db 3d be 9a ec 3c
       0.02765856 -0.002366941 0.10711116 0.02888238
0001c0 4d 5c 9b bd 5e 96 83 bd a9 32 54 bc 7c 05 2f 3c
       -0.07585964 -0.06425165 -0.012951531 0.01068246
0001d0 d5 ca 01 3e f2 3b 34 bd ff aa 39 bd 70 34 e6 3c
       0.1267503 -0.04400248 -0.04532909 0.028101176
0001e0 30 ca 99 3d 9d 56 18 3d 61 01 d1 3d 14 d4 b4 3c
       0.07509267 0.037191976 0.10205341 0.022073783
0001f0 46 d1 a3 bc 53 ad 6c 3d 6f 48 85 3c db 20 e8 3d
       -0.01999725 0.057782482 0.01626989 0.11334392
000200 86 65 24 3d 7c 8e 1a bd 00 7e cf 3c ec 3a 84 3c
       0.040135883 -0.03773354 0.025328636 0.016141377
000210 40 82 90 3d 4b 74 99 bd 2c ab a5 bd 7c b0 cf 3d
       0.07056093 -0.07492884 -0.08089289 0.101410836
000220 8c 59 11 bd 82 a2 17 bd eb e1 06 3d 8f a2 77 bd
       -0.03548579 -0.037020214 0.032930296 -0.060457762
000230 61 5a a7 3d bc 7b 7b bc 60 1f 49 bd 0a 09 91 3d
       0.08171535 -0.015349325 -0.049102187 0.07081802
000240 b9 3d 7f 3d 90 1c d4 bc 3f e8 00 3d 62 3a 84 3d
       0.062314723 -0.025892526 0.031471487 0.06456448
000250 0a b8 11 3d 36 ad 5d 3c a3 b5 84 3d 33 db 45 b9
       0.035575904 0.013530066 0.06479957 -0.00018869042
000260 bc ef 3c bd c9 d7 96 3d 48 59 b8 3d e7 3c 36 bc
       -0.046127066 0.073653765 0.09001404 -0.011122919
000270 7f f3 87 3d eb b2 ab bd c3 83 86 3d 4c 64 f6 bb
       0.0663824 -0.08383735 0.065681 -0.0075192805
000280 92 4a c9 bd 07 e7 96 bc 01 86 ee 3c 85 ef 0c bc
       -0.09828676 -0.01842071 0.029116632 -0.008602028
000290 49 22 fd bc 10 02 93 bc 1f f9 fc bd 7c d0 25 3b
       -0.030900137 -0.01794532 -0.123522036 0.0025301268
0002a0 51 07 94 bd fd 22 ca 3b 77 c9 7e bd f6 e6 a5 bb
       -0.07227958 0.0061687217 -0.06220385 -0.005062933
0002b0 a7 6d 3e bc a1 c2 f9 3d c4 7b bb 3d 92 7d b5 3c
       -0.011622823 0.12195326 0.09154466 0.022154603
0002c0 ba 2f 2b 3e 31 b5 62 bd 57 14 49 be 0a 63 de 3d
       0.16717425 -0.05534858 -0.19636665 0.10858734
0002d0 87 ea 3f bd 32 4a 96 3c 82 f0 f1 bc 59 37 71 3c
       -0.046854522 0.018345926 -0.029533628 0.014722669
0002e0 f3 5d fd 3c 3b 58 9a 3d d8 9b 77 3d 06 a4 22 bc
       0.030928588 0.0753636 0.06045136 -0.009926802
0002f0 37 fc ee 3c 86 c9 25 bd be 64 0e 3e 63 f9 2f bd
       0.029173 -0.04047539 0.13905618 -0.042962443
000300 27 16 f9 3d 4d 4a 47 3c 28 cd 79 bd 4d ab ce 3d
       0.12162428 0.012163711 -0.060986668 0.10091267
000310 f0 92 ea bd d3 c2 3f 3d c1 dd be bd ad 64 8b 3d
       -0.11453807 0.04681666 -0.0931964 0.06806312
000320 d8 7a af 3d 7f b1 13 3e a3 fc 24 3b b7 f6 c1 bd
       0.085683525 0.14423178 0.0025174997 -0.09470885
000330 9e 12 5f 3d 24 e1 d5 3c 20 7a 88 3c 0b 5a 10 3d
       0.054461114 0.026108332 0.016659796 0.03524212
000340 1e 5e aa 3d 34 1a 31 3d d5 e5 cd bc 7a f7 0e be
       0.08318733 0.04323788 -0.025134007 -0.13961592
000350 e0 f7 45 3d 3a 2b a6 3c e5 65 0b be 53 7c 1b 3c
       0.048332095 0.020284284 -0.13613088 0.00949009
000360 9c 36 27 3d 21 9f 0e 3e f5 73 f0 3d f1 d6 cb bd
       0.040823564 0.1392789 0.11740867 -0.09953106
000370 fe 46 38 bd bb 35 68 bc 40 79 8a bd 65 47 94 bc
       -0.04498958 -0.014172967 -0.06761408 -0.01810045
000380 af 2a 77 3d b7 e7 76 3b 9e c9 26 bb 74 1c 8c 3d
       0.06034344 0.0037674734 -0.0025449763 0.068413645
000390 71 0a 2f 3d d7 cd a8 3d 2b d6 1a 3e 00 55 f5 bb
       0.042734567 0.08242386 0.15120761 -0.0074869394
0003a0 87 0a e5 3d 22 e7 ec bd 69 25 15 3e 11 a3 5f bd
       0.111836486 -0.115675226 0.14565052 -0.05459887
0003b0 76 1f 56 3d dd 73 7c bd 4e c2 94 ba 13 50 d3 3d
       0.052276097 -0.061633933 -0.0011349411 0.10318007
0003c0 d2 a4 e1 3d 73 03 78 bb 9d 12 47 bd cb 0d cb bd
       0.11017765 -0.0037843853 -0.048601735 -0.0991474
0003d0 b4 70 0b be 01 e7 78 3c 67 f6 42 bd 54 d0 43 bd
       -0.13617212 0.015191794 -0.04759827 -0.0478061
0003e0 8e 93 68 bd 7d 5e 52 3d 50 38 fd 3d b3 b8 1f 3d
       -0.056781344 0.051359642 0.123642564 0.038994502
0003f0 23 8a a8 3d cb 15 58 bd d0 e6 bc bc b9 45 af bd
       0.082294725 -0.05275516 -0.023059279 -0.085582204

model.model.3.bias f4 [128]
000000 17 c9 ab 3b 0a 82 21 bd 06 3a 9b bd d3 ce df bc
       0.0052424776 -0.039430656 -0.075794265 -0.027320301
000010 94 dc da bb 5f 8c 1d 3d e6 fe b7 3d 26 53 ab 3d
       -0.006679127 0.038463946 0.08984165 0.08365469
000020 a1 26 fb bc a9 3c 92 bc fb 54 5a bd db 14 24 bd
       -0.030658068 -0.01785119 -0.0533037 -0.04005895
000030 19 ca d8 3c 18 df a7 3d 19 5e 9c bd 0e 6c d1 3c
       0.026463555 0.08196849 -0.07635135 0.02556422
000040 0d 3d 01 3d 12 23 81 bc d3 67 fa 3c 22 7f a6 bd
       0.031552363 -0.015763793 0.030567085 -0.081297174
000050 00 75 ab 3d cd fe 87 38 4c e6 e9 bc 68 0c b5 bd
       0.08371925 6.484762e-05 -0.028552197 -0.08840257
000060 b4 ad 83 bd 9e 04 93 bd 60 9a 8f 3d 1f 90 ce bd
       -0.064296156 -0.07178615 0.070118666 -0.10086083
000070 31 80 55 3b 5f 0d 9e 3b b5 5d 39 bd ba 2d f3 3c
       0.0032577629 0.0048233713 -0.04525538 0.02968489
000080 a5 1a 6a bd 21 d0 19 3c dd 45 2f 3d a3 ef 12 3d
       -0.057154316 0.009388001 0.042791236 0.035873067
000090 e1 15 2d bd 81 d7 59 3c d3 6e 84 bd fe 0c a7 bd
       -0.042257193 0.013296009 -0.064664505 -0.08156775
0000a0 6d 77 00 3d 5f 3b e8 3c 41 0b 96 3d ae a1 b6 3c
       0.031363893 0.028348623 0.07326365 0.022293892
0000b0 a7 65 c2 bd 9d 7e 9e 3c c2 d3 45 bc e6 70 76 bc
       -0.09492045 0.019347483 -0.012074413 -0.0150415655
0000c0 6a 47 c4 3d 22 2e 84 3d 3d 0c f2 bc 98 2d 80 3c
       0.09583934 0.06454112 -0.029546851 0.01564674
0000d0 56 da e6 3c 92 1e f8 bc 11 34 b0 3d c5 da 8b bd
       0.028180283 -0.030288015 0.08603681 -0.06828836
0000e0 32 4c 13 3c db 56 91 3c 1f 8b 64 3d f1 e7 28 3d
       0.008990334 0.017741611 0.05579674 0.04123682
0000f0 13 c7 54 3d 9b 23 ea 3d f0 07 3a 3c c3 f2 66 bd
       0.051947664 0.114325725 0.0113544315 -0.05638386
000100 27 c7 88 3d ba 8d eb bd 8f 05 89 bd c3 94 96 bc
       0.0667861 -0.115016416 -0.06690513 -0.018381482
000110 4e 9d 14 3d b3 85 96 3d aa a7 44 bd 7f 8c 76 3d
       0.03628283 0.0734972 -0.04801146 0.06019258
000120 7a 42 1c 3c 6d 92 ee bc 62 47 e1 3c 45 a3 b8 3d
       0.009537334 -0.029122556 0.027499858 0.09015516
000130 05 a1 bb 3c e4 a8 6a bd 81 a0 e1 3d 12 6c 93 3a
       0.022903929 -0.057289973 0.11016942 0.0011247417
000140 a3 2f 01 be a7 0f cc 3d c9 c1 c4 bd 53 be 72 bd
       -0.12615828 0.09963923 -0.09607274 -0.05926354
000150 57 8f 21 3d 01 90 7d 3d 5d ae 0c 3d 8e 6f 90 3d
       0.03944334 0.06190491 0.034345973 0.07052527
000160 71 8d 36 3c d6 87 73 3b c5 28 06 3c c5 2e 39 bc
       0.011142121 0.0037159822 0.008188431 -0.011302655
000170 4b a9 99 3d a5 b5 22 3d 7f a0 aa 3d f7 f6 f1 bc
       0.07502993 0.03972401 0.083313935 -0.029536707
000180 d7 0f 90 3d 51 4b 97 bd dc 4b 7b 3d dd a2 e5 bc
       0.07034271 -0.07387412 0.061351642 -0.02803176
000190 1e 02 67 bd 44 5a 4c bc 50 73 15 3d 42 4a 4b bd
       -0.056398503 -0.012472693 0.036486924 -0.049631365
0001a0 d6 2b 1f 3d 55 a1 0c bd ed 42 c4 3d 15 f5 1e bd
       0.038860165 -0.034333546 0.095830776 -0.038807947
0001b0 75 42 bf bc 35 28 04 bd 42 e9 f7 3c 11 22 00 bd
       -0.023347119 -0.032264907 0.030262593 -0.03128249
0001c0 de 72 56 bd 5e 93 49 bd b5 67 5a 3d cd 19 85 bb
       -0.05235564 -0.049212806 0.05332156 -0.0040619136
0001d0 dc 76 aa bb b6 79 2e 3d aa f9 43 3d 69 78 8f 3c
       -0.0052021574 0.04259654 0.04784552 0.01751347
0001e0 a3 18 b7 bd 85 96 9a 3d a5 c4 36 3d 3a df ec 3c
       -0.08940246 0.075482406 0.04462113 0.028915036
0001f0 c1 8c 8e 3d 9d dd 7d 3d 34 35 af 3d 3e d2 f6 bc
       0.069604404 0.061978925 0.085550696 -0.030129548

model.model.5.weight f4 [128, 128]
000000 46 17 24 3e 48 ac 02 be 42 8a 18 be d5 8f 8e bd
       0.16024503 -0.12761033 -0.14896491 -0.069610275
000010 1e 9d 82 be 57 7a e8 3d 30 ab a4 bc 56 f4 69 bd
       -0.25510496 0.113514595 -0.02010116 -0.057117783
000020 85 27 9d be 39 63 4a be ed ec 2e be 41 fd 7e 3d
       -0.30694214 -0.19764413 -0.17082568 0.06225324
000030 53 79 93 3d 78 28 bb bd 6c ca 5a bd 6c 15 08 be
       0.07200875 -0.09138578 -0.0534157 -0.13289422
000040 16 ad 82 3c 57 b3 65 be 75 3d de bd 63 69 2d 3e
       0.015951674 -0.22431694 -0.10851566 0.16934733
000050 42 65 cb 3c 32 d0 05 3d fe 54 fd 3d 1a ce e5 bb
       0.024828557 0.032669254 0.123697266 -0.0070130946
000060 0a 51 57 be 0e 3e 34 bc 33 b3 5a be b9 ab 5a be
       -0.21027008 -0.011001123 -0.21357422 -0.2135457
000070 c6 3d e8 bd 5b 5a c9 bd a5 23 2b 3d e1 79 ea bd
       -0.11339907 -0.09831687 0.04178204 -0.11449028
000080 ce d0 a3 bd 64 a3 48 be e0 1e b3 bd 01 96 ca 3d
       -0.07998811 -0.19593579 -0.08746123 0.09891892
000090 95 44 4c bd 37 45 9e be c0 b0 82 be 18 9c 9a bd
       -0.049870092 -0.30912182 -0.25525475 -0.07549304
0000a0 da 70 b2 3c 7d 19 d8 3c b9 c9 07 3e 78 cd 1c bd
       0.021782327 0.026379341 0.13260545 -0.038281888
0000b0 e5 f5 2a 3e a0 13 12 3e cd 0e b1 bd d7 a8 2f be
       0.16695364 0.14265299 -0.08645401 -0.17154251
0000c0 4a 4e df bd ca f7 81 be a8 c8 28 be d9 fd 1d be
       -0.10903604 -0.2538436 -0.16482794 -0.15428866
0000d0 4c 42 08 3d c3 19 08 3d 86 ea c2 bd 61 03 43 be
       0.03326635 0.033227693 -0.09517388 -0.19044258
0000e0 28 76 40 3d b5 f4 3b bd 54 ef 98 bc 68 2a 0e 3c
       0.046987683 -0.045887668 -0.018668808 0.008677103
0000f0 2b 8e d6 3d bb b8 99 3d e7 eb 9f bc b8 ba 76 be
       0.10476335 0.07505938 -0.019521667 -0.24094665
000100 a6 8d 1e be 55 cd 57 3d b9 88 c4 3d 6f 2c e7 bd
       -0.15483722 0.052686054 0.0959639 -0.11287772
000110 11 7a 4e be c4 e9 84 bd 1d 55 e2 bd 01 54 a0 bd
       -0.20163752 -0.064899 -0.1105139 -0.078285225
000120 80 01 24 3d b2 69 10 be 0a d1 b8 3c 5e e6 46 bd
       0.040040493 -0.1410282 0.022560615 -0.04855954
000130 8f 60 01 be 62 0f 1a bd f7 e8 1f bd 3d 6a 66 bd
       -0.1263449 -0.037612326 -0.039040532 -0.05625366
000140 99 13 0f be 68 78 0b 3e 04 e8 69 be 10 7a 85 bd
       -0.1397232 0.1362015 -0.22842413 -0.06517422
000150 97 bb 1e bd 4c 58 24 bd 9b a8 c6 bc 48 2f 02 be
       -0.03875312 -0.04012327 -0.02425032 -0.12713349
000160 4c fd 12 3e 83 1f 48 be b1 1a 78 be f6 c0 e9 bd
       0.14354438 -0.19543271 -0.24228932 -0.114137575
000170 1f 26 18 be b7 47 95 be 89 50 86 be 71 27 04 be
       -0.14858292 -0.29156277 -0.26233318 -0.1290567
000180 5b 36 0b be 4a 19 57 be c8 82 1a be 11 c6 a0 be
       -0.13594954 -0.21005741 -0.15088952 -0.31401113
000190 27 ec 12 be e4 b9 aa bd e0 07 f1 3d 36 e0 d2 bd
       -0.14347897 -0.08336237 0.1176908 -0.10296671
0001a0 85 2b 23 3d c0 f2 83 3c bd 02 89 be 7a 3e 0d 3e
       0.039836425 0.016106963 -0.26759902 0.13793364
0001b0 36 ac 15 ba b8 67 30 be 29 1c 55 be de a0 8a bd
       -0.00057095604 -0.17227066 -0.20811523 -0.06768964
0001c0 77 c0 3c be a2 7f f8 bd 72 3f 04 3e e4 e1 04 be
       -0.18432795 -0.12133719 0.12914827 -0.12976795
0001d0 53 a7 6e be c4 9c ba bd 41 7d a1 bd bb 92 48 be
       -0.23306017 -0.09111932 -0.078852184 -0.19587223
0001e0 bd ab 26 bd dc d4 85 3d e4 0b 32 bd a7 49 14 3e
       -0.040691126 0.0653474 -0.04346837 0.14481221
0001f0 7f 53 16 be bf 74 a8 3d 71 47 88 3d c4 8a e4 bd
       -0.14680289 0.082253926 0.06654251 -0.1115928
000200 33 ea a1 3d b2 24 21 bd 6f 2f 99 3b 62 c2 87 bd
       0.07905998 -0.039341636 0.004674844 -0.066288725
000210 2d 83 6b 3d 17 83 96 bc 35 82 ea bd 7a f4 6b bd
       0.057498146 -0.018373055 -0.11450616 -0.057606198
000220 30 83 0a 3e d6 4b a1 3d 5c 6b bc bd d5 bf 2b be
       0.13526607 0.07875793 -0.09200165 -0.16772397
000230 ec 87 69 bd 5e 0c d5 bc 51 a0 c3 3c b1 39 0a 3d
       -0.05701439 -0.026006874 0.023880156 0.033746425
000240 a1 7b 93 3d 5d fe 2d bd d7 9e b8 bd af a4 6f be
       0.07201315 -0.042478908 -0.09014671 -0.23402666
000250 f8 8f bc bc 9f a7 c6 bb 85 53 45 be 9b ff e7 bd
       -0.023017868 -0.0060624625 -0.19270141 -0.1132805
000260 90 0d 75 3e 58 5c 5d 39 38 76 6d 3c c3 3f 02 3e
       0.23930955 0.00021110603 0.014493518 0.12719636
000270 48 5b cd bc c8 cd dd 3c f1 f6 f5 bb 35 e7 01 3b
       -0.02506794 0.027075663 -0.0075062444 0.0019821648
000280 0d 5b cd 3b e6 34 33 3d 22 16 30 bd 06 d1 ab bd
       0.0062669576 0.04375162 -0.042989857 -0.083894774
000290 9d 23 42 be 2a 7a d0 3d fa da a0 3e 45 12 b0 bb
       -0.18958898 0.10179551 0.31417066 -0.0053732716
0002a0 db 8a ad bd 11 b4 a0 3b 3b b1 a7 bd 26 36 0f 3e
       -0.0847375 0.004904278 -0.08188101 0.139855
0002b0 c2 d1 e8 bc 22 6a d1 bd 0a 59 c6 bc 96 04 82 3d
       -0.028420333 -0.10225321 -0.024212379 0.06348531
0002c0 81 65 be 3c b4 64 92 3a 0a 1e 8d 3d 52 42 01 be
       0.02324176 0.0011168928 0.06890495 -0.12622955
0002d0 d2 ca c1 bd 30 3a 84 bd 71 63 57 3d 7a c0 bb 3d
       -0.09462513 -0.06456411 0.05258507 0.09167571
0002e0 b4 c6 4e 3d 1e a2 d3 b4 af fe 46 3d 47 9e c1 bd
       0.050482467 -3.9419768e-07 0.04858273 -0.09454017
0002f0 af 1c cd bc 5b aa 7f bd bc dc b1 3b 4a ad 13 3e
       -0.025038091 -0.062418323 0.005427925 0.14421573
000300 e1 62 01 3e 60 4a 64 bd 33 73 9a 3d d3 6a dd 3c
       0.12635376 -0.055734992 0.07541504 0.027028477
000310 68 2b 66 3e a7 d6 14 3e f6 ee 16 be f9 7e 39 3e
       0.22477496 0.14535008 -0.14739594 0.18114842
000320 ec 3a cb 3c 7e 4b 6c 3d ad 9f 29 3d e4 5a e7 3c
       0.02480837 0.057689182 0.041412044 0.028241582
000330 b6 65 b8 3d 92 4f 9a bc e4 5b 9b bc ea 2c 05 3d
       0.09003775 -0.01883677 -0.018964715 0.032513537
000340 25 83 50 3e 7c c6 a5 3d 8c aa 30 bc b4 e8 e4 3c
       0.20362528 0.080944985 -0.010782849 0.027942993
000350 fa 07 12 be f6 aa 0f bb 6b c2 4e 3c c9 2b 04 bd
       -0.14260855 -0.002192197 0.012619595 -0.03226832
000360 53 67 e9 bd 44 40 3f bd b2 73 d5 bd 9a c4 9e 3d
       -0.11396661 -0.046692148 -0.10422458 0.077523425
000370 c5 6f d4 3a e8 71 51 3e 47 1e fc 3d a0 cd f1 3d
       0.0016207626 0.20453608 0.123104624 0.11806798
000380 00 6b 2f 3d 9b 0b a0 bd ee f3 ee 3d b6 d7 12 3e
       0.042826653 -0.078147136 0.1166762 0.143401
000390 53 ca 1c 3d 4b 27 0b 3e f6 97 d7 bd 86 81 b8 3d
       0.03827889 0.13589208 -0.10527031 0.0900908
0003a0 d8 a5 c0 bd d5 1f 9f bd 1a 86 c5 bb 47 b1 19 be
       -0.09406632 -0.07769743 -0.006027949 -0.15009032
0003b0 f0 07 90 bc 2b 02 c9 bd f8 83 ad 3d 84 0e 0a bd
       -0.01758191 -0.09814867 0.08472437 -0.03370525
0003c0 fb f4 23 3e ca 9c 1f 3d fd f4 1b bd f0 43 e1 3d
       0.16011421 0.038967885 -0.038075436 0.10999286
0003d0 5e be bf 3a 30 c2 25 bd 0d 2f 6d 3a 69 61 3f 3d
       0.0014628877 -0.040468395 0.00090478436 0.046723757
0003e0 6f f2 2b bd 83 6e ff bb 08 03 15 be 5c fa e5 bd
       -0.04197925 -0.0077951564 -0.14551938 -0.11229393
0003f0 a7 7f b3 bc 8f 10 98 3d 4c 5c 16 3b dd 90 ea 3d
       -0.021911455 0.07425033 0.0022943197 0.11453412

model.model.5.bias f4 [128]
000000 f2 7c ca 3c 7b 24 a3 3d 93 b8 f9 bc ad 9d 96 3d
       0.024717782 0.079659425 -0.03048352 0.07354293
000010 50 72 d0 bc 18 7c 89 bc 50 ff bb bc af b7 c8 bb
       -0.025445133 -0.016782805 -0.02294889 -0.0061254124
000020 ca 16 a0 b9 b1 0c 00 bd 23 62 d4 3b 80 cf 32 3d
       -0.00030534557 -0.031262103 0.0064814254 0.04365492
000030 c9 60 92 3d 05 70 8c 3d 4f 3a a2 3a f9 a5 26 3c
       0.071473666 0.068573035 0.0012376996 0.010171407
000040 6c 06 e8 bc d0 dd 80 3d f6 f8 9e 3d 04 78 ad 3d
       -0.028323375 0.062923074 0.07762329 0.08470157
000050 82 9a ad bd 8b 03 54 bc ae 17 5e b0 e7 77 a9 3c
       -0.08476736 -0.012940298 -8.079678e-10 0.020687057
000060 e4 be 74 3d 91 04 08 bc 67 8f 30 3d d2 d3 66 3d
       0.05975236 -0.00830187 0.04310551 0.05635435
000070 ee cf 9d bd 36 95 6d bd 2c 87 f1 3c 3f a3 17 bd
       -0.07705675 -0.058003627 0.0294834 -0.037020918
000080 15 2f 62 bd 55 0d a4 bd 55 85 1e 3d 76 da 89 bd
       -0.055220682 -0.080103554 0.038701374 -0.06731121
000090 f6 f9 29 3d eb 0f 5f bd 82 af 03 bd da 91 1b bb
       0.041498147 -0.05445854 -0.0321498 -0.0023738057
0000a0 af d0 f8 3b 93 78 59 bd 6a b0 e2 3c 81 55 85 3d
       0.0075932364 -0.053093504 0.027672011 0.06510449
0000b0 4d 76 ad 3d 56 c6 11 bd c0 20 ab 3d b7 36 80 3d
       0.0846983 -0.03558954 0.08355856 0.06260436
0000c0 2a cf e7 3b 0d 6b 42 3c 1c b7 c7 bc cf 22 a1 3d
       0.0070742564 0.011866343 -0.024379306 0.07867967
0000d0 63 ab 72 bd 8b 6b 23 3d b5 05 1f bc 10 f2 e0 3a
       -0.05924548 0.039897483 -0.0097059505 0.0017161984
0000e0 69 6b c1 3d 09 c9 a3 3c e7 5a 79 3d 9c 03 36 3d
       0.09444315 0.019993322 0.060877707 0.044437036
0000f0 d7 6f f0 3b c8 24 6d bd 0b aa 9b bd 97 65 05 3d
       0.007337551 -0.057896405 -0.076007925 0.032567587
000100 58 e6 86 3d 22 0b bd 3d 81 c1 81 3b 88 2d a4 bd
       0.06586903 0.09230639 0.003959835 -0.08016497
000110 3d f9 bb 3c 9c 95 4b bc ad e0 12 3d a3 a6 06 3d
       0.022945995 -0.012425806 0.0358588 0.03287376
000120 38 ca 9c 3d 8b 89 1f bd 17 ff 2e bd 45 f6 36 3d
       0.07655758 -0.03894953 -0.04272374 0.044668455
000130 56 bf 4a 3d df 45 b3 bc de 22 bd bc f0 35 96 bd
       0.04949888 -0.021883903 -0.023087915 -0.073345065
000140 69 d4 cd bb fb dc 77 3d e1 08 2e 3d 3e 88 a2 bd
       -0.006281425 0.060513478 0.042488936 -0.079361424
000150 a5 4a 98 3d 12 ba 59 3c c0 47 c5 3d 73 aa e5 3b
       0.07436112 0.0132889915 0.09632826 0.0070088445
000160 8e 0d 42 bd 16 8b ef 3c b4 f1 b4 3d dd 72 0f bc
       -0.047376208 0.029241126 0.08835164 -0.008755413
000170 eb 12 0d 3b 6d 92 f0 3b 6d 30 84 3d 7e 2f 0e 3d
       0.0021526169 0.007341674 0.06454549 0.03471326
000180 f5 fb 69 3d 58 e5 b7 3d 2c 91 c6 bc 6a 78 4e bd
       0.05712505 0.08979291 -0.024239145 -0.050407805
000190 41 5b 9c 3d 38 a8 14 3d 16 aa 55 3d 5c 51 d3 3c
       0.07634593 0.03629324 0.05216416 0.025795631
0001a0 d8 d0 e2 3c 6d d4 1a 3c 4d 66 41 3d e0 81 4a bd
       0.027687475 0.00945006 0.047216702 -0.049440265
0001b0 6c 85 29 3d ec a2 90 3d 7a df cc bd 32 5b 86 b8
       0.041387007 0.07062325 -0.10003562 -6.4066044e-05
0001c0 8b 47 4d 3c 7e c2 2a 3d fb f4 9f 3d 73 55 a4 3d
       0.012529264 0.04168939 0.07810398 0.08024111
0001d0 54 12 31 bc 1a d9 11 3e 1e e3 40 3d 0f ae d2 bc
       -0.010807592 0.14242974 0.047091596 -0.025717763
0001e0 39 27 07 3d 9e 76 83 3d 8e 02 66 bd 51 a9 05 3e
       0.03299639 0.06419109 -0.05615478 0.1305287
0001f0 64 4d c0 3d e1 61 37 3d 26 f2 94 bb dc 68 7a bd
       0.09389761 0.04477108 -0.004545468 -0.061135158

model.model.7.weight f4 [2, 128]
000000 6b ee c1 be 66 34 4a 3d 04 9d e0 3d f0 16 3d be
       -0.3787721 0.049366377 0.10967448 -0.18465781
000010 4c 3b db 3c 59 30 c1 3d c2 9e 90 be 32 46 87 bd
       0.026761673 0.0943305 -0.28246123 -0.066051856
000020 6c 80 e4 3d fc e4 c8 3c e1 21 25 3c fd eb cd 3b
       0.11157307 0.02452325 0.010078878 0.0062842355
000030 e6 e4 e8 bc cb 10 b1 be 92 29 95 3d c0 81 cc 3d
       -0.02842946 -0.34583125 0.072833195 0.09985685
000040 28 71 1a 3e 5e e5 0e 3e 00 3f 09 3d 29 5b ba 3d
       0.15082228 0.13954684 0.033507347 0.09099419
000050 1c e2 46 3d 46 d2 82 39 82 6d 9e 38 fa 9f 1e be
       0.04855548 0.00024952198 7.5544245e-05 -0.15490714
000060 23 f2 85 3e 21 26 a4 3d fc f6 55 3c c1 e8 e6 3d
       0.26161298 0.08015085 0.013059374 0.11274863
000070 79 e5 26 bd ad 72 51 bd b6 7f 42 bc 24 22 08 be
       -0.040746186 -0.051134754 -0.011871269 -0.13294274
000080 bf 59 58 3e c0 56 3d 3e 4c 35 c8 3d 5d 8d 5b 3d
       0.21127985 0.18490124 0.097757906 0.05360161
000090 f0 54 cc 3c 63 48 c9 3c 72 84 06 3b cd a6 17 be
       0.024942845 0.02457065 0.002052572 -0.14809723
0000a0 f0 54 8f 3d 2f fd cf be 5c cf b4 3e 7a 11 b9 3c
       0.069986224 -0.4062285 0.35314453 0.022591341
0000b0 b0 10 54 3d 36 3a b9 bd e1 51 d3 3d 1c e2 82 3c
       0.051773727 -0.09044306 0.103183515 0.015976958
0000c0 d9 6e 24 3e ad ad b5 3d 09 09 61 3e a9 5d 58 be
       0.1605791 0.08871017 0.21976103 -0.21129479
0000d0 e4 94 66 3d ee 51 a4 be 9d cb 02 3d e0 0c 94 3d
       0.056294337 -0.32093757 0.031932462 0.07229018
0000e0 3c c3 c5 3d 74 67 e3 ba 43 f4 84 bd 45 38 81 3d
       0.096563786 -0.0017349557 -0.06491902 0.06309561
0000f0 d9 05 51 3d bf 69 b6 3d 9d b1 08 3e 41 f7 34 be
       0.051030967 0.08906888 0.13349004 -0.17672445
000100 0b 78 63 be a0 c1 a8 3d 04 8e 81 bd 5c 8b 73 bd
       -0.22213762 0.08240056 -0.063259155 -0.059459075
000110 5e 6a 95 be 10 bd a0 3d 99 31 ac 3d 87 e4 b0 3b
       -0.29182714 0.07848561 0.084078975 0.0053983363
000120 45 f3 d1 3d e1 0a 54 3a 4d 4c f4 bd 14 47 a7 be
       0.10251478 0.0008088779 -0.11928616 -0.32671416
000130 5a ad 8d bd d4 aa 63 bc 4e 16 8c bd 7c 9a 1f be
       -0.0691783 -0.013895709 -0.06840192 -0.15586275
000140 9e 30 92 3d 7c 93 79 be cf 68 58 3d d6 00 17 be
       0.07138179 -0.24372667 0.05283433 -0.14746413
000150 47 1f 7c bc 14 fe d5 3c 44 65 cd 3d 92 a4 68 3e
       -0.0153883165 0.02612213 0.100290805 0.22719029
000160 33 3a 02 be 5f 8f ee 3c 46 e4 1d 3d e2 5d 4f bc
       -0.12717514 0.029121099 0.038547777 -0.012656661
000170 a0 ac 3b bd a3 d7 9e 3c 5a 5b ac bc 9f f8 eb 3d
       -0.045818925 0.019389933 -0.021039654 0.1152203
000180 7a 00 b5 3d 6f 63 ac 3d 28 ce c8 3e 87 cd f8 bd
       0.088379815 0.08417403 0.39219785 -0.12148576
000190 42 93 b8 ba 81 ba cb bc 4d d0 93 3d 03 cf 8f 3e
       -0.0014081972 -0.024869205 0.072174646 0.28087625
0001a0 a7 59 e0 3a ec 12 9d be af 32 9c 3d de e7 01 3e
       0.0017116562 -0.306785 0.07626855 0.12686107
0001b0 5d 79 e6 3d d6 5b 0e bc 9b 95 48 3e 8a 30 a6 9b
       0.11253617 -0.008688888 0.1958832 -2.7493764e-22
0001c0 1c d0 4e 3c 22 e4 e2 3d b0 0b 91 3d 6f b7 45 be
       0.012622859 0.11078669 0.07082307 -0.19308256
0001d0 91 15 82 bd 66 b4 e8 be de 4f 0e 3e 6e 25 e8 3d
       -0.0635177 -0.45450133 0.13897654 0.11335264
0001e0 90 3d e5 3d bf 7b b4 bc 09 44 b2 3d 02 74 01 bf
       0.11193383 -0.022031663 0.08704383 -0.5056764
0001f0 0c c2 72 be 76 c6 2b bd db 1e 7e bd c1 7c 16 3e
       -0.23706836 -0.041937314 -0.062041145 0.14696027
000200 30 39 9e 3e b1 52 1f be 37 c3 3a bc d5 43 d9 3d
       0.30903006 -0.15558888 -0.011399082 0.10608641
000210 3b f1 29 3d 94 65 33 be 33 a1 aa 3e d3 16 3e 3c
       0.04148982 -0.17519218 0.3332611 0.011602121
000220 57 e0 1e be 1e 4f 8c bd a8 21 b7 3c 8f b7 58 3d
       -0.15515266 -0.06851028 0.022354916 0.05290943
000230 ce ad b3 3d 89 4b b1 3e 30 3b c3 bd 94 c6 ba bd
       0.08773385 0.3462794 -0.095327735 -0.09119907
000240 d6 8b aa bd 90 54 10 bd 94 22 bf bd 7b ea b8 bc
       -0.08327453 -0.035236895 -0.09332767 -0.022572747
000250 67 d0 87 bd 2b cc c3 3c ab 95 9e b8 93 4a 25 3e
       -0.066315465 0.023901066 -7.561905e-05 0.16141729
000260 ac 17 c2 be 34 88 da bc 16 02 de bd b6 fa 09 bd
       -0.37908685 -0.026676275 -0.108402416 -0.033686362
000270 d2 37 49 3d 4b 43 ef 3c 7d 0e 0f bd 3e 02 ca 3d
       0.0491255 0.029206892 -0.034925926 0.09863709
000280 bc 18 5d be fe 1d ef bd b4 f3 d0 bd 55 7a 6d bd
       -0.21591467 -0.116756424 -0.10202733 -0.057977993
000290 56 05 92 3d 64 b6 fa 3b c3 8b e1 bd be fa 81 3d
       0.07129924 0.007651137 -0.110129856 0.063466534
0002a0 b9 95 7f 3d 56 e1 a2 3e 27 16 73 be 71 25 bf 3c
       0.062398646 0.31812543 -0.23738919 0.023333283
0002b0 81 98 b6 bd d5 d6 31 3d 5e 2f a5 bd 43 dd 22 3d
       -0.089158066 0.04341777 -0.08065675 0.039761793
0002c0 6a e1 3f be 54 80 c8 bb 7c fa 6d be e9 af 32 3e
       -0.18738332 -0.0061188135 -0.23240083 0.17449917
0002d0 a4 bf 58 be 3a 4e a2 3e 2d cf 5b 3c b1 05 f6 bd
       -0.21166855 0.31700307 0.013416094 -0.12012804
0002e0 54 1c d7 3b 7d 2f dd bd be b0 fa 3d 07 0a ee bd
       0.0065646563 -0.10800073 0.12240742 -0.11623006
0002f0 55 94 f1 bd cd 1d 09 bd f6 e1 55 be 13 e4 30 3e
       -0.1179587 -0.033475686 -0.20886979 0.17274503
000300 07 3c 54 3e 70 b0 8d bd 05 3f 21 3d 4a f4 71 bd
       0.20726024 -0.069184184 0.03936674 -0.059070863
000310 c9 2b 79 3e 41 fb 3d bc b2 67 84 bc 45 35 6d bd
       0.24333109 -0.011595548 -0.016162727 -0.05791213
000320 85 f8 ef bd 79 bf 1b 3b 08 c3 8f 3d 3f 5b e9 3e
       -0.11717323 0.002376525 0.07019621 0.45577428
000330 85 44 da 3d af e2 68 3c 10 76 4f bd 4a 90 59 3e
       0.106576 0.014214202 -0.050649703 0.21246448
000340 f7 85 ba bd 21 3b 15 3e f8 6f 92 bd b3 87 00 3e
       -0.09107583 0.14573337 -0.071502626 0.12551765
000350 9d 7a 9c 3d c4 e3 00 be 70 1a cf 3c 9f e6 d1 bd
       0.07640574 -0.12586886 0.025281161 -0.102490656
000360 a1 48 7a 3e 2f e6 86 3c 94 6b ae bd 6c 69 fc bc
       0.24441768 0.016467182 -0.08516613 -0.030811988
000370 17 f7 a5 bb ed c5 7f bd c8 8b d7 bd 46 fa 33 bd
       -0.005064856 -0.062444616 -0.10524708 -0.04393985
000380 d2 ca 54 bd 3c 07 56 bc d3 4a d6 be 45 67 28 3e
       -0.051951237 -0.013063248 -0.4185396 0.16445644
000390 3d fd db bd ba 6f eb bd d5 80 ac bd 37 58 12 be
       -0.10741661 -0.114959195 -0.0842301 -0.14291464
0003a0 d8 c1 a0 3b 2f a7 89 3e 60 88 b2 bd 83 0c 43 bd
       0.0049059205 0.26885363 -0.08717418 -0.047619354
0003b0 dc 5f a2 bd 90 42 ea bd b7 e3 9e bd 77 e8 36 1b
       -0.0792844 -0.11438477 -0.07758277 1.51298e-22
0003c0 7d c9 d9 3c a3 38 bc bd 03 bc 96 bd d0 aa 89 3e
       0.026585335 -0.0919049 -0.07360079 0.26888132
0003d0 b5 d9 da bc a8 57 b0 3e ba 5c 15 bd 22 2f 29 be
       -0.026715139 0.34441876 -0.036465384 -0.16521886
0003e0 d7 e6 8d bd ad fa 40 3d 54 fb eb bd 17 60 02 3f
       -0.06928795 0.047114063 -0.115225464 0.5092787
0003f0 2b fc 83 3e 6a b2 b3 3c 6d 28 44 bc 47 e8 dd bd
       0.25778326 0.02193566 -0.011972529 -0.10835319

model.model.7.bias f4 [2]
000000 b2 9d 82 3d d0 4c 06 3d
       0.06377734 0.032788098

best_model_score f8 []
000000 05 d9 97 53 96 eb e6 3f
       0.7162582047156155

exp_avg f4 [32]
000000 d5 cc a2 bb 27 ec 34 3b 6d 04 83 bb fa d4 0e ba
       -0.0049682655 0.0027606578 -0.0039983303 -0.0005448606
000010 7e db 0b bb eb fc d5 39 d9 ac 40 3a 5b 9b 0f b9
       -0.0021340544 0.00040814964 0.0007349975 -0.00013695417
000020 11 70 58 39 b3 f2 d8 3a 11 8f 9e 39 b4 70 e7 38
       0.00020641113 0.0016551822 0.000302427 0.00011035931
000030 2e ab 84 37 ac 5c 82 38 0d e1 01 ba 77 c8 0e ba
       1.5815338e-05 6.2161445e-05 -0.00049544947 -0.00054467417
000040 57 0b 33 3a 9b fb f9 39 f9 07 74 3a fd c1 61 3a
       0.0006829998 0.00047680442 0.00093090493 0.00086119754
000050 42 44 51 3a bd 81 14 b9 d1 ff 3c b9 31 4a 8e ba
       0.00079828885 -0.00014162711 -0.00018024376 -0.0010855851
000060 5b 65 01 ba 32 86 a4 b8 14 3f c9 38 ec ef 6b ba
       -0.00049360626 -7.845125e-05 9.596176e-05 -0.000900029
000070 06 3a 7d 38 7c fd 81 39 c6 1a 80 3a 84 73 f3 3a
       6.037394e-05 0.00024793658 0.0009773604 0.0018573855

exp_avg_sq f4 [32]
000000 28 ad 02 39 9a 84 40 37 81 46 80 38 1a 3c ba 36
       0.00012462272 1.14749655e-05 6.116648e-05 5.5502287e-06
000010 2a 26 d8 36 6c 40 de 36 44 f7 29 37 45 f4 6a 36
       6.4417445e-06 6.6236153e-06 1.0130756e-05 3.50109e-06
000020 01 6d 02 37 1d 9e 32 37 ef bb cd 36 89 e5 5b 36
       7.773983e-06 1.064644e-05 6.1313544e-06 3.276715e-06
000030 1f 6c dd 35 59 57 9b 35 b9 54 a4 36 30 15 09 37
       1.649725e-06 1.1573821e-06 4.897444e-06 8.170769e-06
000040 b3 7a cb 36 00 4c c8 36 4b 36 21 36 e5 25 44 36
       6.0641555e-06 5.969312e-06 2.4022472e-06 2.9228333e-06
000050 f7 5d 1f 36 29 ea f2 34 c7 74 68 36 e4 28 36 36
       2.374754e-06 4.5246387e-07 3.4638667e-06 2.7143915e-06
000060 3d c4 b9 36 f2 f9 09 36 f9 b1 df 36 69 ba 8b 36
       5.536275e-06 2.0560078e-06 6.6666366e-06 4.164224e-06
000070 81 56 32 36 68 cf eb 36 0a 75 24 37 f9 87 d7 36
       2.6574419e-06 7.027691e-06 9.802412e-06 6.4233286e-06

exp_avg f4 [32]
000000 54 46 07 bc b7 c8 3e bb c9 60 15 3b c5 74 71 b6
       -0.008256514 -0.0029111335 0.0022793284 -3.5979767e-06
000010 63 af 66 3b 94 0d 6b ba 6f f8 17 ba 75 5b 04 3b
       0.0035199753 -0.0008966562 -0.00057972124 0.0020196114
000020 da dd 0f bb eb 45 11 3b a2 3d 95 ba 7c d5 91 b9
       -0.0021952302 0.0022166918 -0.0011386166 -0.00027815613
000030 4d 96 a1 39 49 4c cc 39 b1 92 2c 3a 9b 51 d4 b9
       0.00030820296 0.0003896675 0.0006583138 -0.00040496592
000040 40 11 b1 b9 6a 2e ed b9 e2 ae 90 ba ab 1d 38 ba
       -0.00033772923 -0.00045238744 -0.0011038447 -0.0007023464
000050 d2 50 c0 ba 9e e0 c7 39 f5 51 16 ba d5 6c 83 3a
       -0.0014672524 0.0003812359 -0.00057342584 0.0010026941
000060 d4 7a f2 38 66 37 bf 39 a6 d0 aa 39 f8 3c d0 3a
       0.00011562338 0.00036471634 0.00032580382 0.0015887311
000070 2c df 90 ba 71 3c 37 bb ae 45 14 ba 71 14 57 3a
       -0.0011052839 -0.002795961 -0.0005656135 0.0008204645

exp_avg_sq f4 [32]
000000 3c bd dc 39 63 7b 3a 38 30 28 8c 37 70 11 84 36
       0.0004210266 4.446077e-05 1.6708014e-05 3.9359365e-06
000010 4a 80 ed 37 1e 8f fc 36 50 e7 8b 36 20 c5 92 36
       2.831234e-05 7.5268463e-06 4.169451e-06 4.3740874e-06
000020 42 0e 9f 37 b4 d3 02 38 66 dc 1b 37 07 e3 c1 36
       1.8960916e-05 3.119158e-05 9.290035e-06 5.7782777e-06
000030 28 0d 9c 36 f0 be f1 36 97 89 7e 36 76 6b a9 36
       4.650694e-06 7.2045877e-06 3.7929037e-06 5.0491026e-06
000040 92 38 25 36 24 f2 ad 36 8a 16 f4 36 23 8f 6a 36
       2.4619844e-06 5.1839907e-06 7.2743906e-06 3.4952034e-06
000050 d5 12 8a 36 ed 51 9d 36 bf c5 d6 36 2e 65 7c 36
       4.114913e-06 4.688502e-06 6.4007177e-06 3.760982e-06
000060 74 e7 5e 37 a5 b2 8b 36 82 42 85 36 25 5d 0d 37
       1.32861205e-05 4.1633198e-06 3.9714514e-06 8.425942e-06
000070 4a 14 4a 36 21 83 b8 37 19 8e ad 36 15 92 18 37
       3.0112155e-06 2.1995571e-05 5.172344e-06 9.093918e-06
