attack-tabular/trained-models/phishing-mlp.ckpt (torch, 444626 bytes, 33 tensors)

model.model.0.weight f4 [18]
0	0x3f8b74e5	1.0895048
1	0x3f8cd637	1.1002873
2	0x3f821e2c	1.0165458
3	0x3f8bcd03	1.092194
4	0x3f8a3367	1.0796937
5	0x3f8096c6	1.0046012
6	0x3f80e614	1.0070214
7	0x3f85cc35	1.0452944
8	0x3f84c5a7	1.0372819
9	0x3f771752	0.9651996
10	0x3f7f0e73	0.9963142
11	0x3f80b3aa	1.0054829
12	0x3f81483d	1.010017
13	0x3f80b91a	1.0056489
14	0x3f80d6cc	1.0065551
15	0x3f82e1d4	1.0225167
16	0x3f82d6a3	1.0221752
17	0x3f822167	1.0166444

model.model.0.bias f4 [18]
0	0x3b4b0377	0.0030977407
1	0x3d26c1b7	0.040712085
2	0x3c10e307	0.00884319
3	0xbc31205f	-0.0108109405
4	0xb9b7449d	-0.000349556
5	0x3ba1fdf9	0.004943606
6	0xbbca1599	-0.0061671254
7	0xbc98dfbe	-0.018661376
8	0x3cf4058b	0.0297878
9	0x3caff67f	0.021479843
10	0x3c83cac6	0.0160879
11	0xb995d096	-0.00028574903
12	0xbc49c70e	-0.012315525
13	0x3c3d093f	0.011537849
14	0xbcd8d842	-0.026470307
15	0x3c0223c1	0.007943095
16	0x3d32c4ed	0.043644834
17	0x3c89478e	0.016757753

model.model.0.running_mean f4 [18]
0	0x428c671c	70.201385
1	0x40baacc3	5.833589
2	0x3ddf5f99	0.10906906
3	0x3e76ca2e	0.24100563
4	0x3e0d3ccb	0.13792722
5	0x3f48567e	0.78256977
6	0x3e5ea5f8	0.21743
7	0x3f5f0dab	0.8713023
8	0x3e03c946	0.12869748
9	0x3e8ff07d	0.28113165
10	0x3db19331	0.08670653
11	0x3f21d559	0.6321617
12	0x3e5a4e7a	0.21318999
13	0x3eccecbc	0.40024364
14	0x3ec5ebff	0.38656613
15	0x3e97a68d	0.29619256
16	0x3dc4acf7	0.09603303
17	0x3f1b9716	0.60777414

model.model.0.running_var f4 [18]
0	0x448b7083	1115.516
1	0x42ba9cdc	93.306366
2	0x3e0d4661	0.13796379
3	0x3def25c4	0.11677125
4	0x3dc9d8d0	0.09855807
5	0x3e2e4c04	0.17021185
6	0x3e2e4c04	0.17021185
7	0x3de5aa9c	0.11214182
8	0x3de5aa9c	0.11214182
9	0x3e4efcf5	0.20213683
10	0x3da23a13	0.07921233
11	0x3e6e28ad	0.23257704
12	0x3e2bce3e	0.16777894
13	0x3e75e0a1	0.2401147
14	0x3e72e4ba	0.23720065
15	0x3e558a9d	0.20853658
16	0x3db1dd0b	0.08684739
17	0x3e742fe9	0.23846401

model.model.1.weight f4 [128, 18]
0	0x3d13142c	0.03590791
1	0x3e309b66	0.1724678
2	0x3e460319	0.19337119
3	0x3b8df412	0.004332074
4	0x3e76072b	0.24026172
5	0x3e745d11	0.23863627
6	0x3d9687df	0.07350134
7	0xbdef8082	-0.11694433
8	0xbe18d4d6	-0.1492494
9	0x3e34ef60	0.1766944
10	0xbe0746a6	-0.13210544
11	0x3d86d2ca	0.065831736
12	0xbe0b89c2	-0.13626769
13	0xbbb30816	-0.0054636104
14	0x3e006aae	0.12540695
15	0xbd7cb3d6	-0.061694942
16	0x3e206903	0.15665059
17	0xbe0216ab	-0.1270396
18	0x3dce0ea8	0.10061389
19	0x3e6239b4	0.22092324
20	0xbdc2bdbc	-0.09508845
21	0x3e38e326	0.180554
22	0x3e9a7faf	0.3017554
23	0xbe0f1127	-0.13971387
24	0x3c4ed8d4	0.012624938
25	0x3e7d9de5	0.24767263
26	0xbd00c144	-0.031434312
27	0xbe30edc0	-0.17278194
28	0x3d93b22d	0.07211719
29	0xbe18c587	-0.149191
30	0xbd37a261	-0.04483259
31	0xbde2896a	-0.11061366
32	0x3e69f28b	0.22846429
33	0xbd90c1b7	-0.07068198
34	0xbe851581	-0.2599297
35	0x3e48a0d1	0.19592597
36	0x3d30447e	0.04303407
37	0xbd462d6e	-0.04838317
38	0xbd2cea6c	-0.04221575
39	0x3e6111a5	0.21979387
40	0x3e8a80d1	0.27051404
41	0xbdae9604	-0.08524707
42	0x3e6222a4	0.22083527
43	0x3bba97d3	0.0056943684
44	0xbe864e8b	-0.262318
45	0x3e4b4402	0.19850162
46	0xbe0fb0df	-0.14032315
47	0x3dc4d4eb	0.096109234
48	0xbd8ffb9b	-0.07030412
49	0xbe5e9eeb	-0.2174031
50	0x3e0b60eb	0.1361119
51	0x3e18afcc	0.14910811
52	0xbd4e61c9	-0.050386224
53	0xbb77cc50	-0.0037810989
54	0x3d0dc94b	0.034615796
55	0xbe644bbf	-0.2229452
56	0xbe17ecfa	-0.14836493
57	0xbe3bb364	-0.18330151
58	0x3e504a01	0.2034073
59	0xbe85d18c	-0.26136434
60	0x3ce5e7be	0.028064605
61	0x3ddadaa7	0.10686236
62	0xbc3d28e7	-0.011545396
63	0x3e5b2c85	0.21403702
64	0xbd619718	-0.055075735
65	0x3e31ae5c	0.17351669
66	0x3e32c6e2	0.1745868
67	0x3d796df9	0.060895894
68	0x3e372fad	0.1788928
69	0xbe52601f	-0.2054448
70	0x3e0ebe0f	0.13939689
71	0xbacbf2ce	-0.0015560032
72	0x3da62ce6	0.081140324
73	0xbdcca3d6	-0.09992187
74	0x3e57563b	0.21028988
75	0x3e2c506a	0.1682755
76	0x3eb1f68b	0.3475841
77	0x3db937ef	0.090438716
78	0x3e132c57	0.14372383
79	0xbda23d68	-0.079218686
80	0xbe360922	-0.17776921
81	0xbe3cf493	-0.18452673
82	0xbe5481b4	-0.20752603
83	0xbe3b3c57	-0.18284737
84	0x3d4d1251	0.050066296
85	0x3d517445	0.051136274
86	0x3dbea6e0	0.09309173
87	0x3e407070	0.18792892
88	0x3df29d7c	0.11846444
89	0xbdcf2581	-0.10114575
90	0xbe1f9045	-0.15582378
91	0x3c140550	0.00903447
92	0x3c69d12f	0.014271065
93	0xbe6cf468	-0.23140109
94	0xbd33c8f3	-0.043892812
95	0x3d644fbd	0.055740107
96	0x3e061813	0.13095121
97	0xbc804285	-0.015656719
98	0x3d80bc49	0.062859125
99	0xbc8b51fc	-0.017006867
100	0x3d8f7afd	0.0700588
101	0xbe5e70d6	-0.21722731
102	0xbd600784	-0.054694667
103	0xbe506341	-0.20350362
104	0x3e50af69	0.20379414
105	0x3dbbf229	0.09177048
106	0x3dd803e8	0.1054762
107	0x3d16d4cc	0.036824033
108	0x3d7bda8f	0.06148773
109	0x3e817f00	0.25292206
110	0xbe1508f0	-0.1455419
111	0xbe532d38	-0.20622718
112	0x3e18b34d	0.14912148
113	0xbe5e1674	-0.21688253
114	0x3e43354b	0.19063298
115	0xbd14cf91	-0.036330763
116	0xbe8390e0	-0.25696468
117	0xbdbda6ae	-0.09260307
118	0x3e58ef5e	0.21185061
119	0x3d0bb4dc	0.034108028
120	0xbe2927f4	-0.16519147
121	0xbe255049	-0.16143908
122	0xbe62ac11	-0.2213595
123	0x3e16f05d	0.14740129
124	0x3d4f09e2	0.050546534
125	0x3e1b190c	0.15146273
126	0xbd8aa86f	-0.067704074
127	0x3e92bdb3	0.28660354
128	0x3ddfd952	0.109301224
129	0x3d524de7	0.051343825
130	0xbd56541a	-0.0523263
131	0xbd8ad63b	-0.067791425
132	0x3e12023a	0.14258662
133	0x3e64f4a8	0.22358954
134	0xbe0f7d3f	-0.14012621
135	0x3e40a6d7	0.18813644
136	0xbaf4ae20	-0.0018667616
137	0x3dcced30	0.100061774
138	0xbe551ef9	-0.20812596
139	0x3c8a6f96	0.016898911
140	0x3cffab52	0.031209622
141	0xbdaa6a2c	-0.08321032
142	0xbe79af58	-0.24383295
143	0xbe0416df	-0.1289935
144	0xbe24299e	-0.160315
145	0xbc33a3f4	-0.010964382
146	0x3d0f648d	0.035008002
147	0x3e0e134c	0.13874549
148	0xbd851c94	-0.064995915
149	0xbc876001	-0.01652527
150	0xbe95e60b	-0.2927707
151	0x3db9de13	0.090755604
152	0x3e5c7d20	0.21532106
153	0x3e5efa5c	0.21775192
154	0xbd0dc22d	-0.03460901
155	0xbe81b020	-0.25329685
156	0xbdfb757f	-0.1227827
157	0x3e202472	0.15638903
158	0x3eab3eac	0.33446252
159	0x3e30ce11	0.17266108
160	0xbde9bad3	-0.11412587
161	0xbe3503db	-0.17677252
162	0x3cfe9bfc	0.031080239
163	0x3cd0ff4a	0.025512356
164	0xbc9e8af6	-0.019353371
165	0xbe53aeb3	-0.20672111
166	0xbe2c30f6	-0.16815552
167	0x3dc8a823	0.097976945
168	0xbe7bd062	-0.2459121
169	0xbc13e28a	-0.009026179
170	0xbe35f638	-0.17769706
171	0x3e727037	0.23675619
172	0xbe6fb61a	-0.2340931
173	0x3e0740ee	0.13208362
174	0x3db8ebb4	0.09029332
175	0xbd6fe98f	-0.05857235
176	0xbe1f3237	-0.15546499
177	0x3c31119c	0.010807421
178	0x3e8a5ebd	0.27025405
179	0xbdb95723	-0.09049823
180	0x3e460cd4	0.19340831
181	0x3e8e7132	0.27820736
182	0xbdd20c84	-0.102562934
183	0xbe4eb1d5	-0.20185025
184	0x3d632e74	0.055464223
185	0x3d87df85	0.0663443
186	0x3c128401	0.008942605
187	0x3e40b824	0.18820244
188	0x3afbfe56	0.0019225578
189	0x3e27c190	0.16382432
190	0xbdc7cf40	-0.09756327
191	0x3e1781ec	0.14795655
192	0xbd52042a	-0.051273502
193	0xbe5780f9	-0.21045293
194	0xbdae2b3e	-0.085043415
195	0x3de6bb13	0.1126615
196	0xbd019780	-0.031638622
197	0xbe279448	-0.16365159
198	0xbe857a86	-0.2607004
199	0x3d2a9d10	0.041653693
200	0x3e1343f8	0.14381397
201	0x3e209aad	0.15684004
202	0xbd4fd0a9	-0.050736103
203	0x3d9a32fb	0.07529255
204	0x3d91c7ba	0.07118173
205	0xbe0e6747	-0.13906585
206	0x3e4a61a5	0.19763811
207	0xbdefd9b3	-0.11711445
208	0xbe622bb1	-0.2208698
209	0x3c75baec	0.014998179
210	0x3d67dc8c	0.056606814
211	0x3d2c1ba9	0.042018566
212	0xbdf54adb	-0.11977168
213	0xbe093434	-0.1339882
214	0xbde6b8b7	-0.112657
215	0x3d524769	0.051337633
216	0xbc82c600	-0.015963554
217	0xbac2b9f0	-0.0014856439
218	0x3bc1da81	0.0059159403
219	0xbe97ac54	-0.29623663
220	0xbe42f819	-0.19039954
221	0x3db088fd	0.086198784
222	0xbd521c12	-0.0512963
223	0xbe6e4b00	-0.23270798
224	0x3e277a28	0.16355193
225	0x3e2adfb5	0.166869
226	0x3d353fa2	0.044250138
227	0x3e35871b	0.1772732
228	0xbc862411	-0.01637462
229	0x3e035ec4	0.12829119
230	0x3e06fe82	0.13183025
231	0x3e3f8681	0.18703653
232	0x3c3f81de	0.011688678
233	0x3e135430	0.14387584
234	0x3e18af8f	0.1491072
235	0xbe91c464	-0.28470147
236	0x3d2d0d65	0.042249102
237	0x3d0cf6a9	0.03441492
238	0x3debf6ac	0.11521658
239	0x3e0a0f66	0.13482437
240	0x3deffa74	0.11717692
241	0xbcb7ae9e	-0.022422131
242	0x3e7b1c2a	0.24522462
243	0xbd968794	-0.07350078
244	0x3de5190d	0.11186419
245	0xbe162dd1	-0.14665915
246	0x3dba0e44	0.09084752
247	0x3b9b3de2	0.0047376016
248	0x3e0631df	0.13104962
249	0x3e1ecdcd	0.15508194
250	0xbe702250	-0.23450589
251	0x3e6aa0a9	0.2291285
252	0x3d928512	0.071542874
253	0xbe25d842	-0.16195777
254	0x3bc4bc90	0.0060039237
255	0x3e286b68	0.16447222

model.model.1.bias f4 [128]
0	0x3e08b76d	0.13351221
1	0xbdaa9a6b	-0.08330234
2	0x3e3e28da	0.18570271
3	0x3deb11c4	0.11477998
4	0xbdcd317d	-0.10019205
5	0x3e65eb06	0.22452936
6	0x3e2e841d	0.17042585
7	0x3ca54f19	0.020179318
8	0xbc90aba2	-0.017659966
9	0xbd9e37cb	-0.077254854
10	0xbdc7fb8f	-0.09764778
11	0x3d42e857	0.047584858
12	0x3cb3c5f0	0.02194497
13	0x3da194c1	0.07889701
14	0x3d8b8fcb	0.06814536
15	0x3d97e412	0.07416548
16	0xbdb60b22	-0.08888842
17	0x3c2aefeb	0.010433177
18	0xbe589a73	-0.21152668
19	0x3e63db81	0.22251703
20	0x3e226af1	0.15861107
21	0x3da504ab	0.08057531
22	0x3d5c4578	0.053777188
23	0x3d0c4351	0.034243885
24	0x3de1da0b	0.110279165
25	0xbcdac716	-0.02670626
26	0x3e1d8b84	0.15385252
27	0x3de6ccf8	0.112695634
28	0x3e03d124	0.1287275
29	0x3e4d373a	0.20040599
30	0x3b4329b0	0.0029779486
31	0xbe0c445b	-0.1369795
32	0x3e42a5da	0.1900858
33	0x3e635183	0.22199063
34	0xbde04164	-0.10949972
35	0x3e33e821	0.17569019
36	0x3d3d2e6c	0.04618685
37	0x3d07f73c	0.033194765
38	0x3d4abbb8	0.04949543
39	0x3e1a0ae7	0.15043221
40	0x3e386bfe	0.18009946
41	0xbe3b3423	-0.18281607
42	0x3dbbf09c	0.09176752
43	0x3ce9bb9d	0.028531844
44	0xbdc35f1b	-0.09539624
45	0xbdd77e55	-0.10522143
46	0x3de77a58	0.11302632
47	0x3e1fe029	0.15612854
48	0x3e2182a0	0.15772486
49	0xbdc00c96	-0.093774006
50	0xbd53ea1a	-0.05173693
51	0xbd71cb74	-0.05903192
52	0xbe25ce71	-0.16192032
53	0x3e5cb49e	0.21553275
54	0xbe37e3af	-0.17957948
55	0x3e18cc23	0.14921622
56	0xbd7429e7	-0.059610274
57	0x3e6d030c	0.23145694
58	0x3d81612d	0.06317363
59	0x3c45b8b8	0.012067966
60	0x3d62241f	0.05521023
61	0xbe826a6f	-0.25471827
62	0xbe6ab91f	-0.2292218
63	0xbe0820e2	-0.13293794
64	0xbe29c8df	-0.16580532
65	0x3e4445e8	0.19167292
66	0x3e834d64	0.25644982
67	0xbe5404d5	-0.20704968
68	0x3e6b453f	0.22975634
69	0x3d0e7df7	0.0347881
70	0x3e39af85	0.18133362
71	0xbbe1b668	-0.0068881996
72	0x3de7890d	0.11305437
73	0x3e424ed6	0.18975386
74	0x3d259656	0.040426575
75	0x3d256402	0.040378578
76	0xbd9d459a	-0.07679291
77	0x3deadc25	0.114677705
78	0x3d812ce3	0.063073896
79	0xbe85ac66	-0.26108092
80	0x3c9c005f	0.019043146
81	0x3dd58a44	0.10426763
82	0xbc548999	-0.012972259
83	0xbc805fe5	-0.015670726
84	0x3e3d2406	0.18470773
85	0xbd9dfb26	-0.077139184
86	0xbe2975e6	-0.16548881
87	0x3e465a6c	0.1937043
88	0xbe5874e3	-0.21138339
89	0xbd9a5789	-0.07536227
90	0x3e5813bf	0.21101283
91	0xbe089e3c	-0.13341612
92	0x3e4cfd1b	0.20018427
93	0xbe542372	-0.20716646
94	0x3dd0c785	0.10194305
95	0xbe39d52e	-0.18147728
96	0xbe7a06e3	-0.2441669
97	0x3d305ad8	0.043055385
98	0x3e401e1d	0.18761487
99	0x3e64b385	0.22334106
100	0xbe485d0a	-0.19566742
101	0x3d2d1cd9	0.04226384
102	0x3e2b4074	0.16723806
103	0xbe36a8ff	-0.17837904
104	0xbde7053a	-0.11280294
105	0xbd3561a7	-0.04428258
106	0xbde4b375	-0.11167041
107	0x3b2aa49a	0.0026038052
108	0xbe2da3ec	-0.16957062
109	0xbe0f1163	-0.13971476
110	0x3e2eadef	0.17058538
111	0x3e04c095	0.12964089
112	0xbdb0d7a7	-0.086348824
113	0x3e402512	0.18764141
114	0x3e0e84af	0.13917802
115	0x3d97478a	0.07386692
116	0x3d9822fd	0.074285485
117	0xbe264f40	-0.16241169
118	0x3dfaade9	0.12240202
119	0x3e3e9209	0.18610395
120	0xbe4d7e7e	-0.20067784
121	0xbde36f7b	-0.111052476
122	0xbe552add	-0.20817132
123	0xbe174cca	-0.14775386
124	0x3c42bfef	0.011886581
125	0xbd45fa8b	-0.04833464
126	0x3d08ac4d	0.033367444
127	0x3e0b8270	0.13623977

model.model.3.weight f4 [128, 128]
0	0xbb2d9cbb	-0.0026491124
1	0x3cb87c54	0.022520222
2	0xbd0aa1fd	-0.03384589
3	0x3d9a21e8	0.07525998
4	0xbb06aa5d	-0.0020548322
5	0x3db76d84	0.08956435
6	0xbd34fd67	-0.044186976
7	0xbc91893e	-0.017765637
8	0x3d2f3097	0.04277095
9	0x3c2d2abb	0.01056927
10	0x3de20c04	0.11037448
11	0xbd7d9379	-0.06190822
12	0xbcf289e7	-0.029606773
13	0x3bb6ab78	0.00557464
14	0xbcdffd44	-0.027342446
15	0xbb44e66f	-0.0030044576
16	0xbd8e00bb	-0.06933733
17	0x3d2d36ed	0.04228871
18	0xbd65f604	-0.056142822
19	0x3d0b844e	0.034061722
20	0x3ceb687d	0.028736347
21	0x3d6c2b85	0.05765869
22	0xbb202c30	-0.00244404
23	0xbcfe8e07	-0.031073583
24	0x3aa6f13a	0.0012736686
25	0x3c97e2bc	0.018540733
26	0x3d3d2472	0.046177335
27	0x3dc3459d	0.09534762
28	0x3d4f418a	0.050599612
29	0x3d0fcdee	0.0351085
30	0xbd9fbd78	-0.0779981
31	0x3d138b90	0.03602177
32	0xbd91c507	-0.07117658
33	0xbdb74e3d	-0.0895047
34	0xbd74cf48	-0.05976799
35	0x3d7b7d4c	0.06139879
36	0x3d1cf240	0.038316965
37	0x3d362bff	0.04447555
38	0x3d36cb7f	0.044627663
39	0xbae78faf	-0.0017666722
40	0x3d1ef6db	0.03880964
41	0x3b98d138	0.0046636127
42	0xbd0f9de9	-0.035062704
43	0x3cb00c01	0.021490099
44	0x3de41c3a	0.11138196
45	0xbd3658d6	-0.044518314
46	0xbdb04cbf	-0.08608388
47	0x3c673efd	0.014114139
48	0xbd067f46	-0.03283622
49	0x3db3c125	0.08777074
50	0xbd3a3d83	-0.04546882
51	0x3d77f272	0.06053395
52	0x3dc6bd4f	0.097040765
53	0xbd11fa69	-0.0356392
54	0x3b9bb506	0.0047518043
55	0xbcb28813	-0.0217934
56	0xbd9c3e1a	-0.076290324
57	0x3c269d9c	0.010169413
58	0x3c599e36	0.013282349
59	0xbcd48a74	-0.025944926
60	0xbd74830e	-0.059695296
61	0xbb83b0e8	-0.0040188916
62	0x3cbb60e4	0.02287335
63	0x3d84d5df	0.06486105
64	0xbd3b7cc2	-0.045773275
65	0xbd14e811	-0.03635413
66	0xbda828c8	-0.082109034
67	0xbd18df57	-0.03732237
68	0xbd548d23	-0.05189241
69	0xbb1997df	-0.002343647
70	0x3cb109ff	0.021611212
71	0x3d44768b	0.047964614
72	0xbd9a4e90	-0.07534516
73	0xbcb92b98	-0.022603795
74	0xbd8b2f6a	-0.06796153
75	0x3d52b177	0.051438775
76	0x3d14fc73	0.036373567
77	0x3c1f7f55	0.009734948
78	0xbd1c870d	-0.038214732
79	0x3d22493b	0.03962062
80	0x3be24556	0.006905238
81	0x3d57626c	0.052584097
82	0xbd6e1e63	-0.058134448
83	0xbb883d9b	-0.0041577346
84	0x3ac3969d	0.0014922206
85	0xbd5404d3	-0.051762413
86	0x3d3ccf43	0.046096098
87	0x3bc3b1ea	0.0059721367
88	0x3bd05c1a	0.0063586356
89	0xbdcb9c7b	-0.09941956
90	0xbd5665b7	-0.052343097
91	0x3d768f89	0.06019548
92	0x3debbf69	0.11511118
93	0xbd36e039	-0.04464743
94	0xbd00ec7d	-0.031475533
95	0x3d570338	0.052493304
96	0x3d6b9a98	0.05752048
97	0x3b4d8e3f	0.0031365303
98	0x3d065339	0.03279421
99	0xbd83e5bb	-0.06440302
100	0x3dd5d865	0.104416646
101	0x3cc3108e	0.023811605
102	0xbd878e48	-0.06618935
103	0x3c322590	0.010873213
104	0xbcc8f803	-0.024532324
105	0x3cfd12d5	0.030892769
106	0x3dd96b8a	0.106162146
107	0xbda5f246	-0.081028506
108	0x3b31bad6	0.002711942
109	0xbc1188a1	-0.0088826725
110	0xbd26ad50	-0.040692627
111	0x3dca1729	0.09867699
112	0x3d87bea7	0.06628161
113	0xbd0d4d63	-0.03449763
114	0xbd534ab3	-0.05158491
115	0x3dd3b3ce	0.103370294
116	0x3c28fb16	0.01031377
117	0x3d9b2878	0.07576078
118	0x3d458fad	0.048232723
119	0x3d3b44e2	0.04571999
120	0x3d5f6b80	0.05454588
121	0x3dedc2f3	0.11609449
122	0x3c47db5c	0.012198295
123	0xbc678ee9	-0.0141331935
124	0x3b837797	0.004012059
125	0xbdb65bd1	-0.08904231
126	0xbd212ab0	-0.03934735
127	0xbb427391	-0.0029670934
128	0xbc2d8dd6	-0.010592898
129	0x3dd4a06c	0.103821605
130	0xbc5b7c08	-0.013396271
131	0xbd99359d	-0.07480929
132	0x3d5842e4	0.052798167
133	0x3c4b1425	0.01239494
134	0xbd222eca	-0.039595403
135	0xbbbb27e2	-0.0057115415
136	0x3de8a2d9	0.11359186
137	0x3d826403	0.06366732
138	0x3d12a1bb	0.03579877
139	0x3d556fa4	0.052108422
140	0xbd6c9d5d	-0.05776726
141	0x3b9802d4	0.004639009
142	0x3dbbda8b	0.09172543
143	0xbe1f07e7	-0.15530358
144	0x3d3d0d6e	0.046155386
145	0x3c08b505	0.00834394
146	0xbc5b2e5c	-0.013377752
147	0xbc9831ee	-0.018578496
148	0x3d048151	0.03234989
149	0x3d949d41	0.07256556
150	0xbd839743	-0.06425335
151	0x3d78f493	0.06078012
152	0xbd7951ca	-0.060869016
153	0xbe0239e4	-0.12717396
154	0x3d992f59	0.07479734
155	0x3c08a664	0.008340452
156	0x3d2b5118	0.041825384
157	0xbd09fde9	-0.033689413
158	0x3d6e09e6	0.05811491
159	0x3d8b525b	0.068028174
160	0xbd8dfecc	-0.06933364
161	0x3d50b9f3	0.050958585
162	0x3dbbba23	0.09166362
163	0x3bba7716	0.0056904657
164	0x3d8ae040	0.067810535
165	0x3d89d4af	0.06730019
166	0x3d4ce043	0.05001856
167	0x3d9e2d07	0.07723432
168	0xbd2c0d97	-0.042005148
169	0xbd4c9ce6	-0.049954318
170	0x3d037191	0.032090727
171	0xbc6f5e29	-0.014609852
172	0x3b694252	0.0035592509
173	0x3dd82a30	0.105549216
174	0x3df59a99	0.11992378
175	0xbc3614a6	-0.011113321
176	0x3d91d9a6	0.07121591
177	0xbd873b92	-0.06603159
178	0xbc19e915	-0.00939395
179	0xbd9e720c	-0.077365965
180	0x3e091eb3	0.13390617
181	0x3dca57ad	0.09880004
182	0x3d8d4c6f	0.06899344
183	0x3d794d72	0.060864873
184	0x3dd21504	0.10257915
185	0x3c3a9453	0.011387902
186	0xbd438f59	-0.04774413
187	0x3d9d8758	0.076918304
188	0xbd225a07	-0.039636638
189	0x3d073fb7	0.033019748
190	0x3dd2e390	0.1029731
191	0x3e05f990	0.13083482
192	0xbdac8364	-0.08423498
193	0x3dbe7845	0.09300283
194	0xbbcabb1d	-0.0061868564
195	0x3d7b9991	0.06142575
196	0xbd1dbc70	-0.038509786
197	0xbce75d7f	-0.028242825
198	0x3ae90b69	0.001777989
199	0x3d9dd7c2	0.07707168
200	0xbc93d5ce	-0.018046286
201	0x3de2c7b6	0.11073248
202	0xbd20c1cf	-0.03924733
203	0xbcd37778	-0.025813803
204	0xbbae8a02	-0.0053265104
205	0x3d9c96c8	0.07645947
206	0xbc1fb33d	-0.009747324
207	0xbe0c4dc8	-0.13701546
208	0x3dc3887b	0.09547516
209	0x3d96a5f5	0.073558725
210	0x3a9ec9de	0.0012114604
211	0x3d2b2181	0.04178
212	0xbc3db436	-0.01157861
213	0x3d5719bf	0.052514788
214	0x3de10568	0.10987359
215	0x3dbe02ca	0.09277876
216	0xbe105aca	-0.14097133
217	0x3cab3607	0.020899786
218	0xbcf89250	-0.030343205
219	0xbc4162e5	-0.011803363
220	0x3dcc1371	0.09964646
221	0xbd1952d4	-0.037432507
222	0xba9c2942	-0.0011914151
223	0x3b692ea8	0.0035580788
224	0xbd4f3a1f	-0.050592538
225	0xbdd20e78	-0.10256666
226	0x3d0704e7	0.03296366
227	0xbdcaee4e	-0.09908734
228	0x3dd1c42b	0.10242494
229	0x3c9e814b	0.019348761
230	0x3dcd2395	0.10016552
231	0x3cd2c979	0.025730835
232	0xbc5cb881	-0.0134717235
233	0xbc0d1956	-0.008611998
234	0xbcba34b1	-0.022730203
235	0xbcc09c65	-0.023512075
236	0x3da2b2e0	0.07944274
237	0x3c03bdb8	0.008040838
238	0x3c919656	0.017771881
239	0x3d428e41	0.047498945
240	0xbb9cd1c7	-0.0047857496
241	0xbc0e494d	-0.008684468
242	0xbd4de7af	-0.05026978
243	0xbaf3f2a1	-0.0018611738
244	0x3da035a8	0.07822734
245	0x3d493848	0.04912594
246	0xbde695c9	-0.11259038
247	0xbd99de43	-0.07513096
248	0x3d77537f	0.060382362
249	0x3da3337f	0.079688065
250	0x3cbd1548	0.023081437
251	0xbde54f59	-0.11196775
252	0x3d66a8e9	0.05631343
253	0xbdc3fecb	-0.09570082
254	0xbe0f654e	-0.14003488
255	0xbd679805	-0.05654146

model.model.3.bias f4 [128]
0	0x3c714c0e	0.0147276055
1	0xbd0d9a6b	-0.034571093
2	0x3dbd64ec	0.09247765
3	0x3d835187	0.064120345
4	0x3d7381f8	0.05945012
5	0xbdb5a817	-0.08869951
6	0xbd9cc85f	-0.07655405
7	0x3d0b375c	0.03398834
8	0x3c07ad68	0.008281089
9	0xbd046f2a	-0.032332577
10	0x3d1c12d9	0.038103912
11	0xbd1f13ec	-0.03883736
12	0x3d957bd9	0.07299013
13	0x3ddf55cc	0.10905036
14	0x3d3a47f5	0.04547878
15	0xbc30b538	-0.010785393
16	0xbd5c13b4	-0.053729728
17	0xbd791898	-0.06081447
18	0x3db6e2b9	0.08929963
19	0x3dd60677	0.10450452
20	0xbc672c1a	-0.014109636
21	0x3d78c81d	0.060737718
22	0x3d29a6ca	0.041418828
23	0x3c7d5932	0.01546316
24	0x3c0a2238	0.00843101
25	0x3daeb3c3	0.085303806
26	0x3d4f2b37	0.050578322
27	0x3c670a87	0.014101631
28	0xbd8182e4	-0.063237935
29	0x3dac5ada	0.08415766
30	0xbc00039e	-0.007813362
31	0xbc2f1378	-0.010685794
32	0xbc19d601	-0.009389401
33	0x3d9d8b9d	0.07692645
34	0xbd777c38	-0.0604212
35	0x3c8a7e87	0.016906036
36	0x3db3cafd	0.08778951
37	0x3c684427	0.014176405
38	0xbca02717	-0.01954989
39	0x3da3c677	0.079968385
40	0xbb918917	-0.004441391
41	0xbc6bc78c	-0.014390837
42	0xbc98f736	-0.018672567
43	0xbc44d8d2	-0.012014585
44	0xbae81b58	-0.0017708344
45	0xbb9b8828	-0.0047464557
46	0xbcfad353	-0.030618345
47	0xbd3e9910	-0.04653269
48	0x3d999f39	0.075010724
49	0x3d4c07e0	0.049812198
50	0x3d9dd58d	0.07706747
51	0xbc655510	-0.013997331
52	0xbd691e76	-0.056913815
53	0x3d178d36	0.036999904
54	0x3d44c7ac	0.048041984
55	0x3d285985	0.041100997
56	0x3d8c2b41	0.068441875
57	0x3d821fd7	0.06353729
58	0x3c66bfff	0.014083861
59	0xbcac8804	-0.021060951
60	0xbbfad65b	-0.0076549477
61	0x3b88f9f3	0.004180187
62	0x3dc9ae00	0.09847641
63	0xbce86dc3	-0.028372651
64	0x3cb74c04	0.022375114
65	0x3d610335	0.0549347
66	0xbcfabd56	-0.03060786
67	0x3da33830	0.07969701
68	0xbda5a365	-0.08087806
69	0x3d22687c	0.039650425
70	0x3d818b90	0.063254476
71	0xbc994f5c	-0.0187146
72	0xbd0f0b4f	-0.034922894
73	0xbd4502b6	-0.04809829
74	0xbbc2002f	-0.005920432
75	0x3db82919	0.08992214
76	0x3d3249b7	0.04352733
77	0xbd5d453e	-0.054021113
78	0xbda0b309	-0.07846648
79	0x3da8487b	0.082169496
80	0x3ce8783e	0.028377648
81	0x3dadb0ad	0.08480964
82	0x3cf74690	0.030185014
83	0x3c8dbd3e	0.017302152
84	0xbb25df8a	-0.0025310242
85	0xbd3574f5	-0.044300992
86	0xbd89944f	-0.06717741
87	0xbd42dc33	-0.04757328
88	0xbd2d6f6c	-0.04234259
89	0xbd36c1b5	-0.044618327
90	0xbd980670	-0.07423103
91	0xbdc7be22	-0.09753062
92	0xbcf8e647	-0.030383242
93	0xb9887d7a	-0.0002603343
94	0x3d4b3aad	0.049616504
95	0x3b6327cf	0.003466118
96	0xbc217c9c	-0.009856369
97	0xbc9dca44	-0.019261487
98	0x3cc4b520	0.024012148
99	0x3c9c8e13	0.019110715
100	0xbd593947	-0.05303314
101	0xbb90f0d3	-0.0044232397
102	0x3b854ec0	0.0040682256
103	0xbbf1dce1	-0.007381067
104	0xbda2f70d	-0.079572774
105	0x3b7484ef	0.003731068
106	0xbdcf53ea	-0.10123427
107	0xbd15a64e	-0.036535554
108	0xbc311f41	-0.010810674
109	0x3cad6da7	0.02117045
110	0xbc73ac9c	-0.014872696
111	0xbd738208	-0.05945018
112	0x3d86b9d2	0.06578411
113	0xbd15182f	-0.036400016
114	0xbd1aa153	-0.037751507
115	0x3c2f45cb	0.010697792
116	0x3d9007f2	0.070327654
117	0x3d63e72c	0.055640385
118	0x3d8df734	0.06931916
119	0x3dd4cf06	0.10391049
120	0x3d160416	0.03662499
121	0xbd3e53b4	-0.046466544
122	0x3d99934e	0.07498799
123	0xbcf420a8	-0.029800728
124	0x3dcd6ec0	0.100308895
125	0xbcf0582e	-0.029338922
126	0xbd3ac78e	-0.045600466
127	0x3d5537de	0.052055232

model.model.5.weight f4 [128, 128]
0	0x3d8b6a65	0.068074025
1	0xbc54d877	-0.012991062
2	0x3d62848b	0.055302184
3	0x3c3ffecb	0.011718462
4	0x3e1dd52f	0.15413354
5	0x3dee1885	0.116257705
6	0xbd28ab7f	-0.041179176
7	0xbd5d3a24	-0.054010525
8	0xbdb81577	-0.08988469
9	0xbc4fd569	-0.012685158
10	0x3d71fcce	0.059078984
11	0x3d637c89	0.055538688
12	0xbdf9694f	-0.12178289
13	0x3cb5961b	0.022166302
14	0x3e30043e	0.17189118
15	0x3c36e58b	0.011163126
16	0xbc831067	-0.015999032
17	0xbd4110e1	-0.047135238
18	0x3d243ee7	0.04009905
19	0xbd318ee3	-0.043349158
20	0x3c632f95	0.013866325
21	0xbd8c2aa9	-0.06844074
22	0xbd1a5d1b	-0.03768645
23	0x3e120bc8	0.14262307
24	0x3d0144e9	0.03155986
25	0x3c9de2f0	0.019273251
26	0xbc5c047b	-0.013428803
27	0x3e014693	0.12624578
28	0xbd79964e	-0.060934357
29	0x3d8e31f0	0.069431186
30	0xbc329a53	-0.010901052
31	0x3dc7d90b	0.097581945
32	0x3e43d7be	0.19125268
33	0xbae7c9ce	-0.0017684044
34	0x3da21624	0.07914379
35	0xbddc1c9f	-0.107476465
36	0xbcc1d254	-0.023659863
37	0xbbf24e70	-0.0073946044
38	0xbdfe580a	-0.12419136
39	0xbd5b8069	-0.05358926
40	0x3e48f345	0.1962405
41	0xbc77b462	-0.01511869
42	0xbceac950	-0.028660446
43	0xbc2f9514	-0.010716695
44	0x3d1ce75c	0.03830658
45	0xba98fcc4	-0.001167201
46	0x3dcaf339	0.09909672
47	0x3c99104d	0.01868453
48	0x3bfe5e75	0.007762725
49	0xbda27a54	-0.079334885
50	0x3dde7a31	0.1086315
51	0xbe26e6a6	-0.16298923
52	0x3d81487c	0.063126534
53	0x3e7ab5c5	0.24483402
54	0x3b5c813f	0.0033646373
55	0xbdc37ae6	-0.095449254
56	0x3d228f4d	0.039687444
57	0xbd9ddb94	-0.07707897
58	0x3d1163ad	0.03549545
59	0x3dbc6dc3	0.09200623
60	0x3d5650d6	0.052323185
61	0x3d94b82c	0.072616905
62	0xbcc680cb	-0.024231335
63	0xbd23d66c	-0.03999941
64	0x3db81c9a	0.0898983
65	0xbb74e134	-0.0037365677
66	0x3e59809c	0.21240467
67	0x3d4317da	0.04763017
68	0x3aeb202c	0.0017938665
69	0x3d54473b	0.051825743
70	0x3d656254	0.056001976
71	0x3c70f968	0.014707901
72	0xbe433931	-0.19064786
73	0x3df4e8a9	0.11958439
74	0x3e556bc1	0.20841886
75	0xbb7fd661	-0.0039037692
76	0xbd3877d4	-0.045036152
77	0x3e287fc1	0.16454984
78	0x3c937360	0.017999351
79	0xbde51945	-0.111864604
80	0x3d73b568	0.059499174
81	0xbb3ae927	-0.0028520317
82	0xbd46692d	-0.048440147
83	0xbc65c74d	-0.014024568
84	0x3cbc4249	0.022980826
85	0xbdc9ba0e	-0.0984994
86	0x3d74b57b	0.059743386
87	0x3d9e626e	0.07733618
88	0x3d7c2985	0.061563034
89	0x3d2ac018	0.0416871
90	0x3dbd7a5b	0.09251853
91	0x3d2a67e9	0.041603003
92	0xbc5a4246	-0.013321465
93	0xbde53d20	-0.11193299
94	0xbc8e3a37	-0.017361743
95	0xbd175512	-0.036946364
96	0xbcbf6226	-0.02336223
97	0x3d02e481	0.0319562
98	0xbdfc8bfb	-0.12331387
99	0xbda672b7	-0.08127349
100	0x3e265e8f	0.16247009
101	0xbcea820f	-0.02862647
102	0x3c57b052	0.013164597
103	0x3d9190e7	0.07107716
104	0x3d05b4fb	0.0326433
105	0x3c887fd0	0.016662508
106	0x3c93fa98	0.018063828
107	0x3ddfecfe	0.109338745
108	0xbd7b1429	-0.061298523
109	0x3d862315	0.0654966
110	0x3d3f6b26	0.046733044
111	0xbc162b1d	-0.009165552
112	0x3d4b3a3c	0.049616084
113	0xbe084b60	-0.13310003
114	0xbe492f1b	-0.19646876
115	0xbb2cd613	-0.0026372715
116	0x3d8de1a4	0.06927803
117	0xbcd07a35	-0.025448898
118	0x3d8f664a	0.07001932
119	0xbca90c01	-0.020635607
120	0xbdb5cff8	-0.088775575
121	0xbd965f13	-0.07342353
122	0xbc357899	-0.011076116
123	0x3c01e514	0.007928152
124	0xbdef56da	-0.116864875
125	0xbca5d631	-0.020243736
126	0x3d15061e	0.036382787
127	0x3cf0d829	0.029399948
128	0x3d493793	0.049125265
129	0xbcb1ea09	-0.021718042
130	0xbd378485	-0.044804115
131	0xbc934ee7	-0.01798196
132	0x3e2a274a	0.1661655
133	0x3ca88cd8	0.020574972
134	0xbd6eebb3	-0.05833025
135	0xbd1229e2	-0.035684474
136	0xbd9ce92f	-0.07661664
137	0xbc11b44b	-0.008893083
138	0xbbcf33b8	-0.006323304
139	0xbc620c38	-0.0137968585
140	0x3c907da5	0.017638037
141	0xbd4d6a2a	-0.050150074
142	0x3da2157b	0.07914253
143	0x3c2f4e6d	0.0106998505
144	0x3c7ba51c	0.015359189
145	0x3dd0e60d	0.10200129
146	0xbd7daaa9	-0.061930332
147	0xbd6bc395	-0.05755957
148	0x3dc9825c	0.09839317
149	0x3c14dc84	0.009085778
150	0x3dbc38cc	0.09190521
151	0x3e53ca1c	0.20682567
152	0xbc875693	-0.016520774
153	0x3d640d64	0.055676833
154	0x3d3718a7	0.044701245
155	0x3e051d9d	0.12999578
156	0x3d055b95	0.032558043
157	0xbd1e9c71	-0.038723413
158	0xbc743eb5	-0.014907529
159	0x3decb5cc	0.115581125
160	0x3e801524	0.2501613
161	0xbd43bb12	-0.047785826
162	0x3c25f52f	0.010129257
163	0x3cd7e6b2	0.026355121
164	0xbcb5f8a3	-0.022213286
165	0xbd1ae6a0	-0.037817597
166	0xbc58368b	-0.013196598
167	0xbd21598f	-0.03939205
168	0x3e04a2c9	0.12952723
169	0xbd1fd728	-0.03902355
170	0xbdd85f3b	-0.10565039
171	0xbc25c4e6	-0.010117745
172	0xbc2ac57b	-0.01042306
173	0x3d5ef478	0.054432362
174	0x3a8bb835	0.0010659756
175	0x3d9a7f2b	0.075437866
176	0x3b7156ae	0.0036825347
177	0x3c3425fc	0.010995384
178	0x3dc9ba00	0.0984993
179	0xbd79bdfb	-0.060972195
180	0x3da35a70	0.07976234
181	0x3e7fb952	0.24973038
182	0xbd455d4b	-0.048184674
183	0xbc3ec2db	-0.011643137
184	0x3cadd53e	0.021219846
185	0x3b0ab819	0.002116686
186	0x3e12c9d4	0.14334804
187	0x3e049eea	0.12951246
188	0x3d8cafa4	0.06869438
189	0x3da2037a	0.07910819
190	0x3a08730b	0.0005205131
191	0xbd9e20e6	-0.07721119
192	0x3d666481	0.05624819
193	0xbd53fb68	-0.05175343
194	0x3e1d65d6	0.15370879
195	0xbd54a15c	-0.051911697
196	0x3d6aaed5	0.05729564
197	0x3e079b92	0.13242939
198	0xbc2b466f	-0.010453804
199	0x3d52cdd2	0.051465817
200	0xbda109a4	-0.07863167
201	0x3dd681a1	0.104739435
202	0x3e5a078b	0.2129194
203	0x3d539051	0.051651303
204	0xbe1a66d3	-0.15078287
205	0x3dc8da7b	0.09807297
206	0xb8d6ba11	-0.00010238973
207	0xbe10cd3b	-0.14140789
208	0x3dfb2f2e	0.12264858
209	0x3b80033c	0.0039066356
210	0xbdb1cb87	-0.08681398
211	0xbd4fef89	-0.050765548
212	0x3e0192fc	0.12653726
213	0xbdfbeda5	-0.123011865
214	0x3d6ec706	0.058295272
215	0x3d710f63	0.058852565
216	0xbd5a8081	-0.053345207
217	0x3cc328de	0.023823198
218	0x3e36c042	0.17846778
219	0x3d454717	0.0481635
220	0xbc5f4afe	-0.013628719
221	0xbdcd4bc4	-0.10024217
222	0x3cee95ed	0.029124225
223	0xbd83758e	-0.06418906
224	0xbe1142d5	-0.1418565
225	0x3d4be105	0.049775142
226	0xbd76f7fd	-0.060295094
227	0xbe12a8da	-0.14322224
228	0x3e1f05a7	0.155295
229	0x3cf8943c	0.030344121
230	0xbd0afeb9	-0.03393433
231	0x3d4958be	0.049156897
232	0x3c349c52	0.011023598
233	0x3da608ac	0.08107123
234	0x3dbb7163	0.09152486
235	0xbb82a040	-0.0039863884
236	0xbdb304e4	-0.08741167
237	0xbd39e6d2	-0.045386143
238	0x3d1cc147	0.03827026
239	0xb973efcc	-0.00023263617
240	0x3dc46914	0.095903546
241	0x3c672702	0.014108421
242	0xbe1dbe73	-0.15404682
243	0xbd171976	-0.036889516
244	0x3dbb2249	0.09137399
245	0x3dda3810	0.10655224
246	0x3d8b1a10	0.067920804
247	0xbbc3601d	-0.0059623853
248	0xbe05b38b	-0.13056771
249	0x3d993cef	0.07482325
250	0x3d24fb85	0.04027893
251	0x3c86aa8b	0.016438743
252	0xbd864dab	-0.06557783
253	0xbd8ae316	-0.067815945
254	0x3dc46a5d	0.095906
255	0x3d2c7f4e	0.042113595

model.model.5.bias f4 [128]
0	0x3c293a84	0.010328893
1	0xbd1abe3a	-0.03777907
2	0xbd547968	-0.051873595
3	0x3cee55b7	0.029093606
4	0x3d251f2f	0.040312942
5	0xbbfcab7d	-0.0077108727
6	0xbc37775c	-0.011197891
7	0xbc46792d	-0.0121138515
8	0x3da99d00	0.082818985
9	0x3d5d6e36	0.054060183
10	0xbdc6545b	-0.09684058
11	0x3da95ad3	0.082692765
12	0x3ccbd89a	0.024883557
13	0x3d834abc	0.06410739
14	0x3d286ddd	0.0411204
15	0x3d14a92c	0.036294147
16	0xbd5a2753	-0.05326016
17	0x3d85b576	0.065287516
18	0xbca66fd8	-0.020317003
19	0xbc130f33	-0.008975792
20	0x3d4f1628	0.05055824
21	0xbd2a44f8	-0.04156968
22	0x3d97f74f	0.07420217
23	0xbcd60b02	-0.026128296
24	0x3d4a96a3	0.049460065
25	0xbdacb954	-0.08433786
26	0x3cbbc528	0.02292116
27	0x3d9a62fa	0.075384095
28	0xbc4320a3	-0.011909637
29	0x3dc5ea72	0.096638575
30	0xbd18914f	-0.037247952
31	0x3d7d4505	0.0618334
32	0x3d02557f	0.031819817
33	0x3d384484	0.044987217
34	0x3d833257	0.06406086
35	0x3dc8d8a8	0.09806949
36	0x3d36c888	0.044624835
37	0x3d840f62	0.064482465
38	0x3d12dc3c	0.035854563
39	0xbbcfb320	-0.006338492
40	0x3df45e9b	0.11932107
41	0xbbaa08a8	-0.00518902
42	0xbd8070f9	-0.06271548
43	0x3c87f625	0.016596863
44	0xbd2add9b	-0.041715246
45	0x3cd7cc0e	0.026342418
46	0x3c4f6ca7	0.012660182
47	0x3ce25014	0.027626075
48	0x3dcab566	0.0989788
49	0x3bd73fca	0.0065688835
50	0x3d3834a7	0.04497209
51	0x3cd201db	0.02563565
52	0xbd79e129	-0.061005745
53	0xbc6cc1a7	-0.014450467
54	0xbc9bd159	-0.019020723
55	0xbca472d8	-0.020074293
56	0x3cee1a72	0.029065344
57	0x3d881767	0.06645089
58	0xbd2860cf	-0.04110795
59	0x3de4c669	0.11170656
60	0x3bf47606	0.0074603586
61	0xbdaebb90	-0.085318685
62	0x3c8fefa4	0.017570324
63	0x3d946da6	0.07247476
64	0xbd6d35a3	-0.05791248
65	0x3dbca1b3	0.09210529
66	0x3d4006db	0.046881538
67	0xbcc63aca	-0.024197955
68	0xbd3356a2	-0.04378379
69	0xbd5bdbdb	-0.053676467
70	0xbd177604	-0.036977783
71	0x3d3f01c0	0.04663253
72	0x3de09cdb	0.10967418
73	0xbd515817	-0.0511094
74	0xbcb50ba4	-0.022100277
75	0x3d285063	0.041092288
76	0xbd40137a	-0.046893574
77	0x3cd0f627	0.025508
78	0x3ce6bf5e	0.028167423
79	0xbd0c7982	-0.034295566
80	0xbc8b74a5	-0.017023394
81	0x3cb2b727	0.02181585
82	0xbd620adc	-0.055186138
83	0xbc2143f4	-0.009842861
84	0x3d20ee9a	0.03929005
85	0x3d061be2	0.032741435
86	0x3d59dff1	0.053192083
87	0x3dd82513	0.10553946
88	0xbd5755e1	-0.052572135
89	0xbc0ed920	-0.008718759
90	0x3d8efb45	0.069815196
91	0x3cb56a2e	0.022145357
92	0x3c0b9335	0.008518984
93	0xbd36dd81	-0.044644836
94	0x3cef7aa9	0.029233294
95	0xbd269f71	-0.0406794
96	0x3da4c591	0.08045495
97	0xbd592b27	-0.05301967
98	0x3d93ecc9	0.072228976
99	0xbd186cfb	-0.037213307
100	0x3dce154b	0.10062655
101	0x3d9bce58	0.07607716
102	0x3d96596a	0.07341273
103	0xbd809d49	-0.0628
104	0x3db31458	0.08744115
105	0x3db6addd	0.089198805
106	0xbcfeefb6	-0.031120162
107	0x3d063ed8	0.032774776
108	0xbceb1c1d	-0.028699929
109	0x3ce2c000	0.027679443
110	0x3d2f69f1	0.042825643
111	0xbd69a91a	-0.057046033
112	0x3cddb1d8	0.027062342
113	0x3cab36c7	0.020900143
114	0xbb51c7c3	-0.0032009936
115	0x3ce2b2f7	0.027673228
116	0x3d81ab74	0.0633153
117	0xbdb32304	-0.08746913
118	0x3d76670f	0.060156878
119	0xbcd6b0c6	-0.026207339
120	0xbc1309d6	-0.008974513
121	0xbd4a7917	-0.049431887
122	0x3d299c24	0.041408673
123	0xbd08b6c2	-0.033377416
124	0x3ccf3756	0.02529494
125	0x3dace9f9	0.08443064
126	0x3d4cce18	0.050001234
127	0x3d0432e5	0.0322751

model.model.7.weight f4 [2, 128]
0	0xbd85edcf	-0.06539499
1	0xbd8ba838	-0.068191946
2	0xbda2d238	-0.07950252
3	0x3d932606	0.07184987
4	0xbdde8bc7	-0.10866504
5	0xbe058150	-0.1303761
6	0xbd56eef6	-0.052473985
7	0x3d3e836a	0.046512045
8	0xbd4709d0	-0.048593342
9	0xbd9c9bd4	-0.07646909
10	0xbc916817	-0.01774983
11	0x3dbfc733	0.09364166
12	0x3df95398	0.12174147
13	0x3c392f99	0.011302852
14	0xbe2a696a	-0.16641775
15	0xbdd39e69	-0.10332949
16	0xbd9837d3	-0.074325226
17	0x3d61a779	0.055091355
18	0x3d745670	0.059652746
19	0xbc318f04	-0.01083732
20	0xbdfb0804	-0.12257388
21	0x3e0d9da3	0.13829665
22	0x3dbc94d2	0.09208073
23	0xbe2ece48	-0.17070878
24	0xbe22de63	-0.15905146
25	0xbe02c404	-0.12770087
26	0x3cc0f426	0.023553919
27	0xbcb3c531	-0.021944614
28	0x3d9da37d	0.076971985
29	0x3e04b175	0.1295832
30	0xbe0adbe1	-0.1356044
31	0x3d816216	0.063175365
32	0x3e32cc23	0.17460684
33	0xbc10e98e	-0.008844746
34	0xbe1655c6	-0.14681157
35	0x3db5ad98	0.08871001
36	0x3d6128dc	0.054970607
37	0xbdaceb13	-0.08443274
38	0xbd664381	-0.05621672
39	0x3dc52ca2	0.09627654
40	0x3cfd1079	0.030891644
41	0x3dc5bae3	0.096547864
42	0xbe0c5545	-0.13704403
43	0xbe0ca8ed	-0.13736315
44	0x3d8fea28	0.07027084
45	0xbc942c09	-0.018087404
46	0xbd1ed7ac	-0.0387799
47	0x3e048c00	0.12944031
48	0x3dfa324a	0.12216623
49	0xbe2e2e3f	-0.17009829
50	0x3cd997d0	0.026561648
51	0x3c945a8d	0.018109584
52	0xbdc1b8c2	-0.09459068
53	0x3e14df04	0.14538199
54	0x3d6c8183	0.0577407
55	0xbe26d208	-0.16291058
56	0x3d942cb8	0.07235092
57	0xbe0c2bfe	-0.13688657
58	0xbd90b8df	-0.07066511
59	0x3e022e41	0.12712957
60	0xbd9f532a	-0.07779534
61	0xbd9d2519	-0.076730914
62	0xbdf260ad	-0.11834846
63	0x3dba310c	0.09091386
64	0xbdd461f5	-0.10370246
65	0x3dfbd7c7	0.12297016
66	0xbdaadc3a	-0.08342786
67	0xbdfd588a	-0.12370403
68	0x3e0b2e8a	0.13591972
69	0xbe2039e6	-0.15647087
70	0xbd5aeb03	-0.05344678
71	0xbd933892	-0.07188524
72	0x3dfa96d1	0.12235797
73	0x3d37d3d3	0.044879746
74	0x3d97933f	0.07401132
75	0xbe04a4c7	-0.12953483
76	0xbd919959	-0.07109327
77	0xbdb67e84	-0.0891085
78	0x3e0163b0	0.12635684
79	0xbe1c2ed3	-0.15252237
80	0x3d38328b	0.044970077
81	0x3cccd933	0.025005912
82	0x3d00ac2d	0.0314142
83	0x3dacb652	0.08433212
84	0x3d3af08e	0.045639567
85	0xbd97df5f	-0.074156515
86	0xbcac478b	-0.021030208
87	0x3d1bf85a	0.038078643
88	0x3d7a2f5f	0.061080333
89	0x3d97a7e6	0.07405071
90	0xbdbe8175	-0.09302036
91	0xbd93b999	-0.07213134
92	0xbe2df43d	-0.16987701
93	0xbc8f7326	-0.017510962
94	0xbd86bca0	-0.06578946
95	0x3e00283e	0.12515351
96	0xbd74f007	-0.05979922
97	0xbc26510a	-0.010151157
98	0xbe255c7d	-0.16148563
99	0xbd9e4849	-0.07728631
100	0x3d9a9ae5	0.07549075
101	0xbe15012f	-0.14551233
102	0x3e2e2f5e	0.17010257
103	0xbd00e2d3	-0.031466316
104	0x3e193e79	0.14965238
105	0xbd0bf43d	-0.03416847
106	0x3e1693da	0.14704838
107	0x3c464753	0.012101966
108	0xbdd1163a	-0.102093175
109	0xbe10528d	-0.1409399
110	0xbe1dbcbd	-0.15404029
111	0xbc944256	-0.018098038
112	0xbd9ef780	-0.07762051
113	0xbdf6a15b	-0.12042495
114	0xbdbe4c55	-0.09291903
115	0x3e1433bc	0.1447286
116	0xbe08d2c0	-0.13361645
117	0x3d6507c2	0.0559156
118	0x3e015ae2	0.12632325
119	0xbcd65a97	-0.026166243
120	0x3dc0fd6d	0.09423337
121	0x3d1e7965	0.03868999
122	0xbdd64bd1	-0.104636796
123	0xbde277f1	-0.11058033
124	0x3db02baa	0.08602078
125	0x3d333802	0.043754585
126	0x3e2047f8	0.15652454
127	0x3e1031f6	0.14081559
128	0x3d82b81f	0.063827746
129	0x3e1da392	0.15394428
130	0x3dbb9b7f	0.09160518
131	0xbd8ebf89	-0.06970126
132	0x3d74d75a	0.059775688
133	0x3d35bb87	0.044368293
134	0x3de516ce	0.1118599
135	0x3d18126d	0.037126947
136	0x3e13f489	0.14448752
137	0x3e0f6ee2	0.14007142
138	0x3d31693b	0.043313246
139	0xbd3e8393	-0.046512198
140	0xbd299bca	-0.041408338
141	0xbdf97ae3	-0.12181642
142	0x3d8512f8	0.064977586
143	0x3d86d567	0.06583672
144	0x3d990a36	0.07472651
145	0xbe09c474	-0.13453847
146	0xbe0749f0	-0.13211799
147	0xbe082169	-0.13293995
148	0x3debf260	0.11520839
149	0xbd26a2ed	-0.040682722
150	0xbd97f728	-0.07420188
151	0x3de96184	0.11395553
152	0x3d5ad337	0.053424086
153	0x3dbcab94	0.092124134
154	0x3d14b1ab	0.03630225
155	0xbdad9c9d	-0.08477137
156	0xbdc3146d	-0.0952538
157	0xbe050502	-0.12990192
158	0x3df3176d	0.118697025
159	0xbe09e824	-0.13467461
160	0xbd80fd39	-0.062982984
161	0x3df73ae7	0.120717816
162	0x3e197cb6	0.1498898
163	0xbdfa4697	-0.12220495
164	0xbdb7bfb6	-0.08972113
165	0x3d7f8042	0.062378176
166	0x3e0e49d3	0.13895349
167	0x3c60f718	0.013730787
168	0xbd9eb1bc	-0.07748744
169	0xbddb3101	-0.10702706
170	0x3e0e53db	0.13899176
171	0x3d26246a	0.04056207
172	0xbdf614a3	-0.12015655
173	0x3c839a5d	0.016064817
174	0x3d1fee9c	0.039045915
175	0xbcc37ed7	-0.023864193
176	0xbe05d806	-0.13070688
177	0x3bf208f3	0.0073863207
178	0xbdb35f74	-0.087584406
179	0x3d4f31b3	0.050584506
180	0x3da8a996	0.08235471
181	0xbb7d0e08	-0.00386131
182	0xbd1cea5b	-0.038309436
183	0x3da44412	0.08020796
184	0xbdf4c426	-0.11951475
185	0x3dcae5a4	0.09907082
186	0x3ddbba90	0.10728943
187	0xbe082427	-0.13295041
188	0x3deb86dc	0.11500332
189	0xbd8500e2	-0.06494309
190	0x3cbf9e1b	0.02339082
191	0xbdd817f3	-0.10551443
192	0x3e0db9d4	0.13840419
193	0xbc63980e	-0.013891233
194	0x3e0b954f	0.13631175
195	0x3d8b7d13	0.068109654
196	0xbe00569b	-0.12533037
197	0x3e1acf56	0.15118155
198	0x3dfc03db	0.12305423
199	0x3d7ec7d5	0.062202293
200	0xbda4473f	-0.080214016
201	0xbdf044db	-0.11731883
202	0xbdb5e855	-0.088822044
203	0x3dc0959b	0.09403535
204	0x3d986dff	0.07442855
205	0x3de60633	0.11231651
206	0xbd898a92	-0.06715883
207	0x3d8882f8	0.06665605
208	0xbdb0d22b	-0.08633836
209	0xbd66a442	-0.056308992
210	0x3cbb493d	0.022862071
211	0xbdf7bfa8	-0.120971024
212	0xbc98ffb8	-0.018676624
213	0x3dbb76bd	0.09153507
214	0xbe13c819	-0.144318
215	0xbdfc463a	-0.12318082
216	0xbd900754	-0.07032648
217	0xbe0eb3af	-0.13935731
218	0x3df7daa1	0.12102247
219	0xbcaa0da2	-0.020758454
220	0x3b0991e9	0.002099151
221	0xbd21fc67	-0.03954735
222	0x3da9da99	0.08293647
223	0xbdda2a6b	-0.10652622
224	0x3e208829	0.15676941
225	0xbdb04fb9	-0.08608956
226	0x3e0561ed	0.13025637
227	0x3e0b6d4c	0.13615912
228	0xbda4ddfe	-0.08050154
229	0x3db6756f	0.089091174
230	0xbd3fb4c6	-0.04680326
231	0x3e1b2b72	0.15153292
232	0xbde98986	-0.11403184
233	0x3e1a48c0	0.15066814
234	0xbcd8aae1	-0.026448669
235	0xbe0e40c2	-0.1389189
236	0x3d9e89e6	0.07741146
237	0x3bad3154	0.0052854214
238	0x3d838d8a	0.06423481
239	0x3dbdae2e	0.09261738
240	0xbd19cb96	-0.03754767
241	0x3d0263b0	0.03183335
242	0x3d637840	0.0555346
243	0xbc7ded06	-0.015498405
244	0x3e1e6b17	0.15470539
245	0x3d17b3d5	0.037036736
246	0xbd086932	-0.033303447
247	0x3e0cbb65	0.1374336
248	0xbdbc65fe	-0.09199141
249	0xbe096dab	-0.13420741
250	0x3e0362c8	0.12830651
251	0x3e018d32	0.12651518
252	0xbe0b4902	-0.13602069
253	0xbe0e5b8f	-0.13902114
254	0xbd4b5d43	-0.04964949
255	0xbcd82413	-0.026384389

model.model.7.bias f4 [2]
0	0x3ded82d5	0.1159722
1	0x3d5c4d6c	0.053784773

best_model_score f8 []
0	0x3fee7a44454af99e	0.9524251321197885

exp_avg f4 [18]
0	0x391ddefe	0.00015055758
1	0xba59a5ed	-0.0008302618
2	0x394af9df	0.00019357305
3	0xbc00c2c2	-0.007858934
4	0xbbec29fa	-0.0072071524
5	0x366d8ba5	3.5397036e-06
6	0x3ac4c2cc	0.0015011667
7	0xb9fb82bd	-0.00047971858
8	0x386f152f	5.700177e-05
9	0xb92e15db	-0.00016602075
10	0xb8d791c4	-0.0001027915
11	0xba2d01f8	-0.00065997196
12	0x3a04eb15	0.00050704303
13	0x3a2e46d7	0.0006648129
14	0x39bcbf14	0.0003600052
15	0xb9f5f670	-0.00046913652
16	0x39216482	0.00015391599
17	0x3a55096a	0.0008126708

exp_avg_sq f4 [18]
0	0x3738f4a7	1.1024217e-05
1	0x397b0ebc	0.00023942714
2	0x36d74034	6.4149735e-06
3	0x3b3b2e2d	0.0028561458
4	0x39d48ca4	0.00040540576
5	0x37127c0c	8.73116e-06
6	0x3937b577	0.00017519841
7	0x36873142	4.029048e-06
8	0x3778e39a	1.48349445e-05
9	0x36b06197	5.2565697e-06
10	0x369df17d	4.7070776e-06
11	0x38213625	3.8435817e-05
12	0x385922e7	5.1769337e-05
13	0x3782437f	1.5528638e-05
14	0x38b9a336	8.851888e-05
15	0x399a3dcf	0.0002941922
16	0x36b8d618	5.508551e-06
17	0x3a0c1ff3	0.0005345337

exp_avg f4 [18]
0	0xbb3d43d1	-0.0028879533
1	0x3b615899	0.0034385084
2	0xb986183a	-0.00025576522
3	0x3afca27c	0.0019274498
4	0x3b97263c	0.004612712
5	0x39a274de	0.0003098612
6	0xbb13967b	-0.0022520113
7	0xba6dbde8	-0.0009069131
8	0xb888b545	-6.5187494e-05
9	0x3a8fb6d3	0.001096452
10	0x390af4d1	0.00013251907
11	0x39b07380	0.0003365539
12	0xb8ffd846	-0.000121996316
13	0xb8fbec13	-0.00012012585
14	0xba2e3736	-0.00066458003
15	0xbab386d2	-0.0013696796
16	0xb96d6d35	-0.00022642764
17	0x3aa15a7d	0.0012310293

exp_avg_sq f4 [18]
0	0x371e9b3d	9.453678e-06
1	0x39dfeb07	0.00042708984
2	0x38bb4268	8.929224e-05
3	0x3bbac73d	0.0057000206
4	0x3b0dd427	0.0021641345
5	0x37c10152	2.3008008e-05
6	0x3a3cf8ef	0.0007208725
7	0x37d699aa	2.5582343e-05
8	0x38a23756	7.735069e-05
9	0x371f5fa8	9.49941e-06
10	0x38673071	5.5119806e-05
11	0x38eb4e50	0.0001122026
12	0x39005782	0.0001223963
13	0x387509bb	5.8421614e-05
14	0x38a31c3c	7.777705e-05
15	0x3a36f38b	0.000697904
16	0x377d6c50	1.5105194e-05
17	0x3a8945c1	0.0010473059

exp_avg f4 [128, 18]
0	0xb9881140	-0.00025952794
1	0xb99c89c0	-0.0002985727
2	0xb8b81c86	-8.7791166e-05
3	0xb9a580c0	-0.0003156718
4	0xb9c152c7	-0.00036873503
5	0x3889eb66	6.5765154e-05
6	0xb88fb91e	-6.853252e-05
7	0x39119fa8	0.00013887754
8	0xb9145995	-0.00014147752
9	0xb98fc031	-0.0002741828
10	0xb91f73b8	-0.0001520653
11	0x39bc8d37	0.00035963368
12	0xb8f1b38d	-0.000115252195
13	0xb98f07b9	-0.0002728084
14	0x39dd1505	0.00042168066
15	0xb99cb286	-0.0002988765
16	0x389c4fbc	7.453511e-05
17	0x39840399	0.00025179682
18	0xbad5a279	-0.0016299031
19	0xbb02c8a7	-0.0019956024
20	0x391d1793	0.00014981469
21	0xb9aa97d9	-0.00032538062
22	0xba15620d	-0.00056985096
23	0x395f4bd5	0.00021295187
24	0xb96d7973	-0.00022647325
25	0xb944ba34	-0.00018761383
26	0x393778cc	0.0001749724
27	0xb9de1a6b	-0.00042362823
28	0x38eccf5e	0.00011291982
29	0x39a5698d	0.00031549894
30	0x389dd30a	7.5256525e-05
31	0xba7cdcac	-0.000964592
32	0x3a8892f2	0.001041977
33	0x39d01a88	0.0003969262
34	0x390655d3	0.00012811208
35	0xb9f71edd	-0.00047134506
36	0xba91bff5	-0.001111983
37	0xba7ea209	-0.0009713476
38	0xb9d1017a	-0.00039864687
39	0xbaa8c983	-0.0012877438
40	0xb9050184	-0.00012684433
41	0x39435d8f	0.00018631502
42	0xb94cfd66	-0.00019549354
43	0xb963e2bd	-0.00021732874
44	0x395274d7	0.00020070687
45	0xba848b98	-0.0010112403
46	0x3a003daa	0.0004892001
47	0x3a31a80d	0.00067770557
48	0xba64eba5	-0.00087326235
49	0x39380db4	0.00017552712
50	0x3a35de49	0.0006937725
51	0x3981e3de	0.00024774572
52	0xba5b9175	-0.0008375862
53	0x3985777d	0.00025456763
54	0x3929719e	0.00016159422
55	0xb905dd1e	-0.00012766241
56	0x36bcf5e5	5.6314625e-06
57	0xb9af1349	-0.0003339297
58	0xb8bf0ed0	-9.110349e-05
59	0x39ee35b5	0.00045434912
60	0xb9f0ea57	-0.00045950964
61	0x38879b27	6.466201e-05
62	0xb883c585	-6.283358e-05
63	0xb9184d60	-0.00014524674
64	0xb7d1ad1f	-2.4995357e-05
65	0x392b10bb	0.00016314063
66	0xb8d3f89c	-0.00010107571
67	0xb91cd797	-0.00014957633
68	0x3986cd1b	0.00025711287
69	0xb9c71e52	-0.00037978828
70	0xb8475658	-4.752571e-05
71	0x39cabdf8	0.0003866998
72	0x3a72ed22	0.0009266903
73	0x39e7d5b4	0.00044218975
74	0x3a163e79	0.0005731355
75	0x39bf9550	0.00036541605
76	0xba5b9033	-0.00083756744
77	0x384c7a66	4.8751383e-05
78	0xb83fa320	-4.568987e-05
79	0x39aab784	0.00032561657
80	0xb9abbc16	-0.00032755797
81	0xb800bece	-3.069528e-05
82	0xba397888	-0.00070751505
83	0x39e14a07	0.000429705
84	0xb971dfca	-0.00023066919
85	0xb95edca1	-0.0002125376
86	0x39de0aa0	0.00042351056
87	0x39390c1e	0.00017647489
88	0xbacba03a	-0.0015535422
89	0x3a3e2557	0.0007253489
90	0x3a532f5c	0.00080560683
91	0x36d18b69	6.244915e-06
92	0x39097761	0.0001310981
93	0x39ffd212	0.00048793905
94	0x39c1406d	0.0003685983
95	0x39e1a433	0.00043037682
96	0xb9dde1ea	-0.00042320724
97	0xb96d87d1	-0.00022652677
98	0x396e0931	0.00022700873
99	0xb9884a25	-0.00025995183
100	0x396520ea	0.00021851403
101	0x3904ce7b	0.00012665421
102	0xb9f0b20d	-0.00045909025
103	0x39807230	0.0002449914
104	0x38961b4e	7.157643e-05
105	0xb8fada60	-0.000119616045
106	0xba11225a	-0.000553643
107	0x39e28a0a	0.00043208926
108	0x39f49a45	0.00046654246
109	0x3a7af491	0.00095731864
110	0xb9f5c212	-0.00046874635
111	0x39c71dd7	0.0003797847
112	0xb94c2775	-0.00019469655
113	0x37c43465	2.3389419e-05
114	0xb7a04e85	-1.911005e-05
115	0x3921439a	0.0001537934
116	0xb91be62f	-0.00014867702
117	0x398ff86f	0.00027460183
118	0x377e897c	1.517159e-05
119	0xb988cfab	-0.00026094666
120	0x385a2a0f	5.201442e-05
121	0xb9c70214	-0.00037957786
122	0x39913574	0.0002769638
123	0xb96c1070	-0.00022512837
124	0xb9893ef4	-0.0002617758
125	0x39c4f487	0.0003756622
126	0x3b28f2db	0.0025779519
127	0x3b0b2069	0.0021229035
128	0xb8961ecb	-7.158293e-05
129	0x3a01f59b	0.00049575575
130	0x381b8f3a	3.708827e-05
131	0xb9f3b762	-0.00046485203
132	0x39f7bc76	0.00047251926
133	0x39acc99e	0.00032956613
134	0xb9a39e56	-0.00031207752
135	0x3a51d7e9	0.00080048904
136	0xb94de8f6	-0.00019637108
137	0xba244874	-0.00062669
138	0x39b6a449	0.00034836147
139	0x393344b3	0.00017096363
140	0xba127b9f	-0.0005587879
141	0xb7ae8716	-2.080532e-05
142	0x38cb7acb	9.702666e-05
143	0xb68c565f	-4.18238e-06
144	0xba1e72be	-0.00060443196
145	0xba02431f	-0.0004969108
146	0x38ab9745	8.1820916e-05
147	0xba044790	-0.0005046064
148	0xb9c42991	-0.00037415003
149	0x39d69772	0.00040930096
150	0xb9d957e8	-0.0004145496
151	0xb94e6d50	-0.00019686413
152	0x39532d9c	0.00020139519
153	0xb9f51213	-0.00046743508
154	0xb63c2037	-2.8032935e-06
155	0x39f62c22	0.00046953658
156	0xb98a45e1	-0.00026373475
157	0x38a9ffb8	8.106179e-05
158	0x39191d99	0.00014602243
159	0xb9eaf238	-0.00044812425
160	0x39adaf2d	0.00033127647
161	0x396ee403	0.0002278239
162	0x39f4aad2	0.00046666578
163	0x3a815115	0.0009866083
164	0xb9639acc	-0.00021706073
165	0x397d912f	0.00024182045
166	0x399ab4f6	0.00029507995
167	0x391006bc	0.00013735419
168	0xb90e55d1	-0.00013574144
169	0xb867e7be	-5.529052e-05
170	0x3864e15e	5.4569326e-05
171	0xb8e04e5e	-0.000106957494
172	0xb88aa4c4	-6.611043e-05
173	0x391a6a70	0.00014726236
174	0xb8974039	-7.2122035e-05
175	0x3a233a7d	0.0006226672
176	0xba199a6d	-0.0005859498
177	0x3990c90a	0.00027615606
178	0xb944242a	-0.00018705489
179	0xb91ac1f2	-0.00014758835
180	0x3a786d60	0.00094767474
181	0x3b5f5dcb	0.0034083005
182	0xb9905f54	-0.00027536845
183	0x38828749	6.224082e-05
184	0xba3fc7d0	-0.0007315846
185	0xb990b373	-0.0002759952
186	0x39947443	0.00028315381
187	0x39aba673	0.00032739676
188	0xb99de4cf	-0.0003011585
189	0x39c3bb01	0.00037332627
190	0xb9b8a292	-0.0003521634
191	0xb8e4f1ee	-0.0001091695
192	0xb9fd6b18	-0.00048335711
193	0x3a61709a	0.0008599848
194	0xba0f98bd	-0.0005477777
195	0xb9bd682e	-0.0003612651
196	0xbad2bfc4	-0.0016078879
197	0x3ab1e68c	0.0013572737
198	0x388fef90	6.863393e-05
199	0xb92107e1	-0.00015357092
200	0xb90e9e27	-0.00013601092
201	0xb964fff2	-0.00021839121
202	0xb994d17b	-0.00028384835
203	0xb95949e0	-0.00020722253
204	0x395a76b7	0.00020834325
205	0x39811fcc	0.00024628488
206	0xb97ccfba	-0.00024109977
207	0xb8c1a9ef	-9.23461e-05
208	0xb8a26962	-7.744391e-05
209	0x3912262f	0.0001393787
210	0xb9fbd837	-0.00048035543
211	0x3a4a78ec	0.0007723707
212	0xb9c3c8dc	-0.0003734295
213	0xb882b711	-6.232982e-05
214	0xb92689a4	-0.00015882269
215	0x392d3916	0.00016519832
216	0x3ac0593c	0.0014675031
217	0x3b335f1c	0.0027369922
218	0x3a2a4829	0.0006495738
219	0x3ad5c827	0.001631026
220	0x3a9671c1	0.0011477993
221	0xb9803fed	-0.0002446169
222	0x398af4e8	0.0002650388
223	0xb93c91c0	-0.00017983373
224	0x3944f627	0.00018783715
225	0x3a2b0b21	0.00065247907
226	0x393e5c53	0.00018154205
227	0xba36d0ec	-0.0006973881
228	0x3992f19d	0.00028027306
229	0xba0542d9	-0.00050835084
230	0x38d0a389	9.948674e-05
231	0xb848cd2a	-4.787479e-05
232	0xb9256d69	-0.00015776385
233	0x38fa04a5	0.00011921794
234	0xb9b93c2f	-0.0003533079
235	0x39a85d6a	0.00032113056
236	0x392f689f	0.00016728275
237	0xba756b08	-0.0009361957
238	0x38c71217	9.492429e-05
239	0x3a906144	0.0011015316
240	0xba904ce5	-0.0011009244
241	0xb96a87d8	-0.00022366585
242	0x3966020a	0.00021935269
243	0xba4ff309	-0.00079326384
244	0xb89ad98e	-7.383815e-05
245	0x3a51154c	0.0007975891
246	0xba1a1529	-0.0005877787
247	0xb887da13	-6.477921e-05
248	0x3a18367c	0.00058064586
249	0xb926c405	-0.00015904017
250	0x394e3f6f	0.00019669322
251	0x37248e53	9.808299e-06
252	0x3947f213	0.00019068299
253	0xb8e6866b	-0.00010992292
254	0x38b23d22	8.499088e-05
255	0x36d4d8a2	6.3433117e-06
