Defense/Adversarial_Training/Adversarial_Training_interpolated.pt (torch, 21112 bytes, 8 tensors)

fc1.weight f4 [50, 42]
000000 89 e4 b0 bd 51 12 40 3d e1 42 81 3e c9 66 d6 bc
       -0.086373396 0.046892468 0.25246337 -0.026172059
000010 e5 09 25 be f3 74 50 bd 32 b5 03 bc 7e 02 a6 3c
       -0.16117056 -0.05089278 -0.008038806 0.02026486
000020 97 5f 33 3c 35 00 ae 3d 05 0e da be 2e 5f 1b be
       0.010948083 0.08496133 -0.4258882 -0.15173027
000030 7f 3b 13 3e fc 3c 19 bf 85 3a 88 bc 0e b8 67 be
       0.14378165 -0.5985868 -0.016629467 -0.22628805
000040 86 c4 5f 3c 4b c7 3c bd 2f 96 0d 3f 35 73 f1 bb
       0.013657695 -0.046088498 0.55307287 -0.00736847
000050 17 5f 51 bd 65 61 64 bd 0d ef b5 bd e5 34 91 bf
       -0.051116075 -0.055756945 -0.08883486 -1.1344267
000060 28 2b ae 3c 8f 1d 67 3c 10 58 62 bd 9f d6 01 3e
       0.021260813 0.014106168 -0.055259764 0.12679528
000070 e4 69 13 3e e5 3e de 3d b7 45 1b be 10 83 b6 3d
       0.14395863 0.1085184 -0.15163313 0.08911717
000080 26 2a b0 be 84 34 29 3d 57 0e e6 bc 5d ee 4b bc
       -0.34407157 0.04130985 -0.02808301 -0.012446967
000090 3e 2c d4 3c 30 d0 51 bb 31 bd 0f 3e 54 c2 3a 3e
       0.025900003 -0.0032014959 0.14037015 0.18238193
0000a0 57 05 76 3d b0 4a 66 3e 71 f8 22 be 21 32 71 bd
       0.060063686 0.22489429 -0.15915085 -0.058885697
0000b0 69 e0 74 bf 85 8b 34 3c 4a 54 0e be 72 6f e6 3c
       -0.9565492 0.011019592 -0.13899341 0.028129313
0000c0 b5 8f d6 bc a3 6a 94 3d 7c 6f a5 bc 24 ed 45 be
       -0.026191572 0.07246902 -0.020194761 -0.19328743
0000d0 ad 67 05 3e 51 1e dd bc 54 45 18 3d ca c0 ca 3e
       0.1302783 -0.026991995 0.03717549 0.3960021
0000e0 c8 da cc bd fb e9 10 be 21 19 a9 be 26 85 27 3d
       -0.10002667 -0.14151756 -0.33026984 0.040898465
0000f0 7c 7d f2 be c4 7d 02 3d 12 fe 04 3e e8 0d 79 3d
       -0.47361362 0.03185822 0.12987545 0.060804278
000100 6c e3 e7 3d 05 30 46 3f 0b 6e 84 bd 68 fa 4d bd
       0.11322674 0.7741702 -0.064663015 -0.050287634
000110 58 4e dd 3d 2f a0 29 be 2d 41 6d bd 71 cc af bd
       0.108059585 -0.16565011 -0.057923485 -0.08583916
000120 fc 39 96 be 26 e8 2a 3e 73 c8 51 3d 66 64 1f be
       -0.29341114 0.1669012 0.051216554 -0.15565643
000130 8d 69 2d 3d 6e f5 45 bd 12 d4 5a 3d 19 8b 5a bd
       0.04233699 -0.048329763 0.053424902 -0.05335531
000140 11 fc 67 be 90 1e a4 bd 3d 98 15 3d d4 3f 4d be
       -0.2265475 -0.08013642 0.03652214 -0.2004388
000150 0e 02 93 3d 89 2a 62 3e 3f 28 bb 3e 00 5b 0f be
       0.07178126 0.22086538 0.36554143 -0.13999557
000160 32 b0 25 3d 0d 53 95 3d db 55 74 3d 18 d6 54 bd
       0.040451236 0.07291231 0.05965219 -0.05196199
000170 25 fa ac bd 19 87 d1 bd d5 82 86 be da d2 15 be
       -0.08446149 -0.10230846 -0.26271692 -0.14631215
000180 96 ec 87 3d 79 af 80 be f9 49 9e bc 18 41 d5 39
       0.06636922 -0.25133875 -0.019322382 0.00040675025
000190 fb 76 16 3e ed 44 6a bd 22 1e a8 3e 5e cb 9b 3d
       0.14693825 -0.05719464 0.3283549 0.076071486
0001a0 13 fa 03 be 88 5e 03 3d 73 cd a2 3d 4a 40 11 bf
       -0.12888364 0.032072574 0.079493426 -0.5673872
0001b0 e1 71 30 3d 33 71 a6 3c f3 5c 90 3d 01 b3 1f bd
       0.043077353 0.02031765 0.07048979 -0.03898907
0001c0 0a 03 04 3e 30 cf 75 3d e8 6b fa 3d 27 5c db be
       0.12891784 0.060012043 0.12227613 -0.42843744
0001d0 2b 7d b6 bd 98 14 21 3e 94 c1 58 3e 27 1b 20 3b
       -0.08910593 0.15730512 0.21167594 0.0024430247
0001e0 a7 0c 79 bd 99 1e 89 bd 56 8a 81 3d 4a b1 5f be
       -0.06080308 -0.06695289 0.063252136 -0.21844974
0001f0 74 5c 8d bd 45 91 c4 3e 16 0c 80 3d e8 5a 17 3d
       -0.069024 0.38392082 0.06252305 0.03695193
000200 d3 d3 09 3d f2 ac 2e bc 56 26 a5 3d 72 f4 2c 3d
       0.033649277 -0.010661351 0.080639526 0.04222531
000210 38 81 0c 3f 82 c7 d4 bc 0b 88 74 3e 0a 8e 46 3c
       0.5488467 -0.025974039 0.23880021 0.012118826
000220 35 1d 7b 3e cf a8 69 3d 1c 82 b4 bd b8 aa 35 3e
       0.2452286 0.057045754 -0.08813879 0.17740905
000230 d8 24 cc 3d 55 4a 4c bf 98 a6 2b 3e ce 7e 54 3d
       0.09967965 -0.7980092 0.16762769 0.051878743
000240 e3 05 3b be d2 12 be 3b 40 e5 83 3e a9 0f 92 3e
       -0.18263964 0.0058005834 0.2576084 0.28527573
000250 49 03 c7 3e 2b c3 e2 be 3d 8f 2c bd 8b fb 1c bb
       0.38869694 -0.44289526 -0.04212879 -0.0023953642
000260 f4 b2 2e be 42 43 51 3e ac 11 9c 3e 75 c5 97 3e
       -0.17060453 0.20435813 0.30482233 0.29642835
000270 a5 ae 8c 3e 3f 57 5c 3e d7 e8 e8 3e 37 a9 0d bf
       0.27476993 0.21517657 0.45490143 -0.55336326
000280 14 04 d2 3e bc c9 66 3e c0 8d 3b 3b 9a 14 a3 3d
       0.41018736 0.22537893 0.0028618425 0.07962914
000290 89 b1 c5 3e 46 6a 44 3e a9 74 8d bc cd c5 ea bc
       0.3861201 0.19181165 -0.017267542 -0.028658772
0002a0 e0 ed da 3d 2d 4b ee bd 24 c5 0b be 7f 02 a0 bd
       0.10689902 -0.116354324 -0.13649422 -0.07812976
0002b0 17 29 c8 3d bb 5a 4a 3d 33 8a 72 3e e8 dc 01 bd
       0.09773462 0.049402934 0.23685531 -0.031704813
0002c0 6e 57 81 3f a8 82 70 3c 22 d8 91 3c 1d 5d 04 3e
       1.0104806 0.014679588 0.017803255 0.12926145
0002d0 be 42 25 3b 9d c6 fe bd cd d8 00 3e 6d a4 07 3e
       0.0025216783 -0.12440226 0.12582703 0.13246317
0002e0 e8 e3 c5 3d 8c 9f b1 bd 67 d3 5d bd 90 37 1d bd
       0.0966261 -0.08673009 -0.054156687 -0.038383067
0002f0 df 43 ae bd 29 70 0b be 8b e2 d6 bd 8e bc 52 bd
       -0.08509039 -0.13617004 -0.104924284 -0.05144935
000300 3b 52 d0 bd 0d 78 c6 bd 7b 50 a6 bd ef 9c 81 be
       -0.10171934 -0.096908666 -0.08120819 -0.25315043
000310 cf 49 86 be 0c 18 86 be 3b e0 d8 3c e8 4b 09 be
       -0.26228186 -0.2619022 0.026474109 -0.13407862
000320 89 fe 76 bd 2a a0 9b 3e 2c b0 d5 3d 36 c6 70 3f
       -0.060301337 0.30395633 0.10433993 0.94052446
000330 8c ad c0 bd ba 8f 35 be 56 b8 01 3e 6c a5 18 be
       -0.094081014 -0.17730609 0.12667975 -0.14906853
000340 ad bf fd bd 8c bc 35 be 4a f8 34 bd 33 c2 98 3c
       -0.12390075 -0.17747706 -0.0441821 0.018647289
000350 1a 9d bd be c3 70 0f be 9e f7 6f bd 3a 3f d3 bd
       -0.3703392 -0.14007859 -0.058585756 -0.10314794
000360 2a c1 48 be f4 bc 90 bd b5 7d c6 3d 2a 18 15 3d
       -0.19604936 -0.0706729 0.096919455 0.036399998
000370 33 8d be be ea 1f be 3d 13 e2 14 bc 28 18 9e be
       -0.372171 0.09283431 -0.009087103 -0.30877805
000380 1b 0a 55 be f5 8f 0d be 61 75 fc 3c ed db 45 3c
       -0.20804636 -0.13824446 0.03081769 0.01207636
000390 0b d0 09 bb ec 19 99 bb 7d 9d c8 bd 9a 20 77 3d
       -0.0021028544 -0.0046722796 -0.097956635 0.060333826
0003a0 54 af 6c be 10 54 89 be a0 35 bd 3d 49 92 b3 bd
       -0.23113757 -0.26821947 0.09238744 -0.08768136
0003b0 6f 77 4a 3d e4 27 6e be f3 93 2a be 26 5e 3c be
       0.049430307 -0.23257405 -0.16658 -0.1839529
0003c0 ce 81 03 3a 05 9d 5d 3e 0f 8a 6b bd 25 74 dd 3c
       0.0005016596 0.2164193 -0.05750471 0.027032921
0003d0 d0 8c 35 3d d6 d3 4c be 82 86 2f bd 80 d0 66 be
       0.044323742 -0.20002684 -0.042852886 -0.22540474
0003e0 98 c2 b1 3d e5 25 20 3e 1c 2d 92 3b e8 56 f8 bd
       0.08679694 0.15639456 0.004460944 -0.12125951
0003f0 b3 87 1c 3e 15 e6 16 3e c1 3a 93 bf a8 8c 80 bc
       0.1528614 0.14736207 -1.1502305 -0.01569207

fc1.bias f4 [50]
000000 42 2c 7f bc a0 6e b0 3e 06 86 a0 3d b6 90 80 3c
       -0.015574517 0.344594 0.07838063 0.015694004
000010 59 0b b2 3d 63 fc 22 3e a8 64 a4 3d 6a ef 86 bc
       0.08693571 0.1591659 0.08027011 -0.016471583
000020 d6 27 80 3e f3 c1 6a 3e 78 5f 13 bc fc 64 de bd
       0.25030392 0.22925548 -0.0089949295 -0.10859105
000030 dc 69 31 3d dc ac 91 be 3e 1a 11 3c d0 6e 87 3c
       0.043313846 -0.28452194 0.008856354 0.016532332
000040 90 8e 23 3d 8d b5 bb 3d ce 97 24 3b 83 93 d3 3c
       0.03993088 0.091654874 0.0025114897 0.025827175
000050 d1 f5 14 3e fb f0 af 3b d2 bf c0 3d 58 69 d3 bd
       0.14546897 0.0053693033 0.09411587 -0.10322827
000060 a4 a0 31 3e 96 b0 ae bd a7 cc 81 3e ee df fb 3d
       0.17346436 -0.08529775 0.2535145 0.122985706
000070 1f 8d 45 3e 01 ac df 3d 3d 5d e7 3d db 70 e4 bb
       0.19292115 0.10921479 0.11297081 -0.006971461
000080 a2 72 21 3c ce 23 df 3d 81 fb 1f 3e 54 66 58 3e
       0.009853991 0.10895501 0.15623285 0.21132785
000090 c5 ac c1 3c 05 2d 44 be 09 46 4d 3e c3 14 0a 3e
       0.023641953 -0.19157799 0.20046248 0.13484482
0000a0 97 01 1b 3b 41 01 45 3e 39 26 37 bd 7d d1 41 3e
       0.002365207 0.1923876 -0.044714186 0.1892757
0000b0 7b e5 25 3e 03 64 0e 3d ad cd 32 3e e4 e9 04 bd
       0.16200821 0.034763347 0.17461272 -0.032449618
0000c0 a9 dc 86 ba 12 e3 e8 3d
       -0.001028915 0.11371435

fc2.weight f4 [30, 50]
000000 91 d6 d9 bd 77 21 42 bd 8c 85 45 bd 5a b5 f4 bd
       -0.106366284 -0.047395196 -0.048223063 -0.119486526
000010 24 66 f9 3d 78 ef 0d be e3 d1 57 3c bd 96 b9 bd
       0.12177685 -0.13860881 0.0131725995 -0.09061954
000020 7a 1f ca 3c 49 fa 90 bd f6 11 21 be 2d ab ca bd
       0.024673212 -0.07078988 -0.15729508 -0.098959304
000030 1e ad 8d 3d 86 58 d3 bd 00 48 ae bd 5c 75 bc bc
       0.06917785 -0.10319619 -0.08509827 -0.02300518
000040 13 b8 b1 bc 65 42 12 be 45 96 a5 3d 88 a6 e1 3d
       -0.021694219 -0.1428314 0.08085302 0.110180914
000050 91 0b 9c bd df 69 79 3d 6c 4a 39 bd b8 ea 79 3c
       -0.076193936 0.060891982 -0.04523699 0.015253715
000060 ff 24 93 bc f5 60 17 be 08 6f 87 bd 9b 2c bc 3b
       -0.017961977 -0.1478308 -0.066129744 0.005742622
000070 28 e8 94 3d 69 82 9e bd be 38 18 be b9 af f1 3d
       0.07270843 -0.077397175 -0.14865395 0.118010946
000080 6f 74 17 bd e9 cd ef bd 75 b3 bf bc 9b 9b 20 be
       -0.036976274 -0.11709196 -0.023401001 -0.15684359
000090 14 70 16 3d ef 1c 74 3d f6 4d a7 3d ce 1d f2 3b
       0.03672798 0.059597906 0.08169167 0.007388807
0000a0 e0 9e 19 3c 9e 54 00 be e9 55 d5 bc 10 44 33 bd
       0.009376258 -0.12532279 -0.026041942 -0.04376608
0000b0 b9 db ae 3d 1c 78 16 be 28 64 a1 bd 63 1e 1a be
       0.085380025 -0.14694256 -0.078804314 -0.15050654
0000c0 89 a8 7f bc de d1 e4 bd 68 c3 74 be 62 35 a3 3e
       -0.015604147 -0.111728415 -0.23902667 0.31876665
0000d0 c1 d6 03 be 46 74 42 bf da 8a 93 3e 0e f5 25 3e
       -0.12874891 -0.7595867 0.28816873 0.16206762
0000e0 6f 88 b5 3d 06 be df 3c 04 37 8b 3f 93 a0 b6 3d
       0.08863913 0.02731229 1.0876164 0.08917346
0000f0 a0 26 85 bc da 3c 60 3f d7 3a 00 3f 91 0b 9e bc
       -0.01625377 0.8759285 0.5008978 -0.019292625
000100 e0 6e 7d 3f 8d d4 96 3e 13 69 3e bc 65 a4 bd 39
       0.98997307 0.29459038 -0.011621731 0.00036171373
000110 5e 26 9a be c9 85 9a 3e 9b 91 71 3f 57 f6 92 bd
       -0.30107397 0.30180195 0.943628 -0.07175892
000120 5e 4c 73 3f ee 0b 7d bd b9 6e 57 bd d8 7d c3 bd
       0.950384 -0.061778955 -0.052595828 -0.09545487
000130 69 cd 83 bd ca ab 3f 3e e4 04 6e 3e 65 de f4 3d
       -0.06435663 0.18717876 0.23244053 0.11956481
000140 05 6f 93 3f 4f bc 1a 3e 34 78 de 3c 8e 52 4f be
       1.1518255 0.15110897 0.027156927 -0.20246336
000150 73 f8 80 3e aa 2d 94 3e 89 30 5f 3c de f6 cb bc
       0.25189552 0.2894109 0.0136224115 -0.024897989
000160 55 fb 1c 3c 86 78 28 3e d3 74 54 3f 0b 65 1c 3e
       0.009581407 0.16452226 0.8299076 0.1527292
000170 3d b7 9a be 5f 53 0b 3e ca ca 38 be a5 68 2e be
       -0.30217925 0.13606022 -0.18046108 -0.17032106
000180 7b df 8b be 90 63 27 3f 93 c0 29 3d 96 2c b4 3c
       -0.2731894 0.65386295 0.04144342 0.021993916
000190 fa 30 6c 3c 99 e7 0b be 7a 58 95 3d cc ba f0 bd
       0.014415974 -0.13662566 0.07292266 -0.11754379
0001a0 3b dd 9e 3d 0c 53 94 bd 2d 25 54 bc a5 91 cd 3d
       0.0775704 -0.072424024 -0.0129483165 0.10037545
0001b0 b6 f7 91 3d 71 f7 00 be d8 9e 30 3c 8f 2d 82 bc
       0.07127325 -0.12594391 0.010780059 -0.015890865
0001c0 67 b4 ec 3d 15 e3 17 3d e5 d9 2b 3d d6 d6 10 bd
       0.115578465 0.037081797 0.041955847 -0.035361134
0001d0 c4 fa 0c be b6 9e 08 be fd c3 05 be fe 85 0e 3e
       -0.13767534 -0.13341793 -0.13063045 0.13918301
0001e0 11 69 e3 3d cd 1b f1 bd e2 a9 74 bd 2a 76 53 bd
       0.11104024 -0.11772881 -0.059732325 -0.051626362
0001f0 07 b0 7b bc fa ce c0 bd 51 c7 79 3d 58 6a 99 bc
       -0.015361792 -0.09414478 0.0609811 -0.018727466
000200 a2 47 88 bc 01 c6 9e bd a8 90 03 be 3d 50 87 3d
       -0.01663572 -0.0775261 -0.1284815 0.06607101
000210 a5 0a f0 bc 0f e5 4f 3c a4 2a f1 3b 87 b8 df 3d
       -0.02930195 0.012688889 0.0073598195 0.10923868
000220 13 55 d2 3d 3a 94 0f be 67 92 21 bd 1c e7 63 3d
       0.10270133 -0.14021388 -0.03944626 0.055640325
000230 ca c0 af 3d c1 79 c4 bc eb ae 08 be e9 84 e3 bd
       0.085816935 -0.023983838 -0.13347976 -0.11109335
000240 c9 8e 02 3e 68 28 ce bc 49 6a f4 bd 2f 4f e7 3d
       0.1274978 -0.025165752 -0.11934335 0.112944
000250 d5 61 c0 3c 5c a3 d2 bc 47 2c 54 3d 89 37 73 3e
       0.02348415 -0.025712661 0.05180004 0.23751654
000260 5a d0 8e be 8b cf 08 3e d6 ea cc 3e f7 26 44 3e
       -0.27893335 0.13360421 0.40022916 0.19155489
000270 d6 4f b7 bd 1e 25 06 3f b2 c0 6c bd d0 02 7f 3d
       -0.08950774 0.52400386 -0.057800956 0.06225854
000280 73 37 aa 3c f3 18 82 3f 8f 63 0f 3d a6 bf 27 be
       0.020778393 1.0163864 0.035007056 -0.16381702
000290 e5 10 64 3f d1 11 aa 3e d6 b5 39 be 1f 9d a1 bc
       0.8908828 0.33216718 -0.18135771 -0.019728241
0002a0 ae cc ea bd f6 00 0e be 16 05 b9 3e 83 a0 a4 bd
       -0.11464821 -0.13867554 0.36136693 -0.08038428
0002b0 97 a2 27 3d ac e0 54 be 1f 46 c7 3d 02 21 77 3e
       0.040926542 -0.2078883 0.097301714 0.24133685
0002c0 de 69 b8 be ba 30 44 3e 74 05 79 3e 86 d3 94 3e
       -0.3601827 0.19159213 0.24318486 0.2906763
0002d0 d3 ce 2a 3d 9a 3a 8d 3e cb c5 14 bd 6d 60 b1 3e
       0.04170115 0.27583772 -0.036321443 0.3464388
0002e0 27 e7 71 3e 5a 24 12 be 53 d1 12 3e fe 9d 2b be
       0.23623334 -0.1427168 0.14337663 -0.16759488
0002f0 be db 11 3e dc 15 97 be a2 08 ff 3d 2b 68 81 3e
       0.14243981 -0.29508865 0.124528185 0.25274786
000300 b1 0b a4 be a8 a8 48 3e bc d7 21 bb cd f5 da 3d
       -0.3204017 0.19595587 -0.0024695238 0.10691414
000310 3c be 53 3e 54 3a 84 bd 0e 1c 87 3d a3 39 78 3e
       0.20678037 -0.06456438 0.06597148 0.24240737
000320 19 c8 02 be 2d 65 0a be 72 5a 3a bc 9a d6 9e ba
       -0.12771644 -0.13515158 -0.011374103 -0.00121184
000330 ce af 0e be 70 e1 bf 3c c0 19 01 be 94 29 cf 3b
       -0.13934252 0.023422927 -0.12607479 0.006322095
000340 8c f2 2b bd d7 3f 19 3c ce 4c 5e 3b 17 40 4e bc
       -0.041979358 0.0093535995 0.003392029 -0.012588522
000350 43 0c 8c bc 87 b5 7f bd 63 fc 09 bd 4f ce aa 3d
       -0.01709569 -0.062428977 -0.03368796 0.083401315
000360 40 d1 a5 bd a9 8b 59 3c 58 a8 9a bd fb 4d b4 3d
       -0.08096552 0.0132779265 -0.0755164 0.08803936
000370 81 a7 0a be c1 7f 9b 3d 7c c8 0e 3e 5f f1 84 3c
       -0.1354046 0.075927265 0.13943666 0.016228376
000380 9a da ac 3b d0 be c3 bd 83 0b e9 bd 69 a0 f3 3d
       0.005275083 -0.09557879 -0.11379149 0.1189583
000390 6a f4 b7 bd 21 b8 8d 3c 73 ae c8 bd e4 49 10 be
       -0.08982165 0.017299714 -0.097988985 -0.14090687
0003a0 18 1d c6 bb 96 f6 5a bd ea 07 d3 3d 8d d8 fc bd
       -0.0060459487 -0.05345782 0.10304244 -0.12345991
0003b0 3f 5a 04 be dc 49 c1 3d 67 b4 cd 3d d6 e6 0d bd
       -0.12925051 0.09437916 0.10044175 -0.03464397
0003c0 f5 5a 49 bc 30 5c c4 bc 7f 6a c8 bd d3 a4 a6 bd
       -0.012289752 -0.02396974 -0.097859375 -0.081369065
0003d0 5d 55 0e 3e 26 b1 56 bb 61 4c 5e 3d 74 10 92 bd
       0.13899751 -0.0032759397 0.05427206 -0.071320444
0003e0 8a 85 58 3d 41 b8 a1 bb 2a 99 8b 3e 5e aa 60 bf
       0.052861728 -0.004935295 0.27265292 -0.8775996
0003f0 73 ea b3 3e 2f a8 e7 be 39 ec 1a be 86 c7 b6 3d
       0.35139808 -0.452455 -0.15129174 0.08924775

fc2.bias f4 [30]
000000 85 cc 93 bd a4 db b3 3d 77 11 8f bd 62 9e fb 3d
       -0.072167434 0.087821275 -0.06985753 0.122860685
000010 4c 46 cb bd 4b f2 c0 3e c2 91 a0 bd 05 ec b1 3c
       -0.099255174 0.37684855 -0.07840301 0.021718988
000020 4f 5e 31 3e 1d 9e 68 3e c3 5e 6b 3e 6c 3f 28 3e
       0.17321132 0.22716565 0.22985367 0.16430444
000030 41 fc 0a bd fc 7f a4 3d 80 93 40 3d 01 69 5a 3c
       -0.033931974 0.080322236 0.047015667 0.013330699
000040 b9 b9 8c 3e 31 ab 80 be 16 e1 1d 3e 9a 55 bb bd
       0.27485445 -0.2513061 0.15417895 -0.091471866
000050 c3 25 17 3e 5d 49 36 3e 0e 7b eb 3d de b4 5c 3b
       0.14760499 0.17801423 0.1149808 0.0033677141
000060 8d 13 67 3e 31 c0 34 3e a1 1e 32 be 79 62 ad bd
       0.22566052 0.1765144 -0.17394497 -0.08466048
000070 e7 ff 13 be 5c a1 d6 bd
       -0.14453088 -0.104799956

fc3.weight f4 [20, 30]
000000 2f 93 e4 3d e4 d7 1d be a6 87 a5 bb 0c 59 86 3d
       0.111608855 -0.15414387 -0.005051571 0.06559953
000010 14 84 82 bc 5d 2c 1b 3f 04 ff 12 be d1 54 ae bc
       -0.01593212 0.6061457 -0.14355093 -0.021280678
000020 1d 0b 5e be 02 c4 4e be a6 53 0f be 04 d8 26 3c
       -0.21683927 -0.20191959 -0.13996753 0.010183338
000030 95 b9 33 3e 7d 50 23 be 01 1e c5 bd 16 44 5b 3d
       0.17551263 -0.15948673 -0.096248634 0.05353173
000040 d8 c2 c6 3e e7 da 0f 3f 07 8f 7b be 6d 41 31 3e
       0.3882053 0.56193393 -0.2456628 0.17310114
000050 dd e3 a4 be 5f 0b 99 3d fd 83 9e bd ae 58 01 3e
       -0.32205096 0.07472872 -0.077400185 0.12631485
000060 83 23 91 be ca 1b 95 be 95 20 c5 3d 42 e2 b5 bc
       -0.28347406 -0.29122764 0.09625355 -0.022202615
000070 1e b5 38 bd 9a 83 7c bd 75 2c 22 3c 8c 27 b5 be
       -0.0450946 -0.061648943 0.009898295 -0.35381734
000080 bf 7d 0e 3e a3 fe c5 3d 65 12 3b bc de 09 ed 3e
       0.13915156 0.09667709 -0.01141796 0.4629659
000090 7c 58 9d be 01 e6 67 bd 45 72 80 be 5f bb 9b be
       -0.3073157 -0.056615833 -0.2508718 -0.3041639
0000a0 70 c2 13 3d 1a 18 b6 3e da 92 cb bc bc 0b a9 bd
       0.036074102 0.35565263 -0.024850298 -0.08254191
0000b0 31 33 2e be 1d 40 7d 3d d6 f9 4a 3e 82 f3 1b 3e
       -0.17011715 0.06182872 0.19821867 0.1522961
0000c0 90 e2 3a bd 4e 25 ba 3e 23 a1 9f 3c a9 cf bc 3d
       -0.045626223 0.36356586 0.019486016 0.092192955
0000d0 58 00 63 3e d8 bc 9d 3e f8 9e 4f be 46 95 19 be
       0.221681 0.3080814 -0.20275486 -0.1499835
0000e0 5a b2 06 be f7 9f 18 be 3f 9c 3d 3d 3c 94 1a 3c
       -0.13153973 -0.14904772 0.046291586 0.009434756
0000f0 be b5 fb bd ec e0 8d 3e 13 28 25 bd 09 e8 e1 be
       -0.12290524 0.27710664 -0.04032142 -0.4412234
000100 70 87 4d bd d2 b6 86 be 07 f0 44 3e 5d 14 b2 3d
       -0.05017799 -0.26311356 0.19232188 0.0869529
000110 c0 ea 15 3f 58 e7 0a 3f 05 06 1d 3f 7b 07 17 3e
       0.58561325 0.5425925 0.6133731 0.14748947
000120 d9 8b 67 3e 05 84 da be f6 ac b1 be 94 31 7a bf
       0.22611941 -0.42678848 -0.3470227 -0.977319
000130 51 03 c3 bc 3d 68 16 be ad f6 d3 be 86 c7 08 ba
       -0.023805292 -0.14688201 -0.41399136 -0.00052177196
000140 db b4 d4 bd 83 9e b9 be 7c 2c e2 be e3 48 83 be
       -0.10386058 -0.36253747 -0.44174564 -0.25641546
000150 63 5f 01 3f 91 27 64 bf 78 7c 05 bd 4f ff 8a 3d
       0.50536174 -0.89122874 -0.032589406 0.067869775
000160 48 6a 92 3d 7f 49 8e be 04 03 09 be fc 67 06 bf
       0.07149178 -0.27790448 -0.13380057 -0.5250242
000170 f5 25 c3 bd 28 4f d8 3d 66 b2 12 be 26 3f e3 3e
       -0.09528724 0.10561973 -0.14325866 0.44384116
000180 e8 87 3d be 54 9a d2 bd a8 e5 d9 3e a6 f1 e2 3e
       -0.18508875 -0.10283342 0.42558026 0.44324988
000190 ae ef 38 3e 5f 45 41 3e cf fe f0 3d 8a d7 10 bf
       0.1806018 0.18874119 0.11767351 -0.56578887
0001a0 41 81 53 bf 50 ab 0c bf a8 9f 9e 3e 36 a8 80 bd
       -0.826191 -0.549489 0.30981183 -0.06282084
0001b0 a9 bb be 3e fe 36 2a 3d 93 a9 c5 bd c2 c8 30 be
       0.37252548 0.04155635 -0.09651484 -0.17264083
0001c0 3e 53 19 be 44 c2 c2 3d e6 d2 30 3e bf 2a ba be
       -0.1497316 0.095097095 0.17267951 -0.36360738
0001d0 2c d3 cb 3d eb 73 04 3e 9a 28 ec 3d a0 cb 9d bd
       0.09952387 0.12934844 0.11531182 -0.07704854
0001e0 65 2c 6e bc 47 c4 ab 3d 09 b1 e6 bc 0c b4 d7 3d
       -0.014536952 0.08387046 -0.028160589 0.10532388
0001f0 43 99 cd bc 7f a5 04 be f5 7d 58 3f ff f3 48 bd
       -0.025097495 -0.12953757 0.84567195 -0.049060818
000200 73 7e 52 bd 80 01 a0 3a 6b 74 a7 3e 5f 50 0a bf
       -0.051390123 0.0012207478 0.32706007 -0.54028887
000210 ac 45 0b bf b5 11 4f 3e d3 a7 b4 3d 45 88 42 3e
       -0.54403186 0.20221598 0.088210724 0.18997295
000220 7f 11 3b be 73 63 48 3f 7b 82 8c 3e ce 60 cf be
       -0.18268393 0.7827675 0.274433 -0.40503544
000230 d2 38 64 3e e3 84 16 3e 4d de 6b 3e 9a 43 cc be
       0.222873 0.1469913 0.2303402 -0.39895326
000240 83 e3 3f 3e 9f ef 8f 3e 2a 37 dd 3d aa 02 25 bd
       0.18739133 0.28112504 0.10801537 -0.040285744
000250 1d 66 d1 bd 3a cc ac 3d 0b 52 2a 3e be c3 46 be
       -0.10224555 0.084373906 0.1663286 -0.19410607
000260 69 f6 df bd 79 d0 43 bd ba 08 61 bd 32 37 39 3f
       -0.10935671 -0.047806237 -0.054939963 0.72349846
000270 2c bf 3b bf 37 77 a7 3d 5e 0e e8 bd 18 6e 09 be
       -0.7333858 0.08177035 -0.11330865 -0.13420904
000280 f6 16 33 be 26 d9 66 3e 07 f6 11 3e a7 67 ad bd
       -0.17489228 0.22543773 0.14254008 -0.08467036
000290 25 aa cf 3c 5d 3f 11 be 7c d8 87 bd 2f 74 5f 3f
       0.025349686 -0.14184327 -0.06633088 0.8728666
0002a0 93 6b 1f be 7a bb bb 3e 17 88 a3 be 5b da 70 be
       -0.1556838 0.3666647 -0.31939766 -0.23520796
0002b0 77 f5 70 3b 26 f3 70 3e 52 26 82 be 50 f8 98 be
       0.0036767402 0.23530254 -0.2541986 -0.29876947
0002c0 d7 de c6 3d c9 ea 34 be f3 b4 ba 3d 39 ab 10 3e
       0.09710472 -0.17667688 0.091165446 0.14127816
0002d0 4c 28 8a 3d 12 a0 d2 3e fd 92 42 3d fb d3 9c bd
       0.06745967 0.4113775 0.04750346 -0.076576196
0002e0 d7 45 14 be 21 40 8e be 18 fc 9a 3e 90 fb d1 bb
       -0.14479767 -0.277833 0.30270457 -0.0064081624
0002f0 1a 5b 44 3e 12 90 ee 3d c1 98 58 3e 31 6f 25 be
       0.19175377 0.11648573 0.21152021 -0.16155697
000300 44 d4 b8 be 7a 67 b8 3e 18 39 b5 3e 54 97 87 bb
       -0.36099446 0.36016446 0.35395122 -0.0041379128
000310 58 4c fb be 52 90 0d 3e 79 85 5d 3d 1a 6c 26 bc
       -0.49081683 0.13824585 0.054082368 -0.010157609
000320 23 9d 07 bc 83 5a 7b 3e 3c 5e e5 39 c5 73 d5 be
       -0.00827721 0.24546246 0.00043748494 -0.41689888
000330 1c f5 0a 3d 6d 9d c5 3e d3 dd 2e be 41 cc a8 bd
       0.03392516 0.3859667 -0.17076807 -0.08242083
000340 42 68 c8 3c b5 68 88 bd 67 55 7b 3d 9d 40 e8 3d
       0.024463776 -0.06660596 0.061360743 0.11340449
000350 63 cc 63 bd 02 ef 39 3d eb 6a 2a 3e 43 86 77 3e
       -0.05561484 0.04539395 0.16642348 0.2417231
000360 d9 8d 03 3e 13 ef 1b be 5e 4e 5a 3d e2 44 16 be
       0.1284708 -0.15227918 0.053297393 -0.14674714
000370 72 ed c9 3d 63 ae ce bd 3f 05 32 be 40 1d c0 3d
       0.09859742 -0.100918554 -0.17384814 0.09380579
000380 38 18 bd 3e fb f7 c7 3d bd 19 e9 bd d4 56 39 3f
       0.3693254 0.097640954 -0.11381862 0.72398114
000390 7b a2 2b 3e c9 c1 12 be 8e f4 b5 be 69 12 7c bd
       0.167612 -0.14331736 -0.35538143 -0.061540995
0003a0 1e a7 b4 be 6e 08 42 be 98 42 f6 3d b1 ef 80 3f
       -0.3528375 -0.18948528 0.120244205 1.0073148
0003b0 fb d7 e6 bb 39 d3 2a be 52 82 0b be 9f 9d 1c ba
       -0.00704479 -0.16682138 -0.13623932 -0.0005974415
0003c0 1a d9 2a be ac 15 3b 3f 72 90 1d bb 9a 0d bb 3d
       -0.1668438 0.73079944 -0.0024042395 0.09133454
0003d0 6e a4 37 be 81 71 1f bf 38 d7 75 bf 07 78 18 3e
       -0.17933819 -0.6228257 -0.9603152 0.14889537
0003e0 9a 9c 90 be 61 98 a2 be 0b e3 11 bf 49 0c 9b 3e
       -0.28244478 -0.3175688 -0.56987065 0.3028281
0003f0 43 c4 71 3e fa 99 06 3f a2 23 b9 3e 31 fa e8 3e
       0.23610024 0.525787 0.36159998 0.4550338

fc3.bias f4 [20]
000000 2e 22 37 3e d3 b9 8d 3d d3 6b 86 3e 08 cb 0a 3f
       0.17884132 0.06920209 0.26254138 0.5421605
000010 0c 15 c2 3c f3 b3 21 bc 53 75 a9 3c 17 d9 35 bc
       0.023691677 -0.009869563 0.020685827 -0.0110991215
000020 d2 76 f8 3c fd 9d aa 3d 24 a7 9a bd 1e 34 e9 3d
       0.030330095 0.08330915 -0.07551411 0.11386894
000030 5d 63 5a 3e ac c2 af 3d 73 c6 84 3d ff 44 c7 3d
       0.21326967 0.085820526 0.06483164 0.09729957
000040 47 37 4c bd 42 1f 66 3b 5b 96 91 bc e9 3a 98 3d
       -0.049857404 0.0035113846 -0.01777189 0.07433111

fc4.weight f4 [5, 20]
000000 91 29 b1 bf a8 c0 0f bf b2 c9 78 3e b7 05 23 be
       -1.384081 -0.56153345 0.2429569 -0.15920149
000010 5d 21 2f bf f2 b8 44 bf 84 75 70 be 97 ee 25 bf
       -0.68410283 -0.76844704 -0.23482329 -0.64817184
000020 94 08 84 3d c5 ac 94 3d ec c1 64 3d dc e2 6a 3d
       0.06446949 0.07259516 0.055849 0.057345256
000030 e5 ef 40 bd 3e 27 dc be fb 2d 30 3e 8f 40 01 3d
       -0.04710378 -0.4299869 0.1720504 0.03155571
000040 ce 08 83 3e 3b 41 42 3e 0d 0f 34 be 5e e3 90 be
       0.25592655 0.18970196 -0.17583866 -0.28298467
000050 11 0b 43 be e6 44 19 bf 74 89 ef 3e ff fd e8 be
       -0.1904719 -0.59870756 0.46784556 -0.45506284
000060 92 a9 aa be c9 95 8e be 64 70 2c 3e c4 5b 1a 3b
       -0.33332497 -0.27848652 0.16839749 0.0023553232
000070 6a 66 a9 be a8 5f 65 be d0 cf 3f bf 3a 39 78 bd
       -0.33085948 -0.22399771 -0.7492647 -0.06060145
000080 d2 cd b1 bd ab a8 ca bf 22 d1 0f 3e dc bc 3e bf
       -0.08681835 -1.5832723 0.14044622 -0.74506927
000090 f1 1d c6 bd c3 36 49 3e e1 da 90 be 2c e7 27 3f
       -0.096736796 0.19649796 -0.2829199 0.65587115
0000a0 ee 9c 44 3e 37 bd 36 3e 52 20 3d bf bd 70 c5 be
       0.19200489 0.17845617 -0.7387744 -0.38562575
0000b0 ea 4e 11 be 27 d4 f4 3d 83 de b7 be a5 c9 b2 bd
       -0.1419026 0.11954527 -0.3591195 -0.08729867
0000c0 86 d2 1f 3f b3 8d 06 3e 39 df 54 bd c3 31 e4 3e
       0.6243061 0.13139991 -0.051970694 0.44569215
0000d0 b4 08 89 3e 16 fd 7f 3e 7c cc 93 bd ea 27 43 be
       0.26764452 0.24998888 -0.07216737 -0.19058195
0000e0 88 32 35 bf db c6 73 bd 0c 21 86 3e 3f 53 4e bf
       -0.7078023 -0.059515815 0.26197088 -0.80595773
0000f0 0b 55 72 3e dd 7b 95 3e 57 bf f3 be 08 6c 17 3f
       0.23665254 0.29196063 -0.47606918 0.5914922
000100 01 4a ae bf d0 d1 43 3e 4a 52 27 bf 67 07 8f bd
       -1.3616334 0.19123006 -0.6535994 -0.06983834
000110 8f 3e 94 bf c8 e0 12 bf a8 20 1c be 5c e8 89 bf
       -1.1581591 -0.5737424 -0.15246832 -1.0774035
000120 2a 47 77 bf 79 56 72 3e 4d e8 b1 3c 99 98 cd be
       -0.9659296 0.23665799 0.021717215 -0.40155485
000130 75 16 24 bf 4c 50 de bd db 7f 99 bf 70 cd 9b bf
       -0.64096767 -0.10855159 -1.1992143 -1.217207
000140 be 7a 82 bf fc 20 db bf 5f 75 d2 bf b3 bc 0e c0
       -1.0193708 -1.7119441 -1.6442069 -2.2302673
000150 d2 fb 34 3f 12 ae d3 bf df 22 b1 3d 06 e2 14 3f
       0.7069675 -1.6537497 0.08649229 0.58157384
000160 04 02 6d bf bc f1 06 3e e1 49 c8 3d ef 5a 17 bf
       -0.925812 0.13178152 0.09779716 -0.5912313
000170 c2 db b3 3d a2 0f 78 bf 0f 97 63 bf f1 81 81 3e
       0.0878215 -0.96898854 -0.8890237 0.2529445
000180 87 89 5e 3e 35 e8 b3 bd de da 93 be 22 65 17 c0
       0.2173215 -0.08784524 -0.2887792 -2.3655477

fc4.bias f4 [5]
000000 37 41 f9 bd bf 23 b1 bd ea 26 cc be 3a 89 c4 3d
       -0.12170642 -0.08649396 -0.3987344 0.095964864
000010 d7 5d 31 bf
       -0.69283813
