Defense/TRADES/TRADES.pt (torch, 20596 bytes, 8 tensors)

fc1.weight f4 [50, 42]
0.024281545 0.10327782 -0.3016614 -0.05187021 -0.04641901 0.006235739 -0.067453966 -0.01883396
-0.030412897 -0.038217094 0.006214873 0.009425777 0.08374841 -0.058279976 -0.08563159 0.43608615
0.008333387 0.079493105 -0.46902454 0.07935245 -0.019335447 -0.10429014 -0.065622434 -0.10615473
0.011288942 0.038641885 0.118835114 0.15373774 0.30186695 0.10820714 -0.17754337 -0.01086905
0.37699962 0.13656463 -0.057135444 -0.088406876 0.0016906463 0.13340415 -0.15340589 -0.080660254
0.03065914 -0.28828657 -0.49196598 0.015560288 0.018886069 0.02734674 -0.057829402 -0.012463905
-0.17710371 0.048761964 -0.0075642923 0.011901969 0.061364006 0.012877442 -0.048438195 0.05438268
0.058197193 -0.16219589 -0.09006161 0.016748738 0.12300544 0.04670002 -0.040699042 -0.025162574
-0.046695337 0.030340448 0.023336705 0.004832294 0.09096784 -0.55813307 -0.5030035 -0.5191622
0.13268974 0.2810498 0.3767443 -0.03543156 -0.21444428 -0.017135477 -0.011242375 -0.5866781
0.0174614 0.056603983 0.03379794 -0.46506372 -0.0043341788 -0.12221189 0.036389675 0.078133225
-0.018161591 0.07516969 -0.12991647 -0.04664608 0.05416577 -0.041303176 -0.08963588 0.098170936
-0.103898175 0.14143015 0.11408019 -0.05765237 0.1440703 -0.016439032 0.137978 -0.044679284
-0.112633124 -0.13767222 -0.098003544 0.08290103 0.0032842313 -0.1536058 -0.08811788 -0.14737968
0.12391168 -0.14912282 0.055420615 -0.122769244 0.027083354 0.0047090133 -0.06267803 -0.043094374
0.047491033 -0.10423742 0.045331273 -0.02952738 -0.074591585 -0.14561597 0.06385063 -0.14523199
-0.13253176 -0.09456139 -0.13095744 -0.12711854 -0.11971174 -0.1501759 -0.09733821 0.078906775
0.075266294 0.12583873 -0.033480097 -0.070059195 0.11837447 0.12986492 0.014504089 -0.102640145
-0.045553137 -0.07007739 0.11327929 -0.038959306 0.04271141 0.12249964 0.11830327 -0.11827973
-0.17151229 -0.14810999 0.09809059 0.028212901 -0.095967844 0.13186298 0.10927144 0.007949027
-0.023653198 -0.016615108 0.11531237 -0.066155 -0.08588582 0.13783184 -0.07676863 -0.07250712
0.043473937 -0.011798419 0.08217909 -0.0023124665 -0.020339487 -0.004825809 0.24180943 -0.00908889
-0.010421266 -0.033135153 0.02237838 0.019576982 -0.08173191 0.003749556 -0.031704735 -0.875275
0.117478795 0.018588716 0.04927951 -0.017986583 0.010309852 -0.0037454092 0.025704855 0.0007604855
-0.00967158 0.008815422 -0.0002951797 0.09194772 0.092753544 0.028807437 -0.08505966 0.046067636
0.75742984 -0.025764052 0.18382917 -0.0064024194 -0.0028717685 0.11475227 -0.09456483 -0.08884625
-0.024433821 -0.6610458 0.091443256 -0.12523766 -0.15076308 -0.08744717 -0.0766924 -0.09322931
-0.07192501 -0.0023269139 -0.046447013 -0.096561566 -0.040020443 -0.046945225 0.06649653 -0.04808909
-0.12212847 0.2517482 -0.18568486 0.018227449 0.41723913 -0.15994477 -0.023030026 0.04654808
-0.0063053323 -0.025011647 -0.12280265 -0.09838716 -0.27437907 -0.026687322 -0.12159276 -0.20174102
0.03224267 -0.7016708 0.60187393 -0.08717102 -0.11155991 -0.08053804 -0.11761378 -0.018328104
-0.005761586 -0.13449045 -0.05867795 -0.0754397 0.06381361 -0.0090140635 -0.0031905521 -0.1074118
00000000: 17ea c63c 5283 d33d 5d73 9abe db75 54bd
00000010: dc21 3ebd 2c55 cc3b 4e25 8abd ad49 9abc
00000020: 7824 f9bc 8789 1cbd 22a6 cb3b 936e 1a3c
00000030: 4984 ab3d fcb6 6ebd 9d5f afbd af46 df3e
00000040: c288 083c 48cd a23d fc23 f0be 8a83 a23d
00000050: 5f65 9ebc 1296 d5bd 0e65 86bd a767 d9bd
00000060: 41f5 383c f446 1e3d d35f f33d 6d6d 1d3e
00000070: 4e8e 9a3e b49b dd3d eecd 35be 1a14 32bc
00000080: 1806 c13e 99d7 0b3e db06 6abd aa0e b5bd
00000090: ad98 dd3a 199b 083e 6f16 1dbe 3431 a5bd
000000a0: e028 fb3c 4c9a 93be f7e2 fbbe 94f0 7e3c
000000b0: f5b6 9a3c 4506 e03c 86de 6cbd 6835 4cbc
000000c0: ad5a 35be a0ba 473d e2dd f7bb 7a00 433c
000000d0: d358 7b3d e8fb 523c 2167 46bd 60c0 5e3d
000000e0: 2e60 6e3d ae16 26be 3972 b8bd a634 893c
000000f0: 47ea fb3d 8548 3f3d 0ab4 26bd be21 cebc
00000100: 9c43 3fbd 888c f83c 9e2c bf3c 3858 9e3b
00000110: 594d ba3d cfe1 0ebf d6c4 00bf d0e7 04bf
00000120: d2df 073e c2e5 8f3e a1e4 c03e af20 11bd
00000130: 4897 5bbe b35f 8cbc f031 38bc 8930 16bf
00000140: 360b 8f3c 94d9 673d b56f 0a3d d51c eebe
00000150: ba05 8ebb 3a4a fabd 570d 153d 5004 a03d
00000160: 9ec7 94bc 91f2 993d d308 05be f60f 3fbd
00000170: eddc 5d3d 852d 29bd 0493 b7bd d80d c93d
00000180: 91c8 d4bd 11d3 103e e0a2 e93d e424 6cbd
00000190: 2a87 133e 26ab 86bc 1b4a 0d3e a001 37bd
000001a0: 32ac e6bd f2f9 0cbe 15b6 c8bd 04c8 a93d
000001b0: 423c 573b d74a 1dbe 2677 b4bd b3ea 16be
000001c0: 68c5 fd3d a7b3 18be ba00 633d 716e fbbd
000001d0: e9dd dd3c 114e 9a3b 575d 80bd ba83 30bd
000001e0: f585 423d 6e7a d5bd 49ad 393d 67e3 f1bc
000001f0: 79c3 98bd 5a1c 15be 1ec4 823d b2b7 14be
00000200: 68b6 07be 67a9 c1bd b519 06be 5d2b 02be
00000210: 6e2b f5bd b6c7 19be 4159 c7bd e099 a13d
00000220: 3725 9a3d dedb 003e 6d22 09bd 327b 8fbd
00000230: 506e f23d 4ffb 043e 8fa2 6d3c ff34 d2bd
00000240: ed95 3abd bc84 8fbd f9fe e73d cb93 1fbd
00000250: 29f2 2e3d 17e1 fa3d fc48 f23d a53c f2bd
00000260: eba0 2fbe 25aa 17be b8e3 c83d be1e e73c
00000270: ca8a c4bd 1707 073e b4c9 df3d a33c 023c
00000280: 5ac4 c1bc 681c 88bc e428 ec3d 467c 87bd
00000290: e8e4 afbd ca23 0d3e df38 9dbd 9d7e 94bd
000002a0: ba11 323d 284e 41bc 834d a83d c08c 17bb
000002b0: ff9e a6bc d221 9ebb e49c 773e 91e9 14bc
000002c0: f5bd 2abc bab8 07bd dd52 b73c e85f a03c
000002d0: 0f63 a7bd 1cbb 753b d3dc 01bd 0612 60bf
000002e0: b998 f03d 5d47 983c 50d9 493d 9958 93bc
000002f0: a7ea 283c 8a75 75bb fd92 d23c 515b 473a
00000300: 8c75 1ebc 8f6e 103c 59c2 9ab9 164f bc3d
00000310: 92f5 bd3d 93fd eb3c c233 aebd 6bb1 3c3d
00000320: ece6 413f 220f d3bc b73d 3c3e 63cb d1bb
00000330: 4834 3cbb 3d03 eb3d 35ab c1bd 06f5 b5bd
00000340: 7029 c8bc 4c3a 29bf 9a46 bb3d 4d3e 00be
00000350: a361 1abe 8017 b3bd e810 9dbd 02ef bebd
00000360: 6b4d 93bd 237f 18bb 393f 3ebd 12c2 c5bd
00000370: 7aec 23bd a349 40bd 552f 883d 11f9 44bd
00000380: 7e1e fabd 24e5 803e 2c24 3ebe bb51 953c
00000390: 5ea0 d53e 90c8 23be 77a9 bcbc 33a9 3e3d
000003a0: f69c cebb 3ae5 ccbc f57f fbbd 357f c9bd
000003b0: 6a7b 8cbe 5f9f dabc a005 f9bd 3395 4ebe
000003c0: e410 043d b3a0 33bf 6914 1a3f b886 b2bd
000003d0: 8679 e4bd 21f1 a4bd 7edf f0bd d224 96bc
000003e0: b0cb bcbb ddb7 09be 4a58 70bd 2180 9abd
000003f0: b6b0 823d b9af 13bc 9518 51bb b8fa dbbd

fc1.bias f4 [50]
0.2214933 0.1665621 -0.15010251 -0.10742287 0.2522496 0.18544602 -0.09121909 0.039816394
0.1540799 -0.25276113 0.20243451 -0.1525619 0.17240633 0.02375562 -0.270051 0.15937518
0.07514268 -0.010745498 0.046760183 0.32775253 -0.3262764 -0.15435562 0.30051443 0.18194924
-0.05226151 -0.22374544 0.08179421 -0.13070339 -0.09230289 0.31708646 0.2316673 0.21688578
0.16346455 -0.049338967 -0.13816781 0.42089295 0.09515527 -0.40497392 -0.1486209 0.03103885
0.15528923 -0.32730588 -0.12181551 -0.14714529 0.317076 0.32885754 0.28484726 -0.020733237
0.43526945 0.011687029
00000000: 24cf 623e 418f 2a3e 79b4 19be 8600 dcbd
00000010: dc26 813e 90e5 3d3e 13d1 babd 8416 233d
00000020: 1fc7 1d3e e869 81be fe4a 4f3e 3039 1cbe
00000030: 498b 303e 259b c23c 2044 8abe 3f33 233e
00000040: 68e4 993d e30d 30bc 9b87 3f3d 2ecf a73e
00000050: b30d a7be 660f 1ebe 07dd 993e e750 3a3e
00000060: 2a10 56bd 861d 65be b983 a73d 1cd7 05be
00000070: 4c09 bdbd 2859 a23e 313a 6d3e 4e17 5e3e
00000080: 4063 273e a817 4abd dd7b 0dbe 487f d73e
00000090: c4e0 c23d be58 cfbe 1430 18be 3045 fe3c
000000a0: 2404 1f3e a394 a7be 697a f9bd 41ad 16be
000000b0: c957 a23e 0460 a83e 80d7 913e c0d8 a9bc
000000c0: a3db de3e f47a 3f3c

fc2.weight f4 [30, 50]
0.26931623 0.46536827 -0.09194181 0.009753765 0.6227185 0.06764128 -0.17313457 0.08333942
-0.15297122 -0.57974344 0.20958228 -0.1109914 -0.23316829 -0.40972286 -0.25561452 0.009196688
0.24787813 -0.24030282 0.16043475 0.40298954 -0.2555349 0.018276796 -0.1187179 0.12573138
-0.034363516 0.1894138 0.3090011 -0.19586319 -0.2933343 0.84614074 0.055653676 0.26393402
0.118753925 0.24891053 -0.3335456 0.2109836 0.08303918 -0.3988463 -0.031641684 0.035813916
0.17464922 0.00035178778 -0.11455959 -0.22374883 0.25547016 0.24645518 -0.0004627852 -0.07033267
-0.27057242 0.24186252 -0.29424512 0.047717903 -0.0062113716 0.13955137 -0.057852905 -0.15453304
-0.07220856 -0.028970236 -0.51267076 2.2396402 -0.3046855 -0.11744462 -0.09643619 -0.16775179
0.018977616 0.15210624 0.19730785 -0.19750659 0.11097112 0.53990877 0.18153244 0.19628438
0.023709852 0.011459423 -0.058862705 -0.01754573 0.3141151 -0.23109269 0.06325208 0.43692875
-0.109627604 0.19403777 0.026356647 -0.046421524 -0.031174527 0.31243852 0.23917347 0.5470816
0.07191904 0.0761071 0.3440127 -0.215243 -0.036080584 -0.089464046 0.3256776 0.22010027
0.02245516 0.011384422 0.06667533 0.12551978 0.12316198 -0.2147459 -0.0519822 -0.017096348
-0.78011495 0.1362103 0.049555052 0.053943295 0.25043777 1.0470593 -0.023974426 -0.048951704
0.3320521 0.5255347 0.22465095 -0.26797786 -0.27130896 0.29927483 0.21939518 -0.5137493
0.29447702 0.05001525 -0.7687098 -0.05085704 0.30682385 0.2555532 -0.3278536 0.376221
0.240326 -0.20952478 -0.05918214 0.37875274 -0.054582834 0.021498417 0.22053638 -0.2072267
0.21656217 0.75223 0.024899831 0.38030788 0.35732326 0.2747481 0.029802663 0.41454133
-0.13328055 -0.572707 0.07661589 -0.07992215 -0.17948961 0.24251664 0.2893299 0.43269104
0.13464132 -0.08432025 0.8662405 0.24512284 -0.025342442 0.4247383 0.12275113 -0.17306714
0.43045592 0.10909354 -0.28054127 -0.6294897 -0.42648777 0.04775089 0.3628447 -0.23997103
-0.07657061 0.37129596 -0.23359366 0.19029501 -0.5598223 0.45012987 -0.45723376 0.2842259
0.34031737 -0.00705688 -1.1215434 0.3685468 0.23060745 0.04628317 0.34794033 0.49918544
-0.43188924 0.27028984 0.0066529424 -0.32989165 -0.102344416 0.19728138 -0.03596569 0.17930634
-0.08097344 -0.4303826 0.32450017 0.16987132 0.22925977 0.2368419 0.14021228 0.10609012
-0.05735218 0.021262914 -0.06416763 -0.12793809 0.022187447 -0.018314987 0.04590993 0.046485156
0.032069713 -0.08037032 -0.07148715 -0.071490236 -0.028652394 -6.302684e-05 -0.044282567 0.052281067
0.06382648 0.036059637 -0.18480928 0.07524607 -0.14420438 -0.024487182 -0.01789547 0.020504715
-0.06856671 -0.06752602 0.03437755 0.0021326505 0.06699682 0.02805505 0.06809746 -0.041819338
-0.052960195 0.11265564 -0.054594245 0.029912189 -0.08545866 0.09094582 -0.003570698 -0.051039405
-0.0099827815 0.070716254 0.101927 -0.045460552 0.042605318 -0.14137205 -0.089177966 -0.12889202
-0.035213184 0.062405635 0.17431091 0.45987156 -0.041108664 -0.03950178 0.42100468 -0.25212362
00000000: d1e3 893e c044 ee3e fd4b bcbd 41ce 1f3c
00000010: 7b6a 1f3f 8387 8a3d 304a 31be dcad aa3d
00000020: 7da4 1cbe 116a 14bf bd9c 563e 764f e3bd
00000030: abc3 6ebe 32c7 d1be e8df 82be b5ad 163c
00000040: c4d3 7d3e f111 76be 0249 243e a554 ce3e
00000050: 78d5 82be 38b9 953c 5f22 f3bd babf 003e
00000060: c2c0 0cbd b1f5 413e 6435 9e3e 5c90 48be
00000070: ea2f 96be ae9c 583f 1cf5 633d 5c22 873e
00000080: 4235 f33d 67e2 7e3e 7dc6 aabe 160c 583e
00000090: 7210 aa3d 9535 ccbe b69a 01bd 9db1 123d
000000a0: 3fd7 323e 2870 b839 389e eabd 6a1e 65be
000000b0: fccc 823e bf5e 7c3e faa1 f2b9 930a 90bd
000000c0: 7888 8abe cfaa 773e 4ca7 96be d973 433d
000000d0: c388 cbbb 8ee6 0e3e 2bf7 6cbd e93d 1ebe
000000e0: 15e2 93bd fd52 edbc 643e 03bf 4456 0f40
000000f0: bdff 9bbe ce86 f0bd 5680 c5bd 20c7 2bbe
00000100: f276 9b3c bdc1 1b3e 120b 4a3e 2b3f 4abe
00000110: d444 e33d 7637 0a3f a4e3 393e c6fe 483e
00000120: 2a3b c23c 4ec0 3b3c 051a 71bd 10bc 8fbc
00000130: b2d3 a03e 90a3 6cbe 4e8a 813d 20b5 df3e
00000140: 7084 e0bd d6b1 463e e5e9 d73c 7f24 3ebd
00000150: b961 ffbc f1f7 9f3e e4e9 743e 8a0d 0c3f
00000160: 4a4a 933d 0ade 9b3d 6f22 b03e a968 5cbe
00000170: 3cc9 13bd ed38 b7bd 37bf a63e f761 613e
00000180: e2f3 b73c ba85 3a3c 138d 883d 4288 003e
00000190: 593c fc3d 59e6 5bbe 4aeb 54bd a40d 8cbc
000001a0: 9db5 47bf b67a 0b3e 3dfa 4a3d a5f3 5c3d
000001b0: 6139 803e 0a06 863f 0466 c4bc 9581 48bd
000001c0: bc02 aa3e 7189 063f e60a 663e 6534 89be
000001d0: 02e9 8abe 8d3a 993e 21a9 603e 1385 03bf
000001e0: b1c5 963e cadc 4c3d 2aca 44bf 794f 50bd
000001f0: 0418 9d3e ded7 823e 6ddc a7be 0aa0 c03e
00000200: 0518 763e aa8d 56be f968 72bd e1eb c13e
00000210: 4092 5fbd 731d b03c 4ad4 613e 3c33 54be
00000220: 79c2 5d3e 2592 403f bbfa cb3c b7b7 c23e
00000230: 13f3 b63e c8ab 8c3e b724 f43c c33e d43e
00000240: b27a 08be ed9c 12bf cbe8 9c3d 39ae a3bd
00000250: 20cc 37be 4856 783e 0c23 943e ae89 dd3e
00000260: 6adf 093e 18b0 acbd f0c1 5d3f 7b01 7b3e
00000270: f49a cfbc 4c77 d93e f264 fb3d 8338 31be
00000280: b864 dc3e 6f6c df3d 1ba3 8fbe 3d26 21bf
00000290: 9b5c dabe 7096 433d c8c6 b93e f7ba 75be
000002a0: 0dd1 9cbd 811a be3e 2d33 6fbe b2dc 423e
000002b0: 8450 0fbf 6c77 e63e 8b1a eabe 0f86 913e
000002c0: 143e ae3e 663d e7bb bc8e 8fbf 2bb2 bc3e
000002d0: 5c24 6c3e 6c93 3d3d 3c25 b23e 3c95 ff3e
000002e0: 9620 ddbe 6e63 8a3e ed00 da3b 8fe7 a8be
000002f0: f399 d1bd 2104 4a3e c250 13bd 159c 373e
00000300: 67d5 a5bd 1c5b dcbe e324 a63e bff2 2d3e
00000310: 13c3 6a3e af86 723e cf93 0f3e c745 d93d
00000320: 1fea 6abd 902f ae3c 526a 83bd 3402 03be
00000330: 73c2 b53c 5009 96bc 0d0c 3c3d 3867 3e3d
00000340: 885b 033d 3299 a4bd db67 92bd 7969 92bd
00000350: 6db8 eabc 472d 84b8 a361 35bd ac24 563d
00000360: 75b7 823d 45b3 133d a53e 3dbe 9d1a 9a3d
00000370: 50aa 13be 5899 c8bc 8599 92bc 81f9 a73c
00000380: b46c 8cbd 154b 8abd 79cf 0c3d f0c3 0b3b
00000390: a135 893d b4d3 e53c ae76 8b3d c14a 2bbd
000003a0: caec 58bd 00b8 e63d 379e 5fbd 680a f53c
000003b0: f304 afbd cd41 ba3d 5f02 6abb b20e 51bd
000003c0: d28e 23bc afd3 903d 1abf d03d d834 3abd
000003d0: ea82 2e3d d6c3 10be f0a2 b6bd 45fc 03be
000003e0: b33b 10bd 0d9d 7f3d 8f7e 323e 4974 eb3e
000003f0: 8f61 28bd 9ecc 21bd ed8d d73e 5916 81be

fc2.bias f4 [30]
0.20978545 -0.024306668 0.14927498 0.011319874 -0.035276268 0.221231 -0.032659013 0.0452029
0.06673472 0.025866719 0.21011172 0.123403534 0.0025864195 0.25915396 -0.13829143 0.32679886
-0.17416716 0.010847649 -0.101130836 0.041360144 0.43400675 0.024824204 0.33632883 -0.13044776
-0.062294334 -0.14642636 -0.021645231 0.22469194 0.018154757 -0.28952757
00000000: ffd1 563e c71e c7bc 8adb 183e fe76 393c
00000010: d97d 10bd 618a 623e 75c5 05bd ad26 393d
00000020: 36ac 883d 71e6 d33c 8727 573e feba fc3d
00000030: eb80 293b d4af 843e 459c 0dbe 2e52 a73e
00000040: e058 32be 56ba 313c af1d cfbd 4169 293d
00000050: 2236 de3e 215c cb3c 4b33 ac3e 1994 05be
00000060: 5828 7fbd cbf0 15be 5751 b1bc a515 663e
00000070: 49b9 943c f53c 94be

fc3.weight f4 [20, 30]
0.27877253 0.44592395 -0.77835643 0.11536727 0.09112296 0.81659746 -0.1591852 0.4476068
0.256898 -0.15771493 0.13035999 0.24788661 -0.14422727 -0.6055497 -0.09948141 0.026999393
0.045621105 -0.40903756 0.040113714 -0.041008465 -0.008832871 -0.13662325 0.06026214 0.09516427
0.1711408 -0.009278414 0.11631464 0.1217954 -0.5149183 0.36376932 -0.034744624 0.12979986
0.45143726 -0.26407257 -0.06962699 -0.4290968 -0.12492641 0.16438064 0.5256103 0.36555952
-0.02742844 0.3673419 0.24139781 -0.11152765 -0.062959366 -0.2744103 0.086277865 -0.09362808
0.202277 0.26681247 -0.11552629 0.08209396 -0.45123494 -0.071189284 0.29764813 -0.12184116
0.13089876 -0.17246875 0.26045945 -0.0030614166 0.0098552825 -0.25173572 0.21159571 -0.082196936
0.1197399 0.30591077 0.09916096 -0.35242778 -0.31982505 0.18775456 0.14654346 -0.12384226
-0.121264875 0.7015363 -0.020745369 0.2881386 -0.16599219 -0.48793286 -0.4222954 0.22769567
0.16158237 0.05229195 0.6828011 -0.08559432 -0.59264094 -0.098568015 -0.24789736 -0.11066619
-0.1351346 -0.9336313 0.37588045 -0.47094414 -0.22185442 0.7539739 -0.023480875 -0.26686785
0.16219722 -0.23035607 -0.06959475 0.21026166 0.36680558 -0.10595171 -0.1411412 0.4879096
0.10315584 0.47908905 0.00861297 -0.23848058 -0.65673774 -0.020052891 0.002919241 0.0980285
0.4962472 -0.019816808 -0.6541956 0.07122693 0.8645864 0.49321777 -0.1818988 -0.08928094
0.29630855 0.31014594 -0.11392218 0.21856597 -0.12956783 0.5756594 0.075105704 -0.15937193
0.022875933 -0.44799194 -0.05842333 0.36417866 -0.55797786 0.14369185 -0.060602617 0.4718382
0.1108455 0.31220117 0.24272574 -0.08933403 0.5780618 -0.18767068 0.09709687 -0.070739664
0.34796786 0.050922714 -0.7548705 0.4047749 -0.1735997 0.41328278 0.36921632 -0.019176666
-0.2943217 0.5840146 0.12744296 0.3603097 0.18433127 0.2256778 0.22887136 -0.61107725
0.10915877 0.2447057 -0.798921 -0.09021009 0.10261434 0.38003397 0.03360398 -0.04953883
-0.11347316 0.14938827 0.26177606 0.11193886 0.0882263 -0.06863442 -0.14634505 0.1249919
0.5543008 0.4144116 -0.27264827 0.7705536 0.32668617 -0.5583834 0.16529955 0.24548855
0.13817312 0.63585055 0.07948333 -0.39472947 -0.47954938 0.2206979 0.16366982 -0.0002533607
0.06659528 0.65713835 -0.080494806 0.56339777 -0.10670374 -0.4829756 -0.5930325 -0.15830754
0.31965253 -0.081346124 0.64726 -0.17042014 -0.6476121 -0.07967056 -0.09444111 0.1443762
-0.117372446 -0.9427514 0.4041204 0.288181 -0.631775 0.5515048 0.088833034 0.6298206
-0.13255799 0.42071488 0.42619702 -0.15207934 0.018102534 -0.06717331 -0.026318423 -0.32661372
0.0559794 0.27012154 0.14764734 -0.2721362 0.11714398 0.12321618 0.21069616 0.05557055
0.59158653 -0.14792657 0.084245406 0.023900205 0.9565058 0.33009562 -0.48451945 0.41274634
-0.17122115 -0.0658642 -0.12440508 0.0021913408 -0.09551644 -0.13524295 0.01176321 0.06135787
-0.14266919 -0.09901699 0.0196576 -0.13838919 -0.14288774 -0.11517315 -0.0072373836 0.13861634
00000000: 46bb 8e3e 2550 e43e 5e42 47bf ad45 ec3d
00000010: ad9e ba3d 880c 513f 7201 23be b82c e53e
00000020: 2288 833e 0680 21be 177d 053e fdd5 7d3e
00000030: 50b0 13be 4e05 1bbf e9bc cbbd d52d dd3c
00000040: 32dd 3a3d 5f6d d1be 474e 243d 7ef8 27bd
00000050: bfb7 10bc f7e6 0bbe 6fd5 763d 7ce5 c23d
00000060: 893f 2f3e 7d04 18bc 5f36 ee3d de6f f93d
00000070: b0d1 03bf f93f ba3e 6150 0ebd 41ea 043e
00000080: c922 e73e 8534 87be 9898 8ebd 93b2 dbbe
00000090: 6bd9 ffbd 6653 283e 668e 063f 9e2a bb3e
000000a0: 9cb1 e0bc 3d14 bc3e fd30 773e 9c68 e4bd
000000b0: d7f0 80bd 827f 8cbe 73b2 b03d 14c0 bfbd
000000c0: b421 4f3e a59b 883e 0c99 ecbd e120 a83d
000000d0: 4408 e7be b0cb 91bd 5665 983e dc87 f9bd
000000e0: 530a 063e a69b 30be f15a 853e 0ca2 48bb
000000f0: 0d78 213c 81e3 80be 8cac 583e de56 a8bd
00000100: 313a f53d 56a0 9c3e e714 cb3d 6a71 b4be
00000110: 1cc0 a3be bb42 403e 7d0f 163e 03a1 fdbd
00000120: b859 f8bd e297 333f 31f2 a9bc e786 933e
00000130: dbf9 29be 56d2 f9be 1a37 d8be 0e29 693e
00000140: d975 253e 1530 563d 0ecc 2e3f 134c afbd
00000150: 51b7 17bf 07de c9bd ced8 7dbe f5a4 e2bd
00000160: b960 0abe 7602 6fbf 6773 c03e 971f f1be
00000170: ce2d 63be 6f04 413f f75a c0bc e7a2 88be
00000180: 0717 263e 76e2 6bbe b187 8ebd d54e 573e
00000190: f1cd bb3e 36fd d8bd 5287 10be 49cf f93e
000001a0: 5e43 d33d 294b f53e 6a1d 0d3c 4134 74be
000001b0: f71f 28bf f645 a4bc bd50 3f3b 2bc3 c83d
000001c0: 1d14 fe3e dc56 a2bc 5d79 27bf 6ddf 913d
000001d0: 8955 5d3f 0a87 fc3e ae43 3abe edd8 b6bd
000001e0: c1b5 973e 73cb 9e3e 0850 e9bd c2cf 5f3e
000001f0: 6ead 04be 6a5e 133f 05d1 993d 6532 23be
00000200: 4f66 bb3c 335f e5be 4d4d 6fbd a075 ba3e
00000210: a3d7 0ebf f523 133e 733a 78bd c794 f13e
00000220: f702 e33d d5d8 9f3e 198d 783e c3f4 b6bd
00000230: dcfb 133f be2c 40be b9da c63d f5df 90bd
00000240: d828 b23e 5694 503d 313f 41bf a83e cf3e
00000250: 1fc4 31be cd99 d33e ec09 bd3e 6218 9dbc
00000260: 55b1 96be fb81 153f 6880 023e 837a b83e
00000270: 56c1 3c3e 1518 673e 415d 6a3e 8f6f 1cbf
00000280: a28e df3d 2294 7a3e 1686 4cbf 11c0 b8bd
00000290: 7827 d23d d093 c23e 54a4 093d 3ae9 4abd
000002a0: 9e64 e8bd 3df9 183e 8307 863e 3340 e53d
000002b0: feaf b43d 3490 8cbd 7adb 15be c1fb ff3d
000002c0: a8e6 0d3f c22d d43e 8e98 8bbe 0043 453f
000002d0: 6943 a73e 37f2 0ebf 4944 293e 5a61 7b3e
000002e0: 417d 0d3e 1ac7 223f 28c8 a23d fb19 cabe
000002f0: 7f87 f5be a1fe 613e 1099 273e 7fd5 84b9
00000300: 1b63 883d 383a 283f 76da a4bd d63a 103f
00000310: 7e87 dabd 9448 f7be fad0 17bf 5f1b 22be
00000320: 7fa9 a33e cc98 a6bd d5b2 253f 9e82 2ebe
00000330: e8c9 25bf 522a a3bd 576a c1bd 5bd7 133e
00000340: f760 f0bd 2858 71bf dee8 ce3e 768c 933e
00000350: 02bc 21bf 6b2f 0d3f 18ee b53d ec3b 213f
00000360: 48bd 07be f167 d73e 7f36 da3e b0ba 1bbe
00000370: c44b 943c 2992 89bd bc99 d7bc ea39 a7be
00000380: a84a 653d 5f4d 8a3e dd30 173e 7055 8bbe
00000390: 2fe9 ef3d c458 fc3d bcc0 573e f29d 633d
000003a0: 3772 173f 107a 17be db88 ac3d 5dca c33c
000003b0: 90dd 743f 4b02 a93e ef12 f8be 7d53 d33e
000003c0: 9954 2fbe cfe3 86bd 17c8 febd 999c 0f3b
000003d0: 209e c3bd 217d 0abe 7bba 403c 6452 7b3d
000003e0: df17 12be 6bc9 cabd fa08 a13c e5b5 0dbe
000003f0: 2a51 12be e7df ebbd 9327 edbb 71f1 0d3e

fc3.bias f4 [20]
0.23616295 0.06001862 0.20682526 -0.01864984 0.035268784 -0.22886643 0.15542103 0.27097297
0.051742252 0.054410152 0.08964213 -0.18858649 -0.0049336758 0.07769497 0.27751613 0.08027323
-0.0971505 -0.11924597 -0.16224614 -0.17612833
00000000: b3d4 713e 16d6 753d 00ca 533e 8dc7 98bc
00000010: 0076 103d f65b 6abe b126 1f3e f8bc 8a3e
00000020: afef 533d 2edd 5e3d 4b96 b73d d11c 41be
00000030: acaa a1bb 8a1e 9f3d 9816 8e3e 4b66 a43d
00000040: d7f6 c6bd 3b37 f4bd da23 26be fc5a 34be

fc4.weight f4 [5, 20]
-0.7615848 -0.44440234 -1.245434 0.45836413 -0.26263112 0.17789793 -0.16894014 -0.0064468444
-0.22011885 -0.95461684 -0.29464552 0.055358 0.10489712 -0.74300885 -0.14494525 0.14899342
-0.20112094 -0.106904335 0.15700847 0.006073751 -0.765145 -0.16605249 -0.117434785 -0.45798346
0.076942526 -0.26479477 0.11461425 -0.8719411 0.122793615 -0.79839486 -1.1552008 0.11783435
0.19856663 0.42462522 -0.10584682 0.1468763 -0.7334879 0.08705286 -0.115275055 0.0813923
-0.3508177 0.40682575 -0.45646995 -0.86318827 -0.84404063 -0.82492894 -0.74219483 -0.12861335
0.024903748 -0.20314066 0.37449685 -0.044975884 0.17141847 -0.6952225 0.09839851 0.20741779
0.31254864 0.13301153 0.04925374 0.16111147 -0.27395013 0.03264875 0.5434531 0.31987098
-0.4195661 -0.4183656 0.63772786 -0.12916273 0.17579307 0.07371449 -0.57119304 0.13029265
0.061008163 -0.3267226 0.38015643 -0.2611794 -0.6862588 -0.019668074 -0.17304061 0.01160779
0.51063716 -0.24972996 -0.6040195 -0.3398819 -0.0014670985 0.29718742 0.6087291 0.42676368
0.17943119 -0.24399668 0.46914053 -0.1625272 -0.2122053 0.17251077 -1.7936218 -1.4318426
-0.051671837 -0.20668338 0.07881641 -0.03361568
00000000: 39f7 42bf b488 e3be 626a 9fbf b4ae ea3e
00000010: 9677 86be e02a 363e a5fe 2cbe 0d40 d3bb
00000020: d666 61be c561 74bf c7db 96be 12bf 623d
00000030: 4dd4 d63d d435 3ebf 876c 14be bb91 183e
00000040: a6f2 4dbe a9f0 dabd d4c6 203e 5106 c73b
00000050: 8be0 43bf aa09 2abe a681 f0bd cf7c eabe
00000060: 0b94 9d3d 2e93 87be e0ba ea3d 8837 5fbf
00000070: 387b fb3d 9b63 4cbf 9fdd 93bf 2353 f13d
00000080: 0d55 4b3e 7a68 d93e 38c6 d8bd be66 163e
00000090: ddc5 3bbf c548 b23d 5415 ecbd 02b1 a63d
000000a0: 619e b3be 774b d03e 6eb6 e9be e8f9 5cbf
000000b0: 0c13 58bf 8b2e 53bf 7b00 3ebf 38b3 03be
000000c0: f202 cc3c 1b04 50be 0dbe bf3e a238 38bd
000000d0: 5388 2f3e 1afa 31bf 2885 c93d 5465 543e
000000e0: 6006 a03e 2d34 083e 4abe 493d 68fa 243e
000000f0: 3143 8cbe b2ba 053d be1f 0b3f 21c6 a33e
00000100: 5ed1 d6be 0434 d6be 2242 233f 3c43 04be
00000110: 1903 343e 9ff7 963d b539 12bf 706b 053e
00000120: b2e3 793d 2f48 a7be dda3 c23e 4eb9 85be
00000130: a8ae 2fbf f11e a1bc 8f31 31be 9a2e 3e3c
00000140: 1eb9 023f 36b9 7fbe 06a1 1abf 0005 aebe
00000150: a84b c0ba f328 983e acd5 1b3f c580 da3e
00000160: cfbc 373e 44da 79be 3033 f03e 886d 26be
00000170: 594c 59be aaa6 303e 6695 e5bf 9e46 b7bf
00000180: d9a5 53bd cfa4 53be 7f6a a13d 98b0 09bd

fc4.bias f4 [5]
-0.112216644 -0.25187948 -0.13258487 -0.2098127 -0.43517688
00000000: d7d1 e5bd 59f6 80be 54c4 07be 24d9 56be
00000010: 81cf debe
