Defense/Free_Adversarial_Training/Free_Adversarial_Training.pt (torch, 21016 bytes, 8 tensors)

fc1.weight f4 [50, 42]
00000000: 6969 613e 21e0 f7bd 2a2b b33f 2332 23be
00000010: 0f8b 293e 9c75 923d 7bf8 71be 04bd 793d
00000020: fc7f 34bf af5b adbd 391b 373e 754d c63d
00000030: 6e22 853e 75da 583f 59f0 5b3e e1fa 0040
00000040: b04e 453f fa8e fcbb 840a 263f fb04 9dbd
00000050: 288c 11be c3fb 07be b54e 14bf 93c9 a8bd
00000060: d53b 4e3d 4eee a3bb 713a f1bd 8b47 95be
00000070: cd07 0dbf 043b febd 9d7b 293d 2ba8 58bf
00000080: f551 04be abc7 493f d6e1 b1be 8365 47be
00000090: 2b22 e3bd f3ed 27bf 8f79 97bd f901 6bbf
000000a0: 12d3 5bbd 6bae 173f cadb e13e 242c 0a3e
000000b0: d4ba 45be 924d 6c3d 9c04 0f3e 408b 2bbd
000000c0: 7783 3e3f 4099 f33d 1534 963e 06a6 f0bd
000000d0: 7593 673f e798 76bd fcb0 03bd e628 3b3f
000000e0: 5e36 1ebe 0cce 483f 5663 483f 7ffc e6bd
000000f0: 50b1 e53e 718d de3d a3d1 b63e 6935 1c3f
00000100: f6b2 793f 17ec 103e e3f4 9ebd ce1a debd
00000110: 2079 a93e acc0 ef3e c6cd 093f 380f 1d3f
00000120: b2df 663f 9bdc 823f fb7f 3b3f 4d1e b4be
00000130: c6d9 2f3f d1e5 d63a 242e e0bd 14fe fa3e
00000140: 8e21 263f fb45 143f 04a2 1abd 2c78 29be
00000150: f025 9b3d 70d3 fb3c 8772 10bc 6f79 683a
00000160: 8607 e4bd 7bf8 04be 694b bfbd 0de2 a3bd
00000170: 0cb2 1ebd c8e7 f4bd 8077 03be dc1a f6bd
00000180: 1836 dc3d e77f bdbc bb15 593d d257 cdbd
00000190: 42df 173e 3707 12be e965 13bd f6bc a5bc
000001a0: 0199 28be 76d4 02bd 0e5f cebd 8efa c73d
000001b0: 0ddb 293d 357e 163d 4642 bc3c 815b b2bd
000001c0: e830 d03c 982f 57bc 374a a63c f95b 373d
000001d0: b990 f7bd b636 0f3d 76b4 9ebd 0af2 073e
000001e0: 5e22 e9bc c6a0 01be a1d8 b9bd 6851 d4bd
000001f0: 214e f43d fdf4 253c bcf3 e2bd 0ea8 05be
00000200: 8767 6c3e ae70 8fbd 79ae eabd aa8b 08bd
00000210: ebee e23b 5d1e c93c 0479 a13f 4b53 5dbd
00000220: 0524 debd b98c d7bd af46 1e3e ade4 693e
00000230: 816a f13d fbf2 10bf f081 32be 0ffc 053e
00000240: 6679 2b3f 7ac5 2f3d 40be 6dbd 7fa2 b83e
00000250: 7f89 a6bd 1f4b 9d3e 8028 69bd ab8f 8cbc
00000260: 3dbb 95bd 70f3 ba3c bf95 2b3e c309 61bc
00000270: 4d1c a6bd 8071 2b3f 0ecd 81be bf02 f63d
00000280: 85c9 75bd 8bb0 af3e 1c22 dcbd beb2 9b3e
00000290: 151a 923d 446d 06be 9580 a43c 058e 3cbf
000002a0: 446e 873d d3a7 e4bd 7f73 42be fe3e e1bc
000002b0: 8d2d 72bd d530 ea3d 5055 103f 5a3e 963c
000002c0: 08af b93e 776d 6abe e86c 7c3f f400 f33e
000002d0: 1242 07be 8738 0b3f e780 b7bd c683 9e3e
000002e0: 9c7a 283f b0a7 f63b 7306 ad3c e269 4fbc
000002f0: 0feb 7d3e ad82 193f 6fc2 613f 5a60 6d3d
00000300: 8add 95bd 4759 09be 3675 15bd 1789 903e
00000310: f2d3 403e 2db9 e33d 9332 efbd 4f19 06bc
00000320: d33c 813f 3a39 a33e a943 123f 6b0c dd3d
00000330: a68d 20ba 2ed7 7d3e e905 53be bb60 6c3d
00000340: 500a 67bd 558a 34bf 564a a93c 5b12 823d
00000350: 9e4a debb bae4 b53d d2d2 933c 739f 20be
00000360: 7fbb f13d 75b7 113d a7e8 8b3d 88bf edbd
00000370: 3b52 1fbe d1d0 45bd 4eea d0bd e6ad faba
00000380: ea72 1e3d 873c 183e d6e7 c93d 69e5 5abc
00000390: 55a1 33be e54a 10be 3e03 333d 1ff3 ebbc
000003a0: 3656 b4bd b374 42bd 4679 8d3d 91c4 003e
000003b0: e818 03be bfab ec3d 9c68 babd a1f5 53bd
000003c0: ef0c fe3d 1045 adbd 06e0 20be c1ac 20be
000003d0: 521c f2bd 2d09 bb3d 540a 043d 7495 793d
000003e0: cfce 13bd 31ff 37bd d6b4 753c 3267 8f3d
000003f0: 083f b03d e047 dc3d b796 093f 0d41 12be
0.22012867 -0.12103296 1.3997548 -0.15937094 0.16556953 0.071513385 -0.23629944 0.060971275
-0.7050779 -0.08464753 0.17881478 0.096827425 0.2600283 0.8470834 0.21478404 2.0153124
0.7707319 -0.007707474 0.64859796 -0.076669656 -0.14213622 -0.13279633 -0.579326 -0.08241572
0.05035003 -0.0050027734 -0.11778725 -0.29156145 -0.5509003 -0.124136 0.041377652 -0.84631604
-0.12921889 0.78820294 -0.34742612 -0.19472317 -0.110905014 -0.65597457 -0.07396232 -0.91799885
-0.05366809 0.59250516 0.44112998 0.13493401 -0.1930955 0.057691164 0.13966602 -0.041880846
0.7441935 0.118944645 0.2933661 -0.117504165 0.90459377 -0.060204413 -0.032151207 0.7310928
-0.15450427 0.784394 0.78276575 -0.112786286 0.4486184 0.108668216 0.35706815 0.61019
0.975387 0.14152561 -0.07761552 -0.10844956 0.33100224 0.46826684 0.5382961 0.61351347
0.9018508 1.0223573 0.7324216 -0.35179368 0.6869167 0.0016395395 -0.109463006 0.4902197
0.6489495 0.5791928 -0.037752166 -0.16549748 0.075755954 0.03074047 -0.008816368 0.00088681927
-0.111342475 -0.12985413 -0.09340555 -0.080021 -0.038744017 -0.11958271 -0.12838554 -0.12016842
0.10752505 -0.023132278 0.05299924 -0.10026516 0.1483126 -0.14260565 -0.03598586 -0.020231705
-0.16464616 -0.0319409 -0.10076724 0.097645864 0.04146867 0.036741454 0.02298082 -0.08708859
0.025413945 -0.013133906 0.02029906 0.044765446 -0.120881505 0.034964286 -0.07749264 0.13275924
-0.02845877 -0.12658986 -0.09074522 -0.103670895 0.119289644 0.010129211 -0.11081645 -0.13052389
0.23086368 -0.07003914 -0.11459059 -0.03333632 0.006925454 0.024550611 1.2615056 -0.054034512
-0.10846714 -0.105248876 0.15456651 0.22841139 0.11787892 -0.5662076 -0.1743238 0.13084434
0.66982114 0.042912938 -0.058042765 0.36061475 -0.08131694 0.30721375 -0.05692339 -0.01715835
-0.073111035 0.022821158 0.16756342 -0.0137352375 -0.08110867 0.6697006 -0.25351757 0.120122425
-0.060006637 0.3431438 -0.10748693 0.30409807 0.07133881 -0.13127619 0.020080844 -0.73654205
0.066128284 -0.111648224 -0.18989371 -0.027495857 -0.05912547 0.11435095 0.56380177 0.018340278
0.3626635 -0.2289332 0.9860368 0.47461665 -0.13208798 0.5438313 -0.08960133 0.3095991
0.6581209 0.007527314 0.02112124 -0.012659522 0.24796699 0.5996502 0.8818731 0.057953216
-0.07317646 -0.13412963 -0.036488734 0.2822959 0.1883085 0.11119304 -0.11679568 -0.008184745
1.0096687 0.31879598 0.5713449 0.10793384 -0.0006124623 0.24789116 -0.20607723 0.057709437
-0.05640632 -0.7052358 0.020665329 0.06351157 -0.0067837974 0.08881517 0.018044863 -0.15685825
0.1180334 0.03557535 0.06831484 -0.11608797 -0.15558712 -0.048294846 -0.1020094 -0.0019125312
0.03868381 0.1486684 0.09858672 -0.01336036 -0.17542012 -0.1409107 0.043704264 -0.028802453
-0.08805506 -0.047474574 0.06907897 0.12574984 -0.1280247 0.115561955 -0.09101984 -0.05174792
0.12404811 -0.08460438 -0.15710458 -0.156909 -0.11821808 0.091326095 0.032236412 0.060933545
-0.0360859 -0.044921104 0.014996728 0.07002105 0.08605772 0.107558966 0.537456 -0.14282627

fc1.bias f4 [50]
00000000: 3b43 10bd 11cf 593e b589 0cbe afd1 ba3c
00000010: 5c23 e23d 9463 d4bd bbaf 343e df9b 943d
00000020: 3e61 50be 972b 1abe d9b9 263d 1136 1ebd
00000030: 5862 5fbe 6511 16be 017f a5be 0f1a 513d
00000040: 9088 913e 80bd cb3c 055e 49bc 7416 323e
00000050: 128c 543d a351 73be 4b3c d03d 38f0 c5bc
00000060: fc7e 8f3e 7298 6dbe 8f27 023e 3bdd a6be
00000070: 04d8 39be bde8 c0be 4f6d c43d 837a 6ebe
00000080: ceea ddbe f9f3 943c 7a6e 59be ba2b 4dbe
00000090: c058 d3be 9efb 68be 3483 213e db27 85be
000000a0: e486 a4be f454 86be 1d23 883e 2d0f 8cbe
000000b0: 613f 2a3d 849f acbe 8ad9 083f 7085 333e
000000c0: c5de 4cbd f1c9 c0be
-0.035220366 0.21270396 -0.13724406 0.022805063 0.110419005 -0.103705555 0.17645161 0.072562926
-0.20349595 -0.1505569 0.040704582 -0.03862578 -0.21814859 -0.14655073 -0.3232346 0.051050242
0.284245 0.024870634 -0.012290482 0.17391378 0.051891394 -0.2376161 0.1016775 -0.024162397
0.2802657 -0.23202685 0.12710403 -0.3259066 -0.1814881 -0.37677565 0.095911615 -0.23288922
-0.43343204 0.018182741 -0.2123355 -0.20036212 -0.41278648 -0.22752234 0.15772706 -0.2600697
-0.32134163 -0.2623669 0.2658929 -0.27355328 0.04156435 -0.3371545 0.5345694 0.17531371
-0.050017137 -0.3765407

fc2.weight f4 [30, 50]
00000000: 6d56 84bd 66ef c93d f956 b0bd 3d60 943d
00000010: 0642 32bd 89f6 3eba 8426 6fbd c29a 45bd
00000020: 87af b5bd 6e6e a53d 9f08 9abd e4fa b33c
00000030: 1dfd b1bd 65e1 3f3d 0f1d d93c 37b8 19be
00000040: 98e4 7cbd 66e9 1dbd 3663 c8bd e72e 25be
00000050: 8304 703d 72e3 04be 3589 88ba 0241 01be
00000060: 75f9 21ba 930f aebd accf c9bc b4fa 6e3d
00000070: 55fa 8f3d 6f74 453d 5837 17be 15fb 13bd
00000080: f3fc c23d 7437 883a c266 933c d300 533b
00000090: 3e6c 1ebe a459 a53d 253b 18be f1ea aa3c
000000a0: be52 d73d bf9a 843d 8946 d8bd cfc0 abbd
000000b0: 15c7 0abe d61d 78bd 3532 c9bd 7f60 3ebd
000000c0: 95d5 e13c a553 4d3d 2495 193d 03d9 e7be
000000d0: 5e42 0c3e da6a 9abd fa36 043f 10be 003e
000000e0: f0e2 c5be 8eab 083f ece3 4ebe 823a 013f
000000f0: 5ce3 0bbf 60d1 d5be 0923 db3e 8cb9 a63d
00000100: c775 fa3e be58 1dbe 9a98 59bf 7126 423e
00000110: b58e 973d 1f32 5abf 34c9 0abf ea10 26bd
00000120: 29ed c43d 38fc 96be e88c 37bf f651 76be
00000130: 3a2c b3be 2976 5f3e 546c 8c3d bb7a 0b3e
00000140: 26bd 9dbe 747a c2be c217 aabe 226c 19bf
00000150: 3296 523f 01f5 0a3f 66e7 843c 71a2 053f
00000160: daac 9dbe cd76 38be 9e6c f63e 44d3 b1bd
00000170: ea7e 4abe ea98 fa3e d985 61bd 3d09 323e
00000180: 150a 23bd 922e cabe ec8f a43d f3bf e33e
00000190: b3ff 0dbe d845 82bf a8a9 803d 0c1c 153e
000001a0: 047f 28bf 4b6b 3fbd 3a7f adbf 2442 1b3e
000001b0: 3ba9 463e a29f 653f b056 df3e 85e3 2abf
000001c0: ddcb b73d ec2c 883f 05a8 173e 32fc 5fbe
000001d0: ef4b 6fbf 3e51 0f3f 79ab a8bd 8570 2bbf
000001e0: 0c01 253e 35ae 473e 9353 a33e 5f31 663e
000001f0: 47cf 1cbf 32ed 093d 5312 f9bd c441 f83d
00000200: 6df4 7c3e 09c8 bebe 2f56 8c3f 0a72 1f3e
00000210: 34f5 ae3e 3345 c3be 7014 5e3f 6dcc f63e
00000220: 558d ce3e 4bab 443f 1a65 05be 852e 13bf
00000230: e6aa 123e 6382 343f e7b7 9dbe 012a 073f
00000240: 55c1 e83e ae34 343f edbf ee3e 9d24 63be
00000250: 6f30 453d 0363 0040 d101 83be b16d 8ebe
00000260: 6c6c e2bd c9a5 bf3e 6abb 82be 6828 163d
00000270: 541c 92bf 816a 193e 8e22 753e 24e8 913e
00000280: 94ec 823d a900 05be 6d41 253e d0c9 9a3f
00000290: c3ae 31bf d359 0cbe e0a7 6cbe 5293 d23e
000002a0: ba76 3d3e cac6 a3bd b023 ab3e 92f2 013e
000002b0: 89b3 5e3e f8b3 883e f948 b5be c305 aebd
000002c0: 7e07 0abe 12ac b93e a4d5 353e fdd9 263e
000002d0: 1aba b13f fe90 df3d 39a4 6a3e 8b52 44be
000002e0: 0d05 5a3f d152 233f e2fd 3f3e 3842 4f3f
000002f0: d4b5 4c3e 1242 223e b4fd b73e 3ad6 083e
00000300: 6551 143e 8560 283e 74d6 1c3f e721 5a3e
00000310: 2fca 5d3f 84ab dd3d 8d5c 28bd 5ca5 1040
00000320: a544 eabd a5cb 6ebe d7a9 36bd 6329 84bf
00000330: cd99 fd3e 2163 a33d b1e8 7e3e 0bb9 133f
00000340: ab55 12bf 1b11 f03e 261d 2dbf 1565 b0bd
00000350: 0b65 143f 4a6f e1be 2fed 1f3f ceda 5fbd
00000360: e08a 173d 5d90 d2be 475a 1cbe 2853 08bf
00000370: 64fa 0ebf 2061 a3be 3592 873e 50a0 eebd
00000380: b492 09bd 4505 5a3d 57a4 473c 5a81 e33e
00000390: 70e8 2ebe 676a 363e e632 42bf 387b 473e
000003a0: fa7b 8ebe bac1 07be f69e 163e f6b3 84be
000003b0: d152 ef3e f0a7 04bf 4594 35bf 82d0 49bd
000003c0: d623 093f f0f6 ea3c ed71 ed3d 249f 7ebe
000003d0: c362 f2be 0c92 e03e 21b7 0dbf 45df 433e
000003e0: e2e9 643d 6217 8abf 1202 a7be b751 10bf
000003f0: bbe8 45bb 578c 123f 8691 32be efa2 84bc
-0.06461797 0.09860115 -0.08610339 0.072449185 -0.043519996 -0.00072846614 -0.05838634 -0.04824329
-0.0887137 0.080777034 -0.075211756 0.02197022 -0.08690856 0.046845812 0.026503114 -0.15011679
-0.06174144 -0.038552664 -0.09784548 -0.16131173 0.058598053 -0.12977389 -0.0010416867 -0.12622455
-0.00061788346 -0.08499064 -0.024635158 0.058344558 0.07030169 0.048206743 -0.14767206 -0.036128122
0.095209025 0.0010392503 0.017993335 0.0032196536 -0.15470979 0.08073738 -0.14866312 0.020863982
0.10513829 0.06474828 -0.105603285 -0.08386385 -0.13552506 -0.06057533 -0.09824029 -0.046478745
0.027567664 0.050128598 0.037495747 -0.45282754 0.13697192 -0.075399116 0.5164639 0.12572503
-0.38649702 0.5338677 -0.20204133 0.504799 -0.546438 -0.41761303 0.42800167 0.08140859
0.48917982 -0.15365884 -0.84998477 0.18959977 0.07400266 -0.8523273 -0.5421326 -0.040543474
0.09615547 -0.29489303 -0.7169938 -0.24054703 -0.3499468 0.21822418 0.068565995 0.13621037
-0.3080837 -0.3798405 -0.3322125 -0.5993062 0.8226043 0.54280096 0.01622362 0.5220099
-0.30795938 -0.18014069 0.48129743 -0.08682874 -0.19774976 0.4894479 -0.055059288 0.17386337
-0.039804537 -0.39488655 0.080352634 0.44482383 -0.13867073 -1.0177565 0.06282359 0.1456148
-0.6581881 -0.046733182 -1.3554451 0.1516195 0.19400494 0.89696705 0.43620825 -0.6675342
0.08974431 1.0638709 0.14810188 -0.21873549 -0.9347524 0.5598334 -0.08235831 -0.66968566
0.1611368 0.19500048 0.318997 0.22479771 -0.6125378 0.033673473 -0.12161698 0.12121919
0.24702616 -0.3726199 1.0963801 0.15570846 0.3417145 -0.38138732 0.86749935 0.4820284
0.40342203 0.7682387 -0.13026848 -0.5749286 0.14323005 0.70511454 -0.3080437 0.5279847
0.4546 0.7039288 0.46630803 -0.22181936 0.048141893 2.0060432 -0.25587323 -0.27818063
-0.11055836 0.37431172 -0.2553361 0.03665963 -1.1414895 0.14982034 0.23938963 0.28497422
0.0639278 -0.12988533 0.16138239 1.2092838 -0.6940729 -0.1370614 -0.23110914 0.4112802
0.18502322 -0.079969004 0.33425665 0.1269019 0.21748175 0.26699805 -0.35407236 -0.08497193
-0.1347942 0.36264092 0.17757279 0.16294093 1.3884919 0.10916327 0.22914208 -0.19172113
0.85163957 0.6379824 0.18749192 0.80960417 0.19991237 0.15845516 0.35935748 0.13362971
0.14484175 0.1644307 0.6126473 0.21301995 0.8663663 0.1082373 -0.04110389 2.2600927
-0.11438874 -0.23319872 -0.044595566 -1.032513 0.49531403 0.07977892 0.24893452 0.5770423
-0.5716197 0.4688805 -0.676226 -0.0861303 0.5796668 -0.4403022 0.6247129 -0.054652028
0.036997676 -0.41125765 -0.15268813 -0.53251886 -0.55850816 -0.31910038 0.26478735 -0.11651671
-0.033587173 0.05322768 0.012185178 0.44434625 -0.17080855 0.17814027 -0.75858915 0.19480598
-0.27828962 -0.13257495 0.14709076 -0.2591855 0.4674287 -0.5181875 -0.70929366 -0.049271114
0.53570306 0.028682202 0.11593995 -0.24865395 -0.47340974 0.43861425 -0.5535756 0.1912814
0.05588711 -1.0788386 -0.32618767 -0.56374687 -0.0030198533 0.5724539 -0.17438325 -0.016190974

fc2.bias f4 [30]
00000000: 7a0e f4bb af42 debd 0c98 25be dfd0 eb3c
00000010: 771d 01be 7fb7 9cbe 4549 02bf b83b 04be
00000020: 6426 8bbe 409f ae3b 0373 d9be fd8e 9e3e
00000030: 5e00 a93c b8f1 703e feb8 93be 2337 cd3d
00000040: 62a0 f1bd 077a e3bd 137b 47be 22f5 d73c
00000050: cee4 0abe 4c10 34bd 21e2 a0be 9431 85be
00000060: 2c93 7fbe e2c4 77be 6c9b 52be 3c82 2fbe
00000070: cb0a 00be 5b68 0a3f
-0.007448015 -0.10852563 -0.16171283 0.028786121 -0.12608896 -0.30608746 -0.5089305 -0.12913406
-0.27177727 0.0053290427 -0.4247056 0.30968466 0.020630058 0.23529708 -0.28852075 0.10020282
-0.11798169 -0.11107259 -0.19480543 0.026362006 -0.13563845 -0.043960854 -0.31422523 -0.26014388
-0.24958485 -0.24196199 -0.20567101 -0.17139524 -0.12504117 0.54065484

fc3.weight f4 [20, 30]
00000000: 053c b33d e627 393e b59f 973e b9c4 4ebf
00000010: 0673 343f 5e2f 92bd 8246 1ebf 22bd 793e
00000020: 2785 aabf 0f9b fc3e a76b f5bd 1404 a33e
00000030: 6cc3 58bc 3a24 dc3f 87df b3bd 4aec cd3e
00000040: c75d 83bd 7268 c03e ab50 b7be c790 e1bd
00000050: c30d 4cbb 1c7c e13d 8cf3 dabe d52b ddbe
00000060: 858b debe 2be0 b9bd 1d62 e43c c3e0 6bbf
00000070: 069f df3d 687e 093f 5bcc 37be 7cbd b9bd
00000080: 4b71 88be cf7b febe 3d75 0dbe 1a67 91bd
00000090: 2358 f53e 3e15 793d ada8 d9be 88a5 053e
000000a0: 9234 1b3d 4134 d13e e0bb 313d bb5b d23e
000000b0: 490a babd 1d5f cf3c e370 2fbe fddb 993e
000000c0: 8c98 d83e 10c5 613e a17b 033e aea1 15be
000000d0: 24f6 9abe 7c03 8f3e 20f2 1bbd 51a5 513f
000000e0: 8647 2dbe 1ce2 5cbe eeff 293e 44d2 353f
000000f0: 8572 8c3d 7590 03be 9058 c93d 39b2 6f3d
00000100: 8bfd e63d 2904 393e 93bc 913e 9d60 bf3c
00000110: 65bb 393e 242c d63e 4891 d03e 9efd 8a3e
00000120: 720a eabd 62d3 063e 45e6 3b3c 1e8c 2abf
00000130: e25e 52bc 49ce c33e 7f2c 853f f890 8bbd
00000140: 0f8b 383d 39cb e2be 3482 63bf afc7 683f
00000150: ed5b 173e 28a7 a33f 2ec3 1dbe 7cc7 033f
00000160: 140f 713d 0f0d 863e b0d7 573d 49de 30bf
00000170: 066d a53e ee84 73be f31a 153f b8ba d1be
00000180: 6506 513f c476 ff3e cca6 233d 0d88 16bd
00000190: 5804 ca3e 6687 0e3e 76cb 65be 4ff3 693f
000001a0: cad1 cb3e 12fe 2cbf 5322 203e e225 0b3e
000001b0: 08d1 a73e 61d0 6cbc afc9 e6bb dd07 9abf
000001c0: e1c6 9a3e cbbe f83e 56a5 fdbc 0505 093b
000001d0: ac3e afbe 83c6 a43e f34e acbd ccb0 06be
000001e0: ecb0 29be d9c9 d53e ba60 ff3e d561 cc3d
000001f0: 02d1 0dbe 6a63 803e b308 453f 3578 10bf
00000200: 282c 4c3e 7d00 1c3f 1cdb f03e 32a7 9a3f
00000210: 34ad 4b3e 1c44 523f deea 613f 4ece 93bb
00000220: 37a8 043c 07dd 443f 0923 593f a65e 12be
00000230: aa5b d6b9 cf33 1c3f 4f8c 60bf fe2f 983f
00000240: 0379 953e 30f6 7b3f 0e24 513e 67dc b13e
00000250: 96b2 5c3d a7be 003e d781 043e 3862 2c3f
00000260: 2283 1abe b89d a4bd 25c5 3b3f 0470 9fbf
00000270: c851 5c3f 5bde c6be 13c2 8cbf d86b 1cbf
00000280: f84b 323e d746 babf 3bcd d9bc 6c92 81bf
00000290: f0b3 47be 47b6 313d 2ce8 39be ec38 113e
000002a0: 2951 7cbe ed9b 063d 458e bebc f7fc b83e
000002b0: 01ce bc3e 11ba aebc d943 85bf 0489 f1be
000002c0: 81a1 68bf 9213 083f 6435 823d c648 9abf
000002d0: 711a fdbd 6efb 373e 7e78 d4be 18a5 6abf
000002e0: e929 f13e 230c 04bf 3b87 07bf 7a4e 053f
000002f0: c355 a7bf 6811 3ebe 91ea c43c e79d f43e
00000300: cecf 063d 84c2 933f 18c8 db3c 52ef 9b3e
00000310: cf58 4cbc 5223 d6bc 882d 5ebe db87 f03d
00000320: 21a3 be3d 6aca 613e 6810 8e3e a955 3fbe
00000330: b084 0fbf 1eda 12bf 51a0 1cbf 8ff3 1fbf
00000340: a4f0 afbc bff2 ca3e e7cf 0e3e 2066 6ebe
00000350: ac0a cabd 883d 57be 69f2 bb3e 587a 6abe
00000360: 1628 3b3f 932d e43e 2caa 0fbe 5b61 a53e
00000370: 8065 d83e 1eb7 7f3c 4a51 e4bd ca84 ae3f
00000380: 1a20 a13d 3993 2bbf 49b8 eabd 928d 933d
00000390: 1447 ad3e 7974 913b 0935 38be f110 7fbf
000003a0: 18d3 a13e f512 9d3e 8a01 26bc f4ec 40bc
000003b0: 2aca 1bbd 83cc 173e 4f21 34be e7d5 85bc
000003c0: d649 0abe e291 3abe c8d1 14bd 4dcb 883e
000003d0: 63cc e53d 0bc7 debd f5e6 43bf b279 58bd
000003e0: 3215 303f 6603 5c3e af3c f3be b500 033b
000003f0: e7ca f5bd f9e5 49bf 4f87 0fbf e302 853e
0.08751682 0.18081626 0.29614034 -0.80768925 0.7048801 -0.07137941 -0.61826336 0.24388555
-1.3321885 0.4933705 -0.11983424 0.3183905 -0.013230186 1.7198555 -0.08782869 0.40219337
-0.06414371 0.37579685 -0.35803732 -0.11013942 -0.0031136132 0.1101 -0.42763937 -0.43197504
-0.4346582 -0.0907596 0.027878815 -0.92139834 0.10919003 0.53708506 -0.17949049 -0.090693444
-0.26648936 -0.49703833 -0.13814254 -0.07099743 0.47918805 0.060811274 -0.42511502 0.13051426
0.03789193 0.4086018 0.043392062 0.4108561 -0.09083993 0.025313908 -0.17132907 0.3005065
0.42303884 0.2204783 0.1284013 -0.14612457 -0.30265915 0.27932346 -0.038072705 0.8189288
-0.16921815 -0.21570629 0.16601536 0.71023965 0.0685778 -0.12848075 0.09831345 0.058519576
0.11278828 0.18067993 0.28464183 0.023361498 0.18137892 0.41830552 0.4073584 0.2714662
-0.114277735 0.13166574 0.011468475 -0.6662005 -0.012840005 0.3824332 1.0404204 -0.0681476
0.04505449 -0.44295672 -0.8887055 0.90929693 0.1478116 1.2785387 -0.15406486 0.51476264
0.05885227 0.26181838 0.05269593 -0.6908918 0.3230974 -0.23781177 0.58244246 -0.40962768
0.8165038 0.49895298 0.03995399 -0.036750842 0.3945644 0.13918838 -0.22440895 0.91386884
0.39808494 -0.6757518 0.15638094 0.1358867 0.32776666 -0.014453978 -0.0070430855 -1.203365
0.30229858 0.48583063 -0.030962627 0.0020907533 -0.34227502 0.32182702 -0.08413496 -0.1315338
-0.16571397 0.4175556 0.49878484 0.099795975 -0.13849261 0.25075847 0.769664 -0.5643342
0.1993872 0.60938245 0.47042167 1.2082274 0.1989029 0.82135177 0.88249004 -0.0045106774
0.008096746 0.7689976 0.84819084 -0.14293918 -0.00040885556 0.61016554 -0.87714094 1.1889646
0.29193887 0.9842253 0.2042391 0.34738466 0.05388125 0.12572728 0.12940155 0.6733737
-0.15089086 -0.08037895 0.73347694 -1.245606 0.8606229 -0.3884152 -1.0996727 -0.61102057
0.17411792 -1.4552869 -0.02658712 -1.012281 -0.19502234 0.043386724 -0.18154973 0.1418187
-0.24640335 0.032863546 -0.023261199 0.36130497 0.36875919 -0.021328958 -1.041133 -0.47174847
-0.90871435 0.5315486 0.0635784 -1.2053459 -0.12358559 0.17967007 -0.41498178 -0.91658163
0.47102287 -0.5158102 -0.5294072 0.5207287 -1.3073047 -0.18561327 0.024037631 0.4777672
0.03291302 1.1543736 0.02682881 0.30456024 -0.0124723455 -0.026139889 -0.21697056 0.117446624
0.09308458 0.22049871 0.27746892 -0.1868502 -0.5606184 -0.5736407 -0.61182123 -0.62481016
-0.021477051 0.39638326 0.13946496 -0.23281145 -0.09865317 -0.21019566 0.36708382 -0.22898233
0.7310804 0.4456602 -0.14029759 0.3230084 0.42264938 0.015607623 -0.11148317 1.3634274
0.07867451 -0.6702152 -0.11460931 0.07204737 0.3384329 0.0044389335 -0.17988981 -0.99635226
0.31606364 0.30678526 -0.010132203 -0.011775244 -0.038034596 0.14824109 -0.17590831 -0.016337348
-0.13504729 -0.18219712 -0.036332875 0.26717606 0.11220624 -0.10877808 -0.7652429 -0.052850433
0.6878234 0.21485671 -0.47507235 0.0019989435 -0.12001591 -0.78866535 -0.5606584 0.25978765

fc3.bias f4 [20]
00000000: 198b 833e d61c 733e 5fd1 00bf 7a67 1ebe
00000010: d89c 9fbd 68d5 a6be 48fc b93e 164f 2ebf
00000020: 0cdc f4be 8a63 d0bd cdda 15be c014 763d
00000030: 7a32 afbb 72af d83c 194a 37be bc8d 96be
00000040: 1512 4cbe 8b7d cebe 5935 80bd 0b38 303f
0.2569206 0.23741469 -0.50319475 -0.1546916 -0.077935874 -0.3258469 0.36325288 -0.68089426
-0.47824132 -0.101752356 -0.14634247 0.060078382 -0.0053465934 0.026450846 -0.1789936 -0.2940501
-0.19928773 -0.40330157 -0.06260175 0.68835515

fc4.weight f4 [5, 20]
00000000: bb7a 53c0 ad25 eabf c6e8 f9bf de24 b13e
00000010: 9043 04c0 8017 08bf e864 5ebf 7ccb 733e
00000020: fc92 74bf 8bd5 46c0 4616 57bf 9455 dabe
00000030: b48e f7be 784b dbbe f5a7 92bf dc52 b4bf
00000040: 839c e0be 4831 0ebf c30f ec3d c777 72c0
00000050: e17b bfbf 49ee b2bf 6ff1 0fbf 1d00 34c0
00000060: 0b07 14c0 eff4 d93c 9df0 5cbf ec76 f6bf
00000070: da92 70bf 68b3 83c0 6841 51c0 d211 c3bf
00000080: e7ff f8bf a321 d3be 6955 b0bf 2c20 2dc0
00000090: 2adf 8dbf 9cbf 3ec0 e0d6 57be 1191 51bf
000000a0: c270 84bf add8 64c0 e6e7 08bf d58a 1bc0
000000b0: b69a 1ebf fec1 9bbf fd47 2cc0 ab5d fdbf
000000c0: 2d3e 0ebd 9c7e 5c3e ec1d 80bf a976 fdbd
000000d0: 9198 dbbe e4d5 f3bf 0a73 2fbd 0013 dabe
000000e0: ed3f 88c0 3cbf 93be cc68 16bd a030 00c0
000000f0: 0863 24be fb55 14bf f52e f5be 03d1 25bf
00000100: 33a3 f6be 5b2d 90c0 1154 3bbe 8304 56bf
00000110: 02df 2cbf 02dc 2abf 4ea6 07bf 92e4 2ec0
00000120: 9760 5dbf 9e9d 92be b415 33bf a772 1cbe
00000130: b4ca 3cbf 3a04 ddbf 4cc8 5d3e 5fc2 6bbe
00000140: 71c6 94c0 1f8d 003f 130f 773f c630 a8bd
00000150: 33aa e33e c446 5dc0 1910 bcc0 809b 85bd
00000160: a581 0fc0 fda9 fdbf ca10 673e ab2f a1c0
00000170: a670 16be a202 5dc0 1e01 1cc0 8adf 3e3f
00000180: 5f8e 123e 24e7 44bd fd3b 2a3d eab6 71c0
-3.3043659 -1.8292748 -1.9524162 0.3459844 -2.0666237 -0.5316086 -0.8687272 0.23808092
-0.9553678 -3.1067836 -0.8401836 -0.42643416 -0.4835106 -0.42831016 -1.1457506 -1.4087787
-0.4386941 -0.5554395 0.11526444 -3.7885606 -1.495968 -1.3978969 -0.56227773 -2.812507
-2.3129299 0.026606051 -0.86304647 -1.9255042 -0.9397408 -4.11565 -3.269617 -1.5239813
-1.9453095 -0.412366 -1.3776065 -2.7050886 -1.1083729 -2.980445 -0.21078062 -0.8186198
-1.0346911 -3.5757248 -0.5347885 -2.4303486 -0.6195482 -1.2168577 -2.6918938 -1.979421
-0.034727264 0.21532673 -1.0009131 -0.12376148 -0.42889836 -1.9049649 -0.04283432 -0.4259262
-4.2578034 -0.28856838 -0.036721036 -2.0029678 -0.16053402 -0.57943696 -0.47887388 -0.6477205
-0.48171386 -4.5055366 -0.18293788 -0.83600634 -0.6752778 -0.66741955 -0.52988136 -2.7327008
-0.8647551 -0.28635877 -0.6995499 -0.15278111 -0.737468 -1.7266915 0.21658438 -0.23023365
-4.649224 0.50215334 0.96507376 -0.08212428 0.4446579 -3.4574442 -5.876965 -0.065238
-2.2422879 -1.9817501 0.22564998 -5.037069 -0.1469141 -3.4532857 -2.4375682 0.74559844
0.14312123 -0.048071995 0.041561116 -3.7767892

fc4.bias f4 [5]
00000000: 3c94 83bf be04 42bf eb8d 33bf 35f9 a5be
00000010: 7d8a 4ac0
-1.0279613 -0.75788486 -0.70138425 -0.32416692 -3.1647027
