Defense/RSLAD/RSLAD_10.pt (torch, 20620 bytes, 8 tensors)

fc1.weight f4 [50, 42]
0.07085364 0.087431036 -0.0054844357 -0.08042167 0.07523228 0.11920308 0.07857415 0.104615115
0.09593662 0.00040795087 0.13286224 -0.091469415 -0.025801044 -0.09481149 -0.058031883 0.108527765
0.036299642 -0.119712956 0.08110976 -0.03511964 -0.14448929 -0.1417847 -0.11306778 -0.0970257
-0.09729735 0.15001288 -0.010046466 -0.015825415 -0.06672682 0.05105141 0.06765007 -0.06366077
-0.0352164 0.07670885 -0.13304389 -0.11620204 -0.03932401 -0.070678174 -0.06900051 -0.12793234
0.11133262 -0.057866555 0.055473424 -0.1472523 -0.07036981 -0.048571795 -0.10727642 0.100624636
-0.12528932 -0.12491931 -0.035895832 -0.12930618 -0.093547285 -0.11180675 -0.111639544 -0.13769348
-0.14487918 0.1459786 -0.014492151 -0.06084378 -0.0687278 0.048113517 -0.030323893 0.057950232
-0.0014307711 -0.15071507 0.01032939 0.10476902 -0.0788511 0.12246312 0.1361769 -0.022511555
-0.09564029 -0.06794337 -0.014692595 0.036050692 0.067679815 0.055747982 0.14098117 0.15227453
0.010274924 -0.0564358 0.09917017 -0.05402816 0.112831414 -0.017957766 -0.025814876 0.07453522
-0.05303777 0.13566336 0.021487318 0.096057065 0.052155904 0.01676877 -0.106222935 -0.10192468
0.096161895 0.09609993 -0.13351907 0.07862459 0.007033041 0.14658159 -0.0026548444 0.11651673
0.12616137 -0.066916965 0.09497673 -0.025743045 0.06255254 -0.09986186 0.012997018 0.118403
-0.059370644 -0.10373292 -0.13139826 -0.013189552 0.12771565 0.10683381 0.03248893 0.018639756
0.1516357 -0.0074064475 -0.076700024 -0.06644257 -0.13182504 0.111997426 -0.040746193 0.12887265
0.045462478 0.15105832 -0.033296704 -0.1538765 0.12046137 0.08426998 0.12959844 0.0047459193
-0.1167455 -0.0026180004 -0.052774508 0.05797543 -0.12866753 -0.05057255 -0.054225218 0.06741405
0.13425694 -0.07341644 -0.110794894 -0.13273495 -0.14154722 0.06589488 0.14243355 0.093630716
0.073232144 0.12813772 -0.045022815 -0.14253221 0.014276312 -0.07123338 0.03338656 0.065123804
0.056606025 0.060755763 -0.051363826 -0.0865175 -0.0171073 -0.14193395 0.07522978 0.087253824
-0.15153863 0.03196497 0.011170989 -0.13884804 0.14625998 0.10428736 -0.1527441 -0.09035933
0.043046687 -0.007294812 0.053548176 -0.13844518 -0.09707003 -0.06109937 0.121803775 -0.09577274
0.06799607 0.029572355 -0.004278591 0.11799812 -0.03103215 0.034755692 -0.13171594 0.13956264
0.050939705 0.03539519 0.008479098 0.12707877 0.112868406 -0.00875781 -0.08926963 0.03282338
-0.066801116 -0.13039848 0.050626136 -0.09686918 0.015029599 -0.07113189 0.14067933 -0.09697204
0.097610585 -0.014984717 -0.09569887 0.0049582273 0.09419287 0.1230382 0.05590608 -0.07251351
-0.015788056 0.056866672 0.03691584 -0.11565171 0.13883282 0.04056799 0.10074512 0.15012807
0.10174246 -0.04555125 -0.11327058 -0.08110449 0.012365981 -0.106028445 0.08753123 0.08208998
0.09976704 -0.041127805 -0.0007371553 0.053485416 0.12851413 -0.015226383 0.09853807 -0.14699237
-0.13113306 -0.046918526 0.15112726 -0.0595277 0.011501334 -0.14968441 -0.13498425 0.12851438
-0.13021511 -0.10277652 0.13397193 -0.050090674 0.054099917 -0.08537929 -0.028643327 0.044728618
00000000: b71b 913d 0b0f b33d c8b6 b3bb 1eb4 a4bd
00000010: 6213 9a3d bf20 f43d 7ceb a03d 7340 d63d
00000020: 6b7a c43d 3de2 d539 0a0d 083e 5154 bbbd
00000030: b65c d3bc 872c c2bd d7b2 6dbd ce43 de3d
00000040: efae 143d 112c f5bd e01c a63d 9dd9 0fbd
00000050: 00f5 13be 0230 11be 1590 e7bd 69b5 c6bd
00000060: d543 c7bd fa9c 193e ef99 24bc 4da4 81bc
00000070: 12a8 88bd 491b 513d 1f8c 8a3d 9460 82bd
00000080: 123f 10bd 8819 9d3d a83c 08be 56fb edbd
00000090: 3712 21bd b8bf 90bd 2450 8dbd b200 03be
000000a0: 5b02 e43d 7b05 6dbd 1a38 633d 4fc9 16be
000000b0: 0c1e 90bd 38f3 46bd bdb3 dbbd 4a14 ce3d
000000c0: d84b 00be b2d5 ffbd 8207 13bd d768 04be
000000d0: b895 bfbd f0fa e4bd 46a3 e4bd 85ff 0cbe
000000e0: 355b 14be 6a7b 153e 7d70 6dbc 5437 79bd
000000f0: 29c1 8cbd ae12 453d d069 f8bc 395d 6d3d
00000100: b688 bbba 0d55 1abe 9a3c 293c 2491 d63d
00000110: af7c a1bd f2cd fa3d f571 0b3e 276a b8bc
00000120: 0edf c3bd e525 8bbd 36b9 70bc e4a9 133d
00000130: b79b 8a3d ff57 643d 5e5d 103e dbed 1b3e
00000140: 2858 283c 3a29 67bd bb19 cb3d a24c 5dbd
00000150: 2814 e73d 2a1c 93bc b879 d3bc eca5 983d
00000160: 223e 59bd 56eb 0a3e 2c06 b03c 91b9 c43d
00000170: 6ea1 553d a95e 893c 698b d9bd e3bd d0bd
00000180: 87f0 c43d 0ad0 c43d 39b9 08be ee05 a13d
00000190: 6d75 e63b 7c19 163e e6fc 2dbb 53a0 ee3d
000001a0: 7230 013e c30b 89bd 2983 c23d 14e3 d2bc
000001b0: 8c1b 803d 6084 ccbd 72f1 543c 467d f23d
000001c0: a22e 73bd ed71 d4bd 448d 06be fe18 58bc
000001d0: e4c7 023e afcb da3d 1d13 053d 67b2 983c
000001e0: 6446 1b3e c9b1 f2bb e714 9dbd 0b13 88bd
000001f0: 25fd 06be e85e e53d 7be5 26bd 31f7 033e
00000200: dd36 3a3d 08af 1a3e 2062 08bd cd91 1dbe
00000210: 73b4 f63d bd95 ac3d 74b5 043e a883 9b3b
00000220: 4418 efbd c292 2bbb 152a 58bd a577 6d3d
00000230: 6cc1 03be 2a25 4fbd 431b 5ebd 6110 8a3d
00000240: a77a 093e 5c5b 96bd 6fe8 e2bd aceb 07be
00000250: c1f1 10be e5f3 863d 1ada 113e 76c1 bf3d
00000260: bcfa 953d 8936 033e d869 38bd f7f3 11be
00000270: 31e7 693c cee2 91bd 58c0 083d a15f 853d
00000280: b8db 673d 09db 783d e062 52bd 1630 b1bd
00000290: 9c24 8cbc 2257 11be 1212 9a3d 22b2 b23d
000002a0: f12c 1bbe b3ed 023d 8606 373c 2e2e 0ebe
000002b0: 2dc5 153e 9d94 d53d f368 1cbe 500e b9bd
000002c0: b951 303d 5109 efbb 5555 5b3d 93c4 0dbe
000002d0: a7cc c6bd 5543 7abd 4274 f93d 8024 c4bd
000002e0: 8641 8b3d b941 f23c 6c33 8cbb 00a9 f13d
000002f0: 2337 febc fc5b 0e3d 8be0 06be 82e9 0e3e
00000300: 27a6 503d 8cfa 103d eaeb 0a3c f020 023e
00000310: 8d27 e73d eb7c 0fbc ffd2 b6bd cf71 063d
00000320: 06cf 88bd 2e87 05be 5a5d 4f3d 5963 c6bd
00000330: b53e 763c 99ad 91bd 3e0e 103e 4799 c6bd
00000340: 0fe8 c73d 7582 75bc c5fd c3bd a078 a23b
00000350: 31e8 c03d 74fb fb3d c6fd 643d f781 94bd
00000360: f455 81bc 07ed 683d 1035 173d ceda ecbd
00000370: 312a 0e3e 9f2a 263d 7553 ce3d 2cbb 193e
00000380: 5a5e d03d f393 3abd 68fa e7bd 1c1a a6bd
00000390: af9a 4a3c 7125 d9bd 9343 b33d cb1e a83d
000003a0: a952 cc3d a175 28bd a83d 41ba 8613 5b3d
000003b0: 3599 033e 1478 79bc 54ce c93d 2b85 16be
000003c0: bf47 06be a42d 40bd 1bc1 1a3e 51d3 73bd
000003d0: 1770 3c3c df46 19be 5039 0abe 4699 033e
000003e0: 1c57 05be 7f7c d2bd f02f 093e e12b 4dbd
000003f0: e097 5d3d 56db aebd 69a5 eabc 5b35 373d

fc1.bias f4 [50]
-0.036801644 -0.043233685 -0.036880225 -0.12073508 -0.042645175 -0.14164752 0.028127547 -0.107196435
-0.07124868 -0.027260436 -0.0014752303 -0.10639582 0.08169815 -0.13650236 -0.017018365 0.09889236
0.038703937 0.049791433 -0.11367029 -0.13961163 -0.13510576 -0.14203407 0.13490272 -0.07651963
0.10913357 0.019458216 -0.014009869 0.042759497 0.10935633 -0.050431836 0.001757198 -0.0011516914
0.041570593 0.15290272 -0.1270327 -0.08046544 0.13868171 -0.14544746 -0.030433966 -0.14950597
-0.13801284 0.13595161 -0.056856483 0.108965665 -0.08181311 0.08416292 0.021248614 0.02621718
-0.05949455 0.058296543
00000000: 52bd 16bd ce15 31bd b80f 17bd f443 f7bd
00000010: b5ac 2ebd 0c0c 11be be6b e63c ce89 dbbd
00000020: d4ea 91bd 4751 dfbc 845c c1ba 0de6 d9bd
00000030: 5c51 a73d 46c7 0bbe 196a 8bbc 1488 ca3d
00000040: 0588 1e3d 1af2 4b3d f8cb e8bd 5af6 0ebe
00000050: 2a59 0abe 6171 11be f023 0a3e 53b6 9cbd
00000060: 6c81 df3d d666 9f3c a689 65bc 9524 2f3d
00000070: 36f6 df3d 9d91 4ebd c851 e63a 5af4 96ba
00000080: ed45 2a3d 8892 1c3e dc14 02be 11cb a4bd
00000090: 9402 0e3e 2ef0 14be a750 f9bc 1818 19be
000000a0: 3d53 0dbe e636 0b3e 58e2 68bd 6429 df3d
000000b0: a28d a7bd 9c5d ac3d 9311 ae3c 69c5 d63c
000000c0: 8fb0 73bd 5bc8 6e3d

fc2.weight f4 [30, 50]
0.09821165 -0.11454587 -0.07432552 0.058469836 -0.10414775 -0.12707445 -0.01865256 -0.1378828
-0.012570854 -0.0040247715 0.072576255 0.012786478 -0.08906526 -0.014765306 -0.0722847 -0.08358521
-0.019630082 -0.09262229 -0.07214971 0.049071662 0.10290457 -0.039499186 -0.006953438 -0.0031513537
0.11423319 0.11590222 0.114339314 0.098118864 0.11829397 0.077289216 -0.12103724 0.09963366
0.072629444 0.08990678 -0.06482814 -0.039951894 -0.039761912 -0.059153106 0.1274322 0.04917148
-0.018572398 -0.12388203 0.10586869 0.09878912 -0.040772527 -0.064904615 0.0029001415 -0.008464335
-0.09891146 0.061298043 -0.089730345 0.051464625 0.053800557 0.13581504 0.10723565 -0.046524946
0.043143876 -0.0028182082 -0.06688449 -0.11612911 -0.04390075 0.061267644 -0.12824613 -0.13551664
0.13795246 -0.04112703 0.12291317 0.12022204 -0.006538308 -0.04706276 -0.05057209 -0.06645899
0.080365025 -0.08514267 -0.019605838 -0.017575001 -0.017075898 0.015343089 -0.12252251 -0.061137512
-0.0039981683 0.018036071 -0.07038883 0.123799935 -0.099532925 -0.13415998 0.06336942 -0.054007616
0.110107146 -0.13744587 0.114331424 -0.072690204 0.13674943 -0.08378227 0.041345317 -0.018249266
0.07528515 -0.047098026 0.094421305 -0.011599201 0.06751736 -0.0635438 0.10745419 -0.046251684
-0.107589714 -0.09240982 0.03239837 0.021088261 0.021135734 -0.059284013 -0.050269626 0.081505634
-0.12879132 0.104891606 0.105391726 -0.09376887 -0.09379926 0.048034023 -0.09524886 0.049231265
0.009308772 0.017466009 0.030716928 0.018331924 0.02068977 0.035954043 -0.021791423 -0.039257042
-0.104506165 0.10394106 0.12374572 -0.047830574 -0.14007784 0.006299926 -0.12858954 -0.10511842
-0.11038842 -0.02532272 0.08001566 -0.011805502 -0.04044636 -0.05530975 0.058258396 -0.098463014
0.063601434 0.0031461613 -0.106717765 0.01173928 -0.0046299496 -0.016437389 -0.12666452 0.13915177
-0.13200596 -0.022362899 -0.10531986 0.054643713 -0.08767889 0.11942602 -0.12128878 -0.08255106
-0.07689701 -0.01372679 -0.12501518 -0.0665739 0.09367459 -0.10878001 -0.0100527825 -0.029401423
-0.13356686 0.09805841 0.11998121 -0.04664736 0.121565714 -0.025454186 -0.13665293 -0.09282643
-0.05033091 -0.08569891 -0.036081344 0.09045188 0.117508754 0.036790743 0.05972974 0.12963994
0.019599652 -0.12991288 0.0007255496 -0.028186549 -0.1201018 -0.0026290363 -0.09159483 0.12163362
0.020647608 0.08158801 0.07697013 -0.13622749 -0.10710776 0.12573259 0.13684471 0.045815412
-0.023937674 -0.029130857 0.12546967 0.11895392 -0.072455324 -0.082134165 0.13518828 0.087576926
-0.009723835 -0.10104652 0.030636411 0.14066452 0.0041452944 0.010470374 0.07819733 -0.06500236
0.09414377 -0.04624344 -0.041053947 0.12533092 -0.00822049 -0.11535561 0.10870723 -0.084160246
0.08044809 0.0063304403 -0.11540334 0.024322493 0.09116637 0.13724343 0.08090425 -0.08491206
0.030796602 -0.0740708 0.09906754 0.09398265 0.06554422 0.030836355 0.02829163 -0.07304167
0.11691637 0.0006622619 -0.0401424 -0.010275908 -0.052138723 -0.020575754 0.027589565 -0.08783559
0.02717526 0.013775142 -0.056529008 -0.04959467 0.08108354 -0.0024412635 0.11620262 0.10188263
00000000: 3123 c93d 0697 eabd fa37 98bd 117e 6f3d
00000010: 6a4b d5bd ce1f 02be 41cd 98bc 2631 0dbe
00000020: fcf5 4dbc 3be2 83bb dca2 943d 607e 513c
00000030: d967 b6bd 2fea 71bc 000a 94bd b92e abbd
00000040: 44cf a0bc c1b0 bdbd 3ac3 93bd 5eff 483d
00000050: a2bf d23d e6c9 21bd aad9 e3bb f186 4ebb
00000060: 17f3 e93d 255e ed3d bb2a ea3d 8bf2 c83d
00000070: 1c44 f23d cf49 9e3d 5fe2 f7bd bb0c cc3d
00000080: bfbe 943d 0c21 b83d 9ec4 84bd 99a4 23bd
00000090: 63dd 22bd 874a 72bd 967d 023e 0968 493d
000000a0: 2425 98bc ddb5 fdbd afd1 d83d f351 ca3d
000000b0: 1801 27bd b6ec 84bd 4d10 3e3b ffad 0abc
000000c0: 1792 cabd a813 7b3d 8bc4 b7bd 92cc 523d
000000d0: f95d 5c3d 1913 0b3e 5d9e db3d f190 3ebd
000000e0: a2b7 303d b0b1 38bb bcfa 88bd 19d5 edbd
000000f0: 46d1 33bd c8f3 7a3d f452 03be e0c4 0abe
00000100: 6943 0d3e d174 28bd e6b9 fb3d f936 f63d
00000110: 4e3f d6bb e1c4 40bd ae24 4fbd a71b 88bd
00000120: 6b96 a43d 485f aebd 6c9c a0bc 73f9 8fbc
00000130: c1e2 8bbc 9461 7b3c 15ed fabd 546b 7abd
00000140: 1103 83bb 62c0 933c 0528 90bd d28a fd3d
00000150: ebd7 cbbd 3c61 09be d4c7 813d 1737 5dbd
00000160: db7f e13d 9cbe 0cbe 9826 ea3d 9ade 94bd
00000170: 0b08 0c3e 0a96 abbd b559 293d 7c7f 95bc
00000180: 1a2f 9a3d dce9 40bd f55f c13d 930a 3ebc
00000190: 8b46 8a3d 4023 82bd f110 dc3d 6872 3dbd
000001a0: ff57 dcbd 5c41 bdbd 27b4 043d 4ac1 ac3c
000001b0: d924 ad3c cbd3 72bd 86e7 4dbd 6dec a63d
000001c0: dfe1 03be 69d1 d63d 9ed7 d73d e509 c0bd
000001d0: d419 c0bd 53bf 443d d611 c3bd b9a6 493d
000001e0: d283 183c e014 8f3c 11a2 fb3c d52c 963c
000001f0: 987d a93c 8c44 133d ed83 b2bc fecb 20bd
00000200: 5407 d6bd 0ddf d43d 656e fd3d fee9 43bd
00000210: 9170 0fbe 9c6f ce3b faac 03be 5448 d7bd
00000220: 5313 e2bd 9871 cfbc 40df a33d dd6b 41bc
00000230: 15ab 25bd 7a8c 62bd 5ba0 6e3d faa6 c9bd
00000240: 7841 823d d42f 4e3b d88e dabd 1c56 403c
00000250: d5b6 97bb b4a7 86bc 58b4 01be cd7d 0e3e
00000260: 922c 07be 6632 b7bc f0b1 d7bd 16d2 5f3d
00000270: fd90 b3bd a195 f43d 4066 f8bd 8810 a9bd
00000280: 2e7c 9dbd 55e6 60bc fb03 00be e657 88bd
00000290: 77d8 bf3d 0ec8 debd 6db4 24bc 41db f0bc
000002a0: c0c5 08be d9d2 c83d b5b8 f53d 4d11 3fbd
000002b0: 72f7 f83d 4c85 d0bc bfee 0bbe c91b bebd
000002c0: c927 4ebd e982 afbd 08ca 13bd d63e b93d
000002d0: 6ea8 f03d e4b1 163d 2ca7 743d 55c0 043e
000002e0: 738f a03c e207 05be cf32 3e3a 7ae7 e6bc
000002f0: eff7 f5bd e94b 2cbb 1296 bbbd 0c1b f93d
00000300: 2c25 a93c 9d17 a73d 84a2 9d3d 387f 0bbe
00000310: 505b dbbd 0bc0 003e 0521 0c3e f1a8 3b3d
00000320: f118 c4bc d6a3 eebc 1f7b 003e 1d9e f33d
00000330: 7563 94bd f535 a8bd cc6e 0a3e 885b b33d
00000340: b850 1fbc 7af1 cebd 36f9 fa3c 5c0a 103e
00000350: 40d5 873b ee8b 2b3c ec25 a03d f51f 85bd
00000360: 73ce c03d c369 3dbd 2f28 28bd c056 003e
00000370: 3caf 06bc 903f ecbd e5a1 de3d 355c acbd
00000380: f8c1 a43d 956f cf3b 9658 ecbd f73f c73c
00000390: 6fb5 ba3d 8b89 0c3e 21b1 a53d 60e6 adbd
000003a0: 2849 fc3c 6eb2 97bd ece3 ca3d fa79 c03d
000003b0: 0c3c 863d 869c fc3c d9c3 e73c df96 95bd
000003c0: da71 ef3d a59b 2d3a 5b6c 24bd 485c 28bc
000003d0: 6a8f 55bd 7c8e a8bc 8303 e23c 25e3 b3bd
000003e0: a79e de3c 22b1 613c f68a 67bd c823 4bbd
000003f0: 210f a63d 9bfd 1fbb a4fb ed3d d7a7 d03d

fc2.bias f4 [30]
0.075955905 0.10692297 0.08592239 0.06919108 -0.008205958 0.029605785 0.064151585 0.08903912
-0.08331362 0.06656864 -0.08051712 0.06476734 0.10333981 0.027191665 -0.11572579 -0.019799259
0.0932186 -0.018669166 -0.07068469 0.1209972 0.03777238 0.02717978 -0.109749824 0.012654693
-0.0011341043 -0.031828392 0.12337858 0.12936851 -0.016230145 -0.022802627
00000000: c58e 9b3d 6efa da3d 14f8 af3d 0eb4 8d3d
00000010: 4872 06bc d587 f23c e861 833d 245a b63d
00000020: 55a0 aabd 2455 883d 29e6 a4bd bda4 843d
00000030: d3a3 d33d 0ec1 de3c a501 edbd 0e32 a2bc
00000040: 65e9 be3d 14f0 98bc 22c3 90bd 61cd f73d
00000050: 36b7 1a3d 21a8 de3c 84c4 e0bd a155 4f3c
00000060: 3aa6 94ba 7d5e 02bd e9ad fc3d 2e79 043e
00000070: 15f5 84bc 93cc babc

fc3.weight f4 [20, 30]
-0.053153466 0.15033878 -0.09326592 -0.038099326 0.019268015 -0.11313196 0.062437717 0.12210757
-0.051749565 -0.066207334 0.082914576 0.09683098 0.021126794 -0.0513997 -0.15625185 -0.13262585
-0.068051554 0.1167555 -0.1482729 0.008019754 0.18017933 0.07607823 -0.14469166 -0.11960963
0.079697624 -0.124389976 0.14160709 0.07603363 -0.023177775 -0.033627324 -0.10832267 0.13937639
0.15712127 -0.049937405 -0.15694514 -0.020755187 -0.079509236 0.037789594 -0.055052225 0.11543052
-0.038840014 0.03265941 0.12586045 0.105725184 0.112708166 0.008896712 -0.10624033 -0.05833103
0.022883497 -0.03793879 0.14570156 -0.07403125 0.15762337 0.14081584 -0.028504537 -0.05469324
0.090776324 -0.124062374 0.09959109 -0.11486921 -0.08914231 0.16294862 0.10351352 -0.049873374
-0.020525571 0.1343847 0.121181145 0.028737092 -0.021228412 -0.1103813 0.08384832 0.08846177
-0.07524513 0.028605655 0.011272225 0.15877277 -0.17971341 0.111934215 0.15110369 -0.034333255
0.08824526 0.129831 0.062837556 0.067112565 -0.16635412 -0.16458587 -0.14553922 0.05631892
0.16537736 0.16731359 0.08711257 -0.024280345 0.08953825 -0.09624009 0.08269796 0.08791446
-0.10308874 -0.088387534 0.1475692 0.09205318 0.17502594 -0.046496216 -0.12198262 0.09357302
-0.11399843 0.16524069 -0.020438666 -0.026497804 0.050169677 -0.11272142 -0.11730919 -0.07343338
0.03471041 -0.012137148 -0.12589085 -0.14986166 -0.017535232 0.07616914 0.024978552 0.06510118
0.17203037 0.06835195 -0.17817788 -0.16583253 0.08072811 -0.0854656 -0.15469877 -0.014222886
-0.0020918115 -0.06895076 -0.14911358 0.06482496 -0.07315011 0.010906189 -0.090998664 0.011924529
0.11687707 -0.043079052 -0.10586705 0.17528422 -0.026186092 -0.085569136 0.14510854 -0.10138092
0.16989395 0.17633788 0.048579365 -0.04946416 -0.083363555 0.10783835 0.15988278 0.050593715
0.013435358 -0.08359391 -0.0719402 0.1409352 0.04589856 -0.09600001 0.15781896 -0.08204826
-0.13083123 0.16790815 0.1651481 -0.16519539 -0.037188478 -0.17946745 0.11877105 0.1431218
0.029700086 -0.085316814 0.15241604 0.086750254 -0.013058135 -0.17584008 0.088309094 0.036455538
0.13271661 -0.020877939 -0.06317505 -0.11428563 -0.092352964 0.040699273 -0.042514786 -0.036946043
0.057974722 -0.15669782 -0.08340225 0.13816354 0.118586026 0.03653156 -0.098429516 0.10352814
-0.0128393145 0.11074393 -0.039044037 0.017567487 -0.092568025 0.059681762 0.055836685 0.14984964
0.028117195 0.097194575 0.13177519 -0.04320078 0.11397593 0.096032694 -0.01678849 0.10736491
-0.027877022 -0.011627182 0.074424624 0.15013285 -0.10496075 0.033249315 -0.10370511 0.0038378064
-0.0428776 0.13618784 -0.027347121 0.01416643 -0.12083922 0.1802528 -0.14086027 0.00816575
0.028847177 -0.0076903473 -0.007958617 0.06497601 0.027328033 -0.1650525 -0.06759374 0.00029336422
0.12823251 0.15824586 -0.10896963 0.10576488 0.04688367 -0.06361642 0.06485591 0.14951685
0.02120162 -0.047632694 0.007054779 0.14959866 -0.058529045 -0.09913255 -0.07061992 0.16902399
-0.023356615 -0.1436256 -0.13934626 0.09298379 0.102904 -0.04716108 0.0151883615 -0.08640672
00000000: 73b7 59bd 69f2 193e 3402 bfbd 0a0e 1cbd
00000010: f5d7 9d3c bbb1 e7bd b1be 7f3d 8913 fa3d
00000020: 5af7 53bd b697 87bd 1ecf a93d 524f c63d
00000030: 1912 ad3c 7e88 52bd 7c00 20be 12cf 07be
00000040: 9d5e 8bbd 821d ef3d dad4 17be 4965 033c
00000050: ee80 383e e7ce 9b3d 0d2a 14be e5f5 f4bd
00000060: 8238 a33d 2cc0 febd 7301 113e 85b7 9b3d
00000070: 51df bdbc cebc 09bd 47d8 ddbd afb8 0e3e
00000080: 66e4 203e 2a8b 4cbd 3ab6 20be c806 aabc
00000090: bdd5 a2bd 43c9 1a3d 717e 61bd d666 ec3d
000000a0: b516 1fbd e0c5 053d 90e1 003e 7286 d83d
000000b0: 8ad3 e63d 84c3 113c 8894 d9bd 85ec 6ebd
000000c0: 2c76 bb3c b465 1bbd ca32 153e b29d 97bd
000000d0: 0568 213e 0732 103e 5982 e9bc 0506 60bd
000000e0: f0e8 b93d 6a14 febd 6af6 cb3d 8c40 ebbd
000000f0: 3e90 b6bd 01dc 263e e5fe d33d 0648 4cbd
00000100: 3e25 a8bc 259c 093e d22d f83d 0d6a eb3c
00000110: 35e7 adbc 970f e2bd abb8 ab3d 722b b53d
00000120: 1e1a 9abd 6856 ea3c 23af 383c 5495 223e
00000130: cb06 38be c43d e53d edba 1a3e 07a1 0cbd
00000140: eeb9 b43d 6bf2 043e fab0 803d 5072 893d
00000150: bc58 2abe 3389 28be 3c08 15be abae 663d
00000160: af58 293e 4154 2b3e 1368 b23d 93e7 c6bc
00000170: d45f b73d 8619 c5bd 8c5d a93d 7f0c b43d
00000180: 3020 d3bd 8604 b5bd 611c 173e 6186 bc3d
00000190: 003a 333e d172 3ebd 06d2 f9bd 36a3 bf3d
000001a0: 0278 e9bd db34 293e fd6e a7bc ec11 d9bc
000001b0: b87e 4d3d 7dda e6bd cd3f f0bd 3d64 96bd
000001c0: 812c 0e3d e3da 46bc 88e9 00be 5675 19be
000001d0: 0ca6 8fbc 91fe 9b3d d29f cc3c c453 853d
000001e0: bb28 303e 1bfc 8b3d 4374 36be 01d0 29be
000001f0: c854 a53d 9708 afbd 5b69 1ebe 1c07 69bc
00000200: c616 09bb 0e36 8dbd 3bb1 18be f3c2 843d
00000210: bacf 95bd dfaf 323c 825d babd 1a5f 433c
00000220: 3f5d ef3d a973 30bd d3d0 d8bd b57d 333e
00000230: 3784 d6bc df3e afbd 5597 143e cda0 cfbd
00000240: aef8 2d3e eb91 343e 28fb 463d ee9a 4abd
00000250: 83ba aabd 5ada dc3d 50b8 233e 5b3b 4f3d
00000260: fa1f 5c3c 4933 abbd 6255 93bd 5151 103e
00000270: 2100 3c3d a79b c4bd 4b9b 213e eb08 a8bd
00000280: 9ff8 05be 1df0 2b3e 951c 293e fb28 29be
00000290: f252 18bd 51c6 37be 3c3e f33d 858e 123e
000002a0: 984d f33c 95ba aebd f312 1c3e 1eaa b13d
000002b0: caf1 55bc 6c0f 34be 66db b43d 6752 153d
000002c0: dde6 073e 3608 abbc ec61 81bd 960e eabd
000002d0: 8d23 bdbd 48b4 263d fc23 2ebd bc54 17bd
000002e0: e776 6d3d 6575 20be cdce aabd be7a 0d3e
000002f0: 3bdd f23d 1ea2 153d 6a95 c9bd 9006 d43d
00000300: fd5b 52bc b7cd e23d a4ec 1fbd b1e9 8f3c
00000310: 4e94 bdbd dd74 743d 02b5 643d 2f72 193e
00000320: 0856 e63c f30d c73d 13f0 063e 4df3 30bd
00000330: 366c e93d caac c43d 0488 89bc 22e2 db3d
00000340: 5a5e e4bc f07f 3ebc f06b 983d 6dbc 193e
00000350: a9f5 d6bd 6f30 083d 5863 d4bd b583 7b3b
00000360: 6ca0 2fbd d374 0b3e 1207 e0bc 501a 683c
00000370: 8e7a f7bd 3194 383e ad3d 10be a3c9 053c
00000380: ea50 ec3c 4fff fbbb dc64 02bc 2412 853d
00000390: 0adf df3c 8603 29be 966e 8abd aece 9939
000003a0: 624f 033e 340b 223e 782b dfbd 429b d83d
000003b0: 1709 403d 5349 82bd 2dd3 843d f21a 193e
000003c0: 05af ad3c 801a 43bd c72b e73b 6430 193e
000003d0: 27bc 6fbd 0206 cbbd 2da1 90bd a014 2d3e
000003e0: 5f56 bfbc 9712 13be c9b0 0ebe 496e be3d
000003f0: 55bf d23d fa2b 41bd 9bd8 783c 02f6 b0bd

fc3.bias f4 [20]
-0.10200793 -0.09729543 -0.009314809 0.17112501 -0.13101743 -0.02764301 -0.14783181 -0.17426796
-0.0658019 -0.05939214 0.15779033 0.13304532 0.18185045 -0.0075372993 -0.017124187 0.04152948
-0.14453422 0.12660661 0.14606373 0.038004868
00000000: 89e9 d0bd d442 c7bd 249d 18bc 653b 2f3e
00000010: 6f29 06be 9873 e2bc 3961 17be 4d73 32be
00000020: 26c3 86bd 2c45 73bd ca93 213e 083d 083e
00000030: 0137 3a3e 73fb f6bb 0648 8cbc d11a 2a3d
00000040: c700 14be 2aa5 013e bb91 153e feaa 1b3d

fc4.weight f4 [5, 20]
-0.088377535 0.07187837 -0.15266375 -0.04675429 0.07712655 0.028185261 -0.1468553 -0.020012025
0.11649232 0.05778977 -0.014601574 0.22290121 -0.07797791 -0.1910588 0.12290627 -0.13723847
-0.17969033 0.014085434 0.156941 -0.04123463 0.18063878 -0.05521648 0.18652211 0.17417501
0.11833463 -0.08773438 -0.13075782 -0.15959615 0.1866213 0.024461124 -0.16947636 -0.19408233
0.035178225 -0.20069577 -0.1703518 0.08733753 -0.19097832 0.062165886 0.15669732 -0.08645092
0.21375108 0.09404756 0.039853077 -0.22099544 0.10773881 -0.19530685 0.03058361 0.12831753
-0.05191044 0.11099735 -0.008908465 -0.105974905 -0.13541585 -0.2204749 0.16011375 0.08425161
0.12162942 0.12654243 0.20267597 -0.050099432 0.1887964 -0.17962918 0.116764106 -0.17205966
0.14350374 0.05382285 0.07636567 -0.009075518 0.18710575 -0.1286282 0.028044732 -0.10541931
-0.08921387 0.05367971 0.07537482 0.19431667 -0.21710403 -0.2077313 0.0351223 -0.16310453
-0.11893001 -0.16250613 -0.0691263 -0.10109885 0.16872042 0.11868433 -0.1796983 -0.13043594
0.019539572 -0.060559276 0.16154826 0.18166564 -0.1564245 -0.21888024 0.2026367 0.040555995
0.07023517 0.14460658 -0.07545791 0.08270933
00000000: 48ff b4bd f834 933d e353 1cbe 6d81 3fbd
00000010: 86f4 9d3d c7e4 e63c 3c61 16be 42f0 a3bc
00000020: 8793 ee3d f7b4 6c3d 713b 6fbc 3740 643e
00000030: e2b2 9fbd eba4 43be 48b6 fb3d 3e88 0cbe
00000040: be00 38be 98c6 663c 24b5 203e a5e5 28bd
00000050: 5ff9 383e ad2a 62bd a7ff 3e3e ef5a 323e
00000060: 6d59 f23d 15ae b3bd 61e5 05be 2c6d 23be
00000070: a719 3f3e b262 c83c 368b 2dbe 85bd 46be
00000080: 0b17 103d 3183 4dbe b470 2ebe 05de b23d
00000090: d28f 43be a8a1 7e3d 4375 203e 2e0d b1bd
000000a0: 90e1 5a3e 029c c03d fb3c 233d a14c 62be
000000b0: 2aa6 dc3d 85fe 47be 7b8a fa3c ac65 033e
000000c0: 0ba0 54bd 9452 e33d cff4 11bc 5f09 d9bd
000000d0: 74aa 0abe 2cc4 61be dcf4 233e 1c8c ac3d
000000e0: d818 f93d 5794 013e 4a8a 4f3e 1035 4dbd
000000f0: d853 413e b6f0 37be 0522 ef3d 6830 30be
00000100: a5f2 123e 5975 5c3d 9b65 9c3d 7bb1 14bc
00000110: a698 3f3e 1cb7 03be 11be e53c 14e6 d7bd
00000120: c3b5 b6bd 41df 5b3d 1d5e 9a3d f3fa 463e
00000130: 8550 5ebe 84b7 54be 67dc 0f3d e004 27be
00000140: 9491 f3bd 0268 26be 1792 8dbd ea0c cfbd
00000150: 0cc5 2c3e c510 f33d d502 38be 0091 05be
00000160: 7411 a03c 010d 78bd e86c 253e 8f06 3a3e
00000170: be2d 20be 2422 60be ff7f 4f3e 0b1e 263d
00000180: 75d7 8f3d bf13 143e ad89 9abd 8263 a93d

fc4.bias f4 [5]
0.046198193 0.118366025 -0.113099836 -0.044443533 -0.11907492
00000000: 513a 3d3d e369 f23d e3a0 e7bd 6c0a 36bd
00000010: 8ddd f3bd
