Defense/RSLAD/RSLAD_100.pt (torch, 20632 bytes, 8 tensors)

fc1.weight f4 [50, 42]
000000 ea 3d 16 3e 3b 0b 5b bc b4 c1 17 be f4 05 9c bd
       0.14672056 -0.013369377 -0.14819986 -0.07618323
000010 9f e0 8a 3d 7e fe 18 3d 4d 21 06 3d f0 f7 f7 bb
       0.06781124 0.037352078 0.0327466 -0.0075673983
000020 a3 8b b0 3d d2 18 36 bc d5 dc 02 3e 28 40 93 bb
       0.086203836 -0.011114316 0.12779553 -0.004493732
000030 46 d1 cb bd 28 60 e3 bd 88 ba 10 bd 47 6c 9d bd
       -0.09952025 -0.11102325 -0.03533414 -0.07686668
000040 d3 ef 46 3d a0 ec ba 3d f1 8d 49 3d 30 f5 0e bd
       0.048568558 0.09127164 0.04920763 -0.034901798
000050 9a ed 1b 3d d6 7d 03 3d 7f eb 86 bc 79 1a f1 bd
       0.03806839 0.03210243 -0.016469715 -0.117726274
000060 6d 43 12 be a2 98 18 3e 39 bf 37 bd 80 f1 08 be
       -0.14283533 0.14901975 -0.0448601 -0.13373375
000070 0d 04 d6 3d bd cd 0a be a4 1c fa 3c 83 40 c1 3c
       0.104499914 -0.13555045 0.030531235 0.023590332
000080 14 1b bd bd 83 59 d0 3d d8 25 7f 3c 5e ec e5 bc
       -0.0923368 0.10173323 0.0155729875 -0.02806681
000090 68 76 d7 bd 00 3f 9a 3c 45 6f cf 3c 9c 04 e0 3d
       -0.10520631 0.018828869 0.025321612 0.10938379
0000a0 8a a3 b5 bd 83 3d 0b be ab be b5 bc ca c7 7d 3d
       -0.08869083 -0.13597684 -0.022185644 0.06195811
0000b0 ca ba 74 3d 1b af 33 3d 29 ed e3 bd 80 25 c9 bb
       0.05974845 0.043868165 -0.11129219 -0.0061385036
0000c0 7d 56 66 3c 28 cd df 3d 3f fa 1c 3e 0e 88 08 be
       0.014058706 0.10927802 0.15329836 -0.1333315
0000d0 e5 67 e5 3d b3 85 58 bd 40 af 06 3e a3 b5 af bd
       0.11201457 -0.05286188 0.1315279 -0.08579566
0000e0 eb 83 ab 3d c1 af db bc 40 46 e5 bd 75 39 34 3d
       0.08374771 -0.026817204 -0.1119504 0.044000108
0000f0 c7 5c af bd ac fc a1 3d cd 95 03 be 67 c6 e9 3b
       -0.08562618 0.079095215 -0.12850113 0.007134247
000100 8c e4 fd 3c 4f d2 f6 3d eb f4 29 bb ad b3 c3 3c
       0.030992769 0.12051832 -0.0025933336 0.023889387
000110 09 e4 d3 bc 9a c9 50 bc 0c a2 de 3d 3e 74 53 3c
       -0.025865572 -0.012743378 0.10870752 0.012906132
000120 a5 0f 00 be e9 c5 08 3e bd bc 0a be 9b 04 46 3d
       -0.12505968 0.13356747 -0.1354856 0.048344236
000130 19 5d d0 3d 5e f6 42 3d 6c a1 32 3d 45 a8 b0 3c
       0.10174007 0.047598235 0.043610975 0.021564612
000140 d5 c8 fb 39 59 64 9d 3c c9 1a 93 3d d7 1e cf bc
       0.00048024082 0.019212889 0.07182843 -0.02528326
000150 47 87 ef bd a1 7a e1 3d 01 52 a9 bd 92 8c c2 3d
       -0.11695724 0.11009718 -0.08267594 0.09499468
000160 96 8a 9e bd 51 e2 9f bc c8 b0 bc 3d 50 e2 b5 bd
       -0.07741277 -0.019517096 0.09213406 -0.08881056
000170 7e 40 1c be 75 3e b9 3d 62 9b 44 3d 84 fd ae bd
       -0.15258977 0.09045116 0.047999747 -0.08544448
000180 a0 6d e3 bd 59 fb 05 3e 72 48 0d 3e 4a b3 86 3d
       -0.11104894 0.13084163 0.13797167 0.065771654
000190 9c c3 a8 bd 9a 98 09 bd 74 e0 39 bd ea 39 0f be
       -0.082404345 -0.033592798 -0.04538007 -0.13986936
0001a0 fe ba 09 be 6e c3 ed bb 1b 19 b7 3d f1 90 65 bd
       -0.13450238 -0.007255963 0.08940335 -0.05604643
0001b0 b6 17 eb bb a8 d0 bb 3c 31 bf d6 3d 1e 40 47 3d
       -0.0071744574 0.022926643 0.104856856 0.04864513
0001c0 48 e4 3a 3d 13 fe 1d bd dd d1 03 be f9 55 0c 3e
       0.045627862 -0.038572382 -0.12873025 0.13704671
0001d0 72 ad 97 3d e2 a2 80 3c 75 e2 e1 bd 26 26 2b 3d
       0.07406129 0.015702669 -0.110295214 0.041784428
0001e0 95 fb b1 3c 5a 99 4a 3d ef aa e2 3c 03 78 37 3c
       0.021726409 0.049462654 0.027669398 0.011198047
0001f0 79 dd 5e bd 4a 07 bc bd 4c 30 0b be 55 4a f3 3d
       -0.05441043 -0.09181078 -0.13592643 0.11879412
000200 23 60 11 bd 2a f2 3e 3d 24 b3 b6 bd ec b7 43 bd
       -0.035492074 0.046617664 -0.08920887 -0.047782823
000210 ea 24 f3 3d 56 9c 00 3e d1 4e 11 be dd 4d b4 bd
       0.11872275 0.12559637 -0.14190222 -0.08803914
000220 76 bd 61 bd 13 a1 cd bd 5e 69 0c 3e b2 20 39 3d
       -0.055112325 -0.10040488 0.1371207 0.045197196
000230 db 54 0e 3e 4d 93 a0 3c ca 76 09 3d b1 18 1d 3e
       0.13899557 0.019601488 0.03356055 0.1534145
000240 29 91 4b 3d ba 3f c3 3d 7a 9d 31 bd 1e 99 b3 3d
       0.049698982 0.09533639 -0.043363072 0.08769439
000250 55 59 02 be d3 03 0c 3e 02 9c 33 bd d9 84 8b 3d
       -0.1272939 0.13673334 -0.043849953 0.06812448
000260 c5 a3 61 ba c7 03 61 bd 36 e5 51 3c 52 17 64 bc
       -0.00086074724 -0.054935243 0.012810996 -0.013921576
000270 a2 5c a6 3d 9e ae 47 3c d7 7a 75 3d 84 01 11 be
       0.08123137 0.012187628 0.059931602 -0.14160734
000280 60 02 ae 3c 84 82 c7 3d 84 b1 87 bd 56 73 eb 3d
       0.021241367 0.09741691 -0.06625655 0.11496608
000290 61 59 b1 3d 15 c1 77 3d a9 47 8a ba 98 52 9e 3c
       0.08659626 0.06048687 -0.0010549921 0.019326493
0002a0 54 b5 8c 3d 70 f3 80 bd 74 04 8f bd ca 96 90 bd
       0.06870523 -0.06296432 -0.06983271 -0.07060011
0002b0 c3 b1 18 3e ae fe a8 bd 1e 77 08 be e9 6d 18 3e
       0.1491156 -0.08251701 -0.1332669 0.14885677
0002c0 38 b7 01 3d eb 0b 46 bc 67 3c 4a 3c 74 4b ef 3d
       0.03166887 -0.012087802 0.012343503 0.116843134
0002d0 dc 43 a4 3d 8f 8a db bd 84 0a 92 3d 4c 55 ea bd
       0.08020756 -0.10719787 0.07130912 -0.1144205
0002e0 09 b7 e3 bc b1 3e f4 bc 38 be a6 bd f0 d2 e4 bd
       -0.027797239 -0.02981505 -0.0814175 -0.11173046
0002f0 08 0a 1e 3c de a9 87 3c f4 27 02 be 79 2b cd 3b
       0.009645946 0.016560491 -0.12710553 0.006261286
000300 52 78 19 be 33 0b 41 bd 0a 87 eb bc cb 41 a8 bd
       -0.14987305 -0.04712982 -0.028750915 -0.08215674
000310 f0 87 ce 3d e9 2b 14 be c3 57 ff 3d 47 22 96 bd
       0.10084522 -0.14469875 0.12467911 -0.07330757
000320 f8 ab 44 3d dc 15 1b 3e 8b 9d 8e 3d f6 f9 e7 3b
       0.048015565 0.15145057 0.06963643 0.007079358
000330 cf 71 04 3e 6d db 9b 3d d4 43 ba bc 84 14 f7 3d
       0.1293404 0.076102115 -0.022737421 0.1206446
000340 a4 2c a1 3d e9 e6 6c 3d b5 9c 06 3e 51 32 82 bd
       0.07869843 0.0578374 0.13145716 -0.06357253
000350 5b e0 f2 3d 3c fb c5 bd 95 be b4 3d a6 e1 3d 3c
       0.11859199 -0.0966706 0.08825413 0.011589443
000360 82 0b 65 3c 80 c0 f2 3d 44 e9 3b 3d c0 79 37 3d
       0.013979794 0.11853123 0.045876756 0.044793844
000370 7d b9 10 bd 06 0b ca 3c 81 66 cf 3d 53 83 1d 3c
       -0.035333145 0.02466346 0.10126973 0.00961383
000380 60 32 82 3c 57 89 b0 3d 58 65 93 bd ea 57 cb bd
       0.015893161 0.086199455 -0.07197064 -0.09928878
000390 cc 34 72 3d 2f 8e c0 bd aa 80 92 3c 1f 30 be 3d
       0.059132382 -0.09402119 0.017883617 0.09286522
0003a0 38 3e 93 bd ae bd 8d bd 35 79 05 3d 07 5a 41 3d
       -0.07189602 -0.06920944 0.032586295 0.047204997
0003b0 d3 d3 d0 3c 07 02 f6 bd d5 8c c1 3d 81 af 17 be
       0.02549163 -0.120121054 0.0945069 -0.14813043
0003c0 13 de 75 bd 59 3f 0a 3e 95 3e 41 3d b7 01 f1 bd
       -0.06002624 0.13500728 0.047178824 -0.11767905
0003d0 32 cb f1 3d 63 88 03 3e 8e f2 aa 3d e8 ee c5 bc
       0.118063346 0.12844996 0.08347045 -0.024161771
0003e0 d3 0c b3 3d f1 0d 80 bc ee 0c 05 be 29 a7 a7 3d
       0.087426804 -0.015631648 -0.12993214 0.0818618
0003f0 17 7e a4 bd d1 ff c1 3d 4c 57 c2 bd 3d 51 0c 3e
       -0.08031862 0.09472621 -0.09489307 0.13702865

fc1.bias f4 [50]
000000 68 36 09 3e de 43 af bb 35 48 4a bd e1 7b 8d 3d
       0.1339966 -0.0053486666 -0.04938527 0.06908394
000010 9a dc fb bd f5 96 aa 3d 45 68 1d be d4 8a 14 3d
       -0.12297936 0.08329574 -0.15371807 0.03626521
000020 4b a3 0b 3e e5 74 e5 bc e9 57 d1 bc bd 1e 0a be
       0.1363651 -0.028009841 -0.025554614 -0.13488288
000030 5c bf 15 3d 86 7a 11 3e aa 2f a4 bd 01 e3 be bd
       0.036559448 0.14206895 -0.08016904 -0.09320641
000040 44 79 14 be 98 14 a6 3d 84 de 16 bd bd b8 08 3e
       -0.14499384 0.08109397 -0.0368333 0.13351722
000050 14 f9 d0 3d bb c7 f5 3d b7 74 a7 bd ed 6c 11 bc
       0.10203758 0.12000986 -0.081765585 -0.008876068
000060 99 25 18 3e 25 ad f3 3d f1 d2 57 3d 71 10 d8 bd
       0.14858092 0.11898259 0.052691404 -0.10550011
000070 46 2f b2 3d 06 eb 13 3e e9 bd af 3d 7b e7 d9 3c
       0.08700423 0.14445123 0.08581144 0.026599636
000080 ec 8e 5f bd 69 bf df 3b 40 f5 1d be fd 14 b0 3d
       -0.05457966 0.006828238 -0.15425587 0.08597753
000090 8b 18 02 3e 2c 41 10 3e db 7b 2c 3d d5 1f 57 bd
       0.12704675 0.14087361 0.042110305 -0.05252059
0000a0 25 8f 31 3d e1 27 96 bd 2e ee 81 bd 98 da 25 3d
       0.043349404 -0.07331825 -0.06344257 0.04049167
0000b0 95 fe 01 be 47 d7 1c 3d 08 14 c4 3d 67 88 a2 bd
       -0.12694772 0.038291242 0.09574133 -0.07936173
0000c0 90 04 5e 3c 4f dd de 3d
       0.0135508925 0.10882055

fc2.weight f4 [30, 50]
000000 7a 52 b4 bc 6d b8 a8 3d 4a 64 40 bd 44 ea 94 bd
       -0.022011984 0.082383014 -0.046970643 -0.07271245
000010 8e 5d 7c bd d9 01 e5 3d ba 84 5f bd 1c ed c6 3d
       -0.06161266 0.11181993 -0.054569937 0.09713194
000020 9c ba 8a bd 09 62 95 bc 9f 92 05 3e 64 7e 06 bd
       -0.06773874 -0.018235223 0.13044213 -0.03283538
000030 af c7 de bd 0e 57 06 be bd 74 f6 bb 30 31 db 3d
       -0.108779304 -0.13119146 -0.0075212405 0.10702741
000040 fc 78 06 3d 31 67 f0 3d d4 87 d7 3c d5 66 8a 3d
       0.032830223 0.11738432 0.026309885 0.06757895
000050 6f 7a 1a 3c a2 f0 dc 3d d3 f2 47 3d 03 9c a4 bd
       0.0094286045 0.107880846 0.04881556 -0.080375694
000060 1e c4 d8 3c bf d8 4f bd d1 d9 60 bc 78 b3 9b bb
       0.026460703 -0.050743815 -0.0137238065 -0.004751619
000070 46 63 9f 3d 9e f9 66 bd 52 36 5e bd e8 5c 0c 3d
       0.07782607 -0.056390397 -0.054251023 0.03426829
000080 5b 4f 63 bd e4 a3 05 be 04 dd 00 3e 9b ea d1 bd
       -0.0554956 -0.130508 0.12584311 -0.102498256
000090 9e 43 56 3c c1 26 c8 3d 1e 64 45 bb 20 06 09 3e
       0.013077645 0.09773017 -0.003011949 0.13381243
0000a0 d8 56 b6 3d 90 2c 1a bd be b3 05 3e 61 25 62 bd
       0.08903283 -0.037640154 0.13056847 -0.05521143
0000b0 7a 07 03 be 78 86 b2 3c 3e 29 02 3d 44 74 2c bd
       -0.12795821 0.021792635 0.031777613 -0.042103067
0000c0 b8 b3 c3 3d 76 16 ea 3d 6e dd d8 3d ae 95 87 3d
       0.09555763 0.11430065 0.10589109 0.06620346
0000d0 31 28 ed ba 8a fd fd 3d 49 20 a4 bd 5b 66 ac bb
       -0.0018093643 0.12401874 -0.080139704 -0.005261225
0000e0 16 c5 a5 bd c3 c0 e9 3d 98 98 10 be ee ee c7 bd
       -0.08094232 0.114137195 -0.1412071 -0.09762369
0000f0 cd 40 de 3d 95 ec c1 3d 86 03 06 be 00 6b 8f bd
       0.108522035 0.094689526 -0.13087282 -0.070028305
000100 f0 8a cd 3d 43 88 cc 3d 73 31 14 3d 91 86 87 3d
       0.10036266 0.09986927 0.03617997 0.066174634
000110 e1 6b ec 3d 16 69 00 3e 15 d5 27 bd 5e 0c 8b bd
       0.11544014 0.12540087 -0.040974695 -0.06789468
000120 50 51 27 3d 43 20 99 3d d0 97 3b bd cf 5d c9 3d
       0.04084903 0.074768566 -0.045799077 0.09832346
000130 52 87 9c 3b 1b d8 06 3b d0 79 5c 3d 9e 34 ee 3d
       0.0047768736 0.0020575586 0.053827107 0.1163113
000140 31 64 34 3d 4c 0d 0d 3e 94 0d 9f 3c 0d 94 0b 3e
       0.044040862 0.13774604 0.019415654 0.13630696
000150 7a c0 eb 3d fe 55 08 be d6 4a af bd a5 25 e3 3d
       0.11511321 -0.13314053 -0.08559196 0.110911645
000160 a2 22 ec bc dd 2b c9 3b e7 d8 c7 bd 3a d4 7e 3d
       -0.028825108 0.006139262 -0.09758168 0.062214114
000170 11 56 a0 bc 1b 2e bf bd a4 07 75 bd 1b 45 04 3e
       -0.01957229 -0.09334966 -0.05982174 0.12916987
000180 64 49 df 3d 43 3b 0e 3e eb 0c 08 3e d6 44 82 3d
       0.1090267 0.13889794 0.13286178 0.06360786
000190 28 39 90 bd 3c 4d 81 3d 49 ff c0 3c 7c 77 37 bd
       -0.07042152 0.063135594 0.02355923 -0.044791684
0001a0 5b 9a 76 bd 45 7f db bd 18 38 f5 3d 73 f7 04 bd
       -0.0602058 -0.10717634 0.1197359 -0.03246255
0001b0 bb 19 f7 3d c8 b7 a7 bd a8 fa fe bd d8 57 87 3d
       0.120654546 -0.0818935 -0.12450153 0.06608552
0001c0 c7 10 61 3d 71 c2 0e be 65 4e 0a 3d 7e 40 49 bd
       0.05494764 -0.13941361 0.03376617 -0.04913377
0001d0 df 3e a4 3c 52 df 98 bc 61 23 68 bc c2 a9 cd 3b
       0.02004951 -0.018661175 -0.014168591 0.00627634
0001e0 db c6 2c bd 3c 86 bb bd 37 27 02 3e be aa bf bd
       -0.04218183 -0.091564626 0.12710272 -0.09358738
0001f0 ed b2 cd bd f4 2c f8 3d 02 33 c2 bd fc 3a 20 b9
       -0.10043893 0.12117949 -0.09482385 -0.00015280762
000200 c7 25 f8 3d aa 67 35 3b 0c e7 6c 3d ed 0a cd bd
       0.121165805 0.0027680197 0.05783753 -0.100118496
000210 b8 69 45 bd 54 c1 b4 3d a2 4e b6 3d 3c e1 f5 bc
       -0.048196524 0.08825937 0.08901717 -0.030014627
000220 4a 75 e7 bd 1d 46 1f 3c fd 3c 02 3d 0a 85 a5 3d
       -0.11301668 0.009721306 0.031796444 0.08082016
000230 8c 62 3f bd a1 99 cd 3d f9 7c 0b be fc 7a 1f bd
       -0.04672484 0.10039068 -0.13621892 -0.038935646
000240 4e 23 a9 3d 3d b0 ae 3d be 06 d9 bd fe 96 3c 3c
       0.08258687 0.085297085 -0.10596989 0.011510609
000250 47 6f 03 be ba 17 9d bd 53 29 ff 3c 26 a9 4c 3d
       -0.12835418 -0.07670541 0.031147635 0.049966
000260 29 5e b7 3d fa f6 ec bd f7 49 21 bd 78 52 ab 3d
       0.089535065 -0.115705445 -0.03937718 0.08365339
000270 0c ff 00 3e f5 8c b5 bd 11 99 91 3d e0 dd 03 be
       0.12597293 -0.08864776 0.07109273 -0.12877607
000280 b3 a2 55 bd 16 db 0c 3e 98 82 d0 bd f7 6b 26 3c
       -0.052157115 0.1375545 -0.10181159 0.010157577
000290 07 f9 e0 3d fd ff fd 3d 81 e8 e4 bd d8 36 82 bd
       0.10984998 0.124023415 -0.11177159 -0.06358117
0002a0 2c 56 a0 3d af 3e 04 be e9 20 c1 39 39 e6 52 3d
       0.07828936 -0.12914537 0.0003683635 0.05148909
0002b0 45 e3 54 3b e3 fb fd 39 4f 28 f5 3d 89 e0 88 3c
       0.0032484096 0.0004844359 0.11970579 0.01670863
0002c0 cb 76 fa 3d 84 b9 05 3e f3 ad ef bd b6 38 c2 bd
       0.12229689 0.1305905 -0.117031 -0.09483473
0002d0 e1 aa a5 3d 9e b8 96 bd 0b b5 8e 3d fb 17 2d bd
       0.08089233 -0.07359432 0.06968125 -0.042259198
0002e0 03 55 97 bd 4b b8 8b 3a d1 7e 04 bd 18 ae 86 bd
       -0.073892616 0.0010659782 -0.032347504 -0.065761745
0002f0 fb 96 9d 3d 8a 51 b6 bc 5a 6b eb bc 98 30 db 3d
       0.07694813 -0.022255678 -0.028737713 0.10702628
000300 e9 ca 50 bc e7 50 05 be 9b be d2 bd 99 50 68 3d
       -0.01274369 -0.13019143 -0.10290261 0.05671749
000310 a2 49 c9 bd 1d 13 2a 3b f9 be e3 bd 23 31 89 3d
       -0.098284975 0.0025951334 -0.111204095 0.06698825
000320 11 8a e7 3d 55 fe 87 3c 1d 16 2e 3d 98 9f f0 bd
       0.11305631 0.016600767 0.042501558 -0.1174919
000330 7a 1b 05 be ab ea 70 bd 3f 17 4d bb 15 12 8e bd
       -0.12998763 -0.058817547 -0.0031294373 -0.069370426
000340 47 d1 8b 3d ec 8f 01 bd 5d e2 79 bd f1 6e 84 bc
       0.06827026 -0.031631395 -0.061006892 -0.016166182
000350 4b 25 eb 3d 19 9b 74 bd fa ab 78 3a d1 32 0c 3d
       0.114817224 -0.059718225 0.0009486076 0.03422815
000360 64 83 f7 bd a9 62 d9 bd 99 a8 dc bd d6 f8 d0 3d
       -0.12085608 -0.10614521 -0.10774345 0.10203712
000370 4d 02 a8 bd 77 51 0e 3c 7c 9f 7f bd 2f fd c0 bd
       -0.08203564 0.008686415 -0.062407956 -0.09423291
000380 a4 11 04 be 1f bb eb 3d 8b e4 c4 bd 64 66 b8 3d
       -0.12897354 0.115103 -0.096139036 0.090039045
000390 13 9c 23 bd d0 8b 77 3d 04 cb 45 3d a3 c2 c9 bd
       -0.039943766 0.06043607 0.048289314 -0.09851577
0003a0 2f c0 ec 3d 19 e8 64 3d 98 5f 0f 3e d9 b6 c5 bb
       0.115600936 0.055885408 0.1400131 -0.00603376
0003b0 13 53 d2 bd 7f c9 c4 bd 28 32 0e be 69 e3 fe bd
       -0.102697514 -0.09608745 -0.1388632 -0.12445719
0003c0 df 83 5c bd c4 3d cf bc f9 25 8d 3d f6 c8 e0 bd
       -0.0538367 -0.025298007 0.06892008 -0.1097583
0003d0 eb 6e d9 3d 74 f2 09 3e c7 30 b4 bd 30 59 b4 bd
       0.10616859 0.13471395 -0.08798366 -0.08806074
0003e0 9a ee 9a bd a1 b6 94 b9 cc 5c 0b 3e 38 47 93 3c
       -0.07565041 -0.0002836483 0.13609618 0.017978296
0003f0 4c 26 03 3d a2 a8 28 bd a5 2d 01 3e 1a 96 8b 3d
       0.032018945 -0.041176446 0.12615068 0.06815739

fc2.bias f4 [30]
000000 23 c0 91 bd 82 03 26 bd 28 41 d3 3c 7f ad b9 bd
       -0.07116725 -0.04053069 0.025787905 -0.09066295
000010 fb 69 c0 3d dd 00 e5 3d e1 e9 52 3d 1a dd 83 bc
       0.09395214 0.11181805 0.051492576 -0.01609664
000020 08 9f 89 bd 82 bb f7 bd 3d f5 9d 3d 58 ed c9 bd
       -0.06719786 -0.12096311 0.07712791 -0.09859723
000030 ae 00 62 bd af 03 99 3d 06 12 eb bd 90 1d 68 3d
       -0.05517643 0.07471406 -0.11478047 0.056668818
000040 54 d1 e8 3d de ca c7 bd 06 38 d6 bd 38 ea 0b be
       0.11368051 -0.09755491 -0.104599044 -0.13663566
000050 ad 82 0c be be 74 b9 bd b2 3f 61 bd cc fd e4 bd
       -0.13721724 -0.0905547 -0.054992385 -0.111812204
000060 ad df 39 3d b3 5d f0 bd 04 0c 89 3d 3d 4f f9 bd
       0.04537933 -0.11736622 0.06691745 -0.12173317
000070 1f e3 d0 bd 9a d5 ec 3a
       -0.1019957 0.0018069029

fc3.weight f4 [20, 30]
000000 6f 00 2d be f7 5f 32 3e 58 8c 23 be 4f f3 88 bc
       -0.16894697 0.1741942 -0.15971506 -0.016717581
000010 d3 a1 55 bc dc 28 cb 3d ac 8c be bc 5f 93 30 3e
       -0.01303907 0.09919903 -0.023260437 0.17243718
000020 9f ee 88 bd f6 ff fb 3d 01 43 12 3e ed 27 53 3c
       -0.06686138 0.1230468 0.14283372 0.012887937
000030 8e 91 d6 3d 63 11 9d bd f8 ef 4f 3c 4e ee b7 3d
       0.10476981 -0.07669332 0.01269149 0.08981
000040 88 09 31 3e 26 30 71 3d 75 f7 24 be 9d 8f 2d be
       0.17288792 0.05888381 -0.16110022 -0.16949315
000050 3c b2 ef bd ba e4 f5 bd e4 98 33 3e 0e 1c a1 bc
       -0.117039174 -0.12006517 0.17538792 -0.019666698
000060 2d 0d 34 3e d4 fb 58 bb 57 fd dd 3d ff 80 6f 3d
       0.17583151 -0.0033109086 0.10839336 0.05847263
000070 c4 69 0d bd a0 56 24 be d5 bc ab bd 48 99 fe 3d
       -0.034524694 -0.1604867 -0.08385626 0.1243158
000080 be 48 cf 3d 0d 51 50 bd b8 68 9b bd d1 93 32 be
       0.10121296 -0.050858546 -0.07588333 -0.174392
000090 55 52 d1 3d 91 07 86 bd 35 cf b3 bd a8 06 20 3e
       0.10220782 -0.06544412 -0.08779756 0.15627539
0000a0 86 70 8d bc 75 51 af bd 15 bf b9 bc 75 d8 ca bd
       -0.01726557 -0.085604586 -0.022674123 -0.09904567
0000b0 c0 3e d7 bd 94 a5 72 bd a9 e2 28 3b 0a 4a 8b 3d
       -0.105100155 -0.05923994 0.0025769866 0.06801231
0000c0 91 30 7b bd e0 ff 33 bd 65 e1 13 3e 7c 37 02 be
       -0.061325613 -0.043945193 0.1444145 -0.12716478
0000d0 cb 16 1b be c4 01 a1 3c c7 40 a1 bd 11 1c 6b 3d
       -0.15145414 0.019654162 -0.078736834 0.057399813
0000e0 58 23 95 3d 9a be 1b be 7c fa 12 3e 61 d0 0e 3e
       0.07282132 -0.15209427 0.14353365 0.13946678
0000f0 17 bb dd bd 55 42 18 be bd 72 d1 bd c7 b6 0c 3e
       -0.108267 -0.14869054 -0.10226963 0.13741599
000100 ac c7 dc bd 30 12 37 3e 06 43 14 be 55 8a 2c bd
       -0.10780272 0.17878032 -0.14478692 -0.04212411
000110 a6 85 7b bd 90 13 25 3e 95 d1 fd 3d dd 57 0d be
       -0.061406754 0.16120744 0.1239349 -0.13803048
000120 e2 23 eb 3d c0 81 10 3e dc 80 88 bd ff cb 19 3e
       0.114814535 0.14111996 -0.06665203 0.15019225
000130 74 6d 65 bd 92 c8 5b 3d 12 1a 11 be c5 48 15 be
       -0.056012586 0.053658076 -0.14170101 -0.1457854
000140 bb 54 3c bd 13 84 19 bd df 17 db 3d a2 ea 33 3e
       -0.045979243 -0.03747947 0.106979124 0.17569974
000150 ba 39 d3 bb fd f9 a2 3c 63 03 fd 3c d6 cc 7d bd
       -0.0064460905 0.019894594 0.030885404 -0.061962925
000160 ea 05 c3 bd a7 cc 6c bc 9d 0b 2a be b4 da 1f 3d
       -0.095226124 -0.01445309 -0.16605993 0.03902693
000170 c1 e0 e3 3d 8b 60 d9 3d 1b f5 25 bc 19 4c 1e 3e
       0.11126853 0.10614117 -0.0101292385 0.15458716
000180 3b 0a 20 be 0e ab 1e 3e b2 49 09 3e 07 f8 0f 3e
       -0.15628903 0.1549494 0.13407019 0.14059459
000190 a3 ec 30 bb fc bd a7 3d 82 f0 bb bd 06 80 27 be
       -0.0026996515 0.081905335 -0.091767326 -0.16357431
0001a0 fe 7f ee 3d fe c7 c0 bd aa ec 21 3e f5 16 da 3d
       0.11645506 -0.094131455 0.15812936 0.1064891
0001b0 a9 12 84 3d db a5 ec bd b8 6d 2e 3c 70 53 18 3e
       0.06448872 -0.11555072 0.010646276 0.14875579
0001c0 5c e3 fa bd a3 04 25 be 46 48 93 bd d7 6f c2 bd
       -0.122503966 -0.1611505 -0.071915194 -0.09493988
0001d0 71 4e d8 3d b6 96 18 be 12 16 0e 3c 71 4d 24 3b
       0.105618365 -0.14901242 0.008672254 0.0025070573
0001e0 b7 b6 a7 3d 3a ea 1b be 12 0d ae bd 57 7c b9 3d
       0.08189147 -0.15226069 -0.08498587 0.09056919
0001f0 bb 4c 3a 3e 26 e4 ec bd 1a e1 e5 bd 58 88 d9 3d
       0.18193333 -0.11566953 -0.11224575 0.10621709
000200 a8 87 bf bd d9 61 ad bd 64 d3 e3 bd 03 1e 94 bd
       -0.09352046 -0.084659286 -0.11124304 -0.07232287
000210 45 6c 80 bc 94 1c 59 bd d6 94 04 3e be 59 fd bc
       -0.015676627 -0.05300577 0.12947401 -0.030926581
000220 fb 56 21 bd 00 57 03 bd d9 79 a3 bd 56 dc b8 bd
       -0.03938959 -0.03206539 -0.07982225 -0.09026401
000230 71 97 6e 3d a6 0e 2a 3e 47 e1 c6 3d 1c 63 81 3c
       0.058249895 0.1660715 0.09710937 0.01579433
000240 91 3c 0c bd 44 78 f2 3d e5 63 99 3d 67 b8 d4 3d
       -0.034237448 0.11839345 0.074897565 0.103867345
000250 aa 71 d7 bd cb 8b 64 bd c5 16 ea 3d f9 b2 04 be
       -0.105197266 -0.05579738 0.11430124 -0.12958898
000260 cb 94 8c 3d 8f d6 e9 3d e2 05 12 bd e3 a2 28 3e
       0.068643175 0.11417877 -0.03565014 0.16468386
000270 a1 29 35 3e 8a 6e 18 be 78 4f 30 be 44 24 24 3e
       0.17691661 -0.14885917 -0.17217815 0.16029459
000280 19 24 ae 3c 81 6c 5e bb de 63 d0 3d f4 a4 a1 bd
       0.021257447 -0.0033939185 0.10175298 -0.078927904
000290 80 55 6f 3d 20 9d 36 3c 86 c6 2d be 93 79 5f bd
       0.05843115 0.01114586 -0.16970262 -0.0545593
0002a0 76 22 3b 3d a8 78 cc bd 31 a5 e7 3d 8a 61 76 3d
       0.04568716 -0.09983951 0.11310805 0.060151614
0002b0 14 d5 cd 3d 09 6c 81 bd 1b eb 4f 3d 28 aa c1 3c
       0.10050407 -0.06319434 0.050761323 0.023640707
0002c0 ea 35 c1 3d 34 92 39 be 1f 88 0c 3e de ca 9d bd
       0.094341114 -0.18122178 0.13723801 -0.077047095
0002d0 7f 0d 89 3d a2 76 59 3d 2f f8 0c be 21 99 b9 bd
       0.06692027 0.053091653 -0.1376655 -0.0906241
0002e0 8f 8c 07 3e 3f 72 03 3b bf 6f de bd 90 c2 2a be
       0.13237213 0.002005711 -0.108611576 -0.16675782
0002f0 7e 9f 07 be 5a 01 0e bc 8a be 11 3e 9d b2 61 3d
       -0.13244435 -0.008667314 0.14232841 0.05510198
000300 a7 fd 34 3d 27 30 57 bd 56 28 ac 3d 8e ca a6 3d
       0.044187214 -0.052536156 0.08406131 0.08144103
000310 16 68 93 bd 32 b9 d2 bc 28 c2 fe 3d ff fc ff bd
       -0.07197587 -0.025723074 0.12439376 -0.12499427
000320 79 34 25 be 63 03 2e be 13 e7 f5 3c eb 09 0d 3d
       -0.16133298 -0.1699348 0.030017411 0.034433287
000330 73 db cf 3d 61 03 c6 bd 3d 0b 31 be 80 c7 84 3d
       0.101492785 -0.09668613 -0.17289443 0.06483364
000340 45 c8 0c be e5 16 87 bd 3e 3e 08 bb 12 88 a4 bd
       -0.13748272 -0.06596164 -0.0020789052 -0.08033766
000350 6d b7 85 3c 66 6d b1 3d b3 f5 06 be b2 3f 7e 3d
       0.016322816 0.08663444 -0.13179664 0.062072463
000360 40 7f 0c 3e 5e 05 ea bd 39 b3 38 3d 36 39 0a 3e
       0.13720417 -0.11426805 0.045092795 0.13498387
000370 6e 28 b8 bd 17 d9 7d 3b f8 40 44 bd e6 43 c0 3d
       -0.08992086 0.0038734132 -0.04791352 0.093879506
000380 c4 fe 96 3d ca 82 4c 3c 4a f5 f3 3d b9 48 df 3d
       0.073728114 0.012482354 0.119120196 0.109025426
000390 87 59 31 be 22 db 13 be d1 4e f7 bd da 99 1e 3d
       -0.17319308 -0.14439061 -0.1207558 0.038720943
0003a0 70 98 14 3e 90 6c 5a bd f3 a9 dd bd c1 6d 4e 3d
       0.14511275 -0.05332619 -0.10823431 0.05039764
0003b0 b3 e8 fd bd 8e 37 1f be ca f0 b6 bd 91 1b f3 3d
       -0.123978995 -0.15548536 -0.089326456 0.11870492
0003c0 29 8b 30 3e 5b df 15 3e cc 40 16 3e c4 74 1e 3d
       0.17240585 0.14635985 0.14673156 0.038685575
0003d0 dd b2 9a 3d 42 16 06 be 25 1c 39 be 68 a0 15 bd
       0.07553647 -0.13094428 -0.18077143 -0.03652993
0003e0 d6 4e f6 bd 0c 0e 02 bd ac e9 49 3c c1 8b 92 bc
       -0.120267555 -0.031751677 0.012323778 -0.017888905
0003f0 26 d2 a8 bd 8f 13 46 bd 4b 5f 21 3e 3a 2f 01 3e
       -0.08243208 -0.048358496 0.15759008 0.12615672

fc3.bias f4 [20]
000000 bc 68 1f 3e 51 81 01 3e 5e f8 ac 3d 8a 64 7a bd
       0.15567297 0.12646987 0.0844581 -0.061131038
000010 b5 eb b8 bc 2d 33 cf 3d ab ef 2b 3d ba ac 03 3e
       -0.022573331 0.10117183 0.041976612 0.12858859
000020 2d 4b 21 be 64 9e 2a 3e 32 c4 9d 3d d6 3a cd bd
       -0.15751334 0.16661984 0.07703437 -0.10020988
000030 8f 51 8b 3d 03 0a c0 bd 63 7c 31 3e 9a 0a 8d 3d
       0.068026654 -0.093769096 0.17332606 0.06886788
000040 85 54 39 be 8c 86 66 3c 7f d7 0d 3e e2 c6 cd bd
       -0.18098648 0.014070164 0.13851736 -0.100476995

fc4.weight f4 [5, 20]
000000 d5 75 05 3d ff 29 0e 3e 45 88 2c bd 19 86 14 3b
       0.032583077 0.13883208 -0.042122144 0.0022662936
000010 89 21 ad bd b3 1b d6 bd 67 e8 11 3e 14 e0 5f 3e
       -0.08453662 -0.10454502 0.1424881 0.21862823
000020 cf 53 54 3e df 3f 5f be 39 9f b7 bd 6a 92 53 3e
       0.20735095 -0.21801709 -0.08965916 0.20661321
000030 97 32 56 bd eb 9f 2f 3d 62 31 15 3b 8d 31 37 be
       -0.05229434 0.04287712 0.002276503 -0.17889996
000040 1f c2 f5 3d 93 16 0f be 1a 42 64 3d 50 ea 02 3e
       0.11999916 -0.13973455 0.0557271 0.12784696
000050 ad 21 87 bd 26 6b 4d 3d 5a 87 2f be 0a c1 a7 bd
       -0.0659822 0.050151013 -0.17141476 -0.08191116
000060 59 1a 51 3e e9 34 f3 3d 0d 19 bc bd 4f 94 5e 3e
       0.20420207 0.11875326 -0.091844656 0.21736263
000070 b1 2b 22 3e c9 eb 10 be 00 8c cc 3d 59 fe 35 bd
       0.1583698 -0.14152445 0.099876404 -0.044432018
000080 62 7f 01 bd 2c 94 18 3e 41 65 8b 3d f7 9a 1b 3d
       -0.031615622 0.14900273 0.06806422 0.037989583
000090 9e 3c 2e be 0a 15 23 be 29 86 c5 3d 40 18 62 3e
       -0.17015311 -0.15925995 0.0964473 0.22079563
0000a0 21 3a 61 3e 32 3d 10 be aa b0 21 be 26 43 17 be
       0.2199483 -0.14085844 -0.15790048 -0.14771709
0000b0 1b a9 0f 3e 92 27 8d 3d 82 44 5e be ed e4 95 3d
       0.14029352 0.06892313 -0.21705821 0.07319055
0000c0 f2 0b 41 3e 74 6a 6e bd d8 e9 ea bd 9d a2 9e bd
       0.18852213 -0.05820699 -0.114703834 -0.0774586
0000d0 96 52 bb bd 33 5c 10 be 34 7a 19 be 42 2c 8f 3d
       -0.091466114 -0.14097671 -0.14988023 0.069908634
0000e0 b0 02 8b 3c 32 e0 39 be fc c2 73 bd de be e1 3d
       0.016969055 -0.1815193 -0.059512123 0.11022733
0000f0 f2 50 bf 3d 2a e2 fd 3d 46 7a fe bd 32 01 33 3c
       0.09341611 0.12396653 -0.124256656 0.010925578
000100 0d f0 80 3c ff 3b e6 bd b3 31 c7 3d 15 c2 24 3d
       0.015739465 -0.11241912 0.09726276 0.040224154
000110 be 91 27 be 5f 55 e3 bd fd d3 1e bc f2 4f a3 bd
       -0.1636419 -0.111002676 -0.009694097 -0.07974233
000120 b0 d5 ef bd 51 97 2a be 6c f3 d5 bd e3 96 9e 3d
       -0.117106795 -0.16659285 -0.1044682 0.07743623
000130 cc f5 00 3e 2d 6f fd 3c ce d4 b8 3d 03 42 51 3e
       0.12593764 0.030936802 0.09024964 0.20435338
000140 2a 43 c6 ba b3 ee f4 bd 26 c9 82 bc d8 7a 0e be
       -0.0015126218 -0.11959591 -0.015965056 -0.13914049
000150 27 7e 9e 3d 4e 61 ea 3b 93 bc 44 be 4f 4d 1e be
       0.077389054 0.007152713 -0.1921256 -0.15459178
000160 e8 cc 81 bd 9e 4c 8c b9 86 29 40 bd 60 c1 0f bd
       -0.06337911 -0.00026759965 -0.0469146 -0.035096526
000170 c9 dd 44 bd 21 44 01 3c 69 1b e0 bc a0 b8 35 be
       -0.048063073 0.007889778 -0.02735682 -0.1774621
000180 90 c6 f5 bd 7a c7 04 3c 16 57 13 bd 74 c7 0b 3e
       -0.120007634 0.0081042 -0.035971723 0.13650304

fc4.bias f4 [5]
000000 e2 9f 9b 3d 50 19 50 3d 00 9e db 3d ca 67 34 3e
       0.075988546 0.05080539 0.107234955 0.17617717
000010 c4 94 eb bc
       -0.02875746
