Sample_Based_Extension/UNSW/UNSW_Defense/Adversarial_Training/Adversarial_Training_interpolated.pt (torch, 23672 bytes, 8 tensors)

fc1.weight f4 [50, 56]
0	0xbf110f88	-0.56664324
1	0xbda68b72	-0.08132066
2	0xbf1c443f	-0.61041635
3	0x3dcc22cd	0.09967575
4	0x3df57afb	0.11986347
5	0xbc225d90	-0.009910002
6	0xbe0d3d3a	-0.13792887
7	0xbdee016a	-0.116213635
8	0xbcd45dd0	-0.02592364
9	0x3d1a21b9	0.037629817
10	0x3ec9d286	0.3941843
11	0x3ba214b7	0.004946317
12	0x3a8363fa	0.0010024302
13	0xbf0884ef	-0.5332784
14	0x3ce42a67	0.02785225
15	0xbde8fd9d	-0.11376498
16	0xbefeb7e5	-0.49749675
17	0x3bceab85	0.006307068
18	0xbe229f36	-0.15881047
19	0xbd3fa5b5	-0.04678889
20	0xbe03b014	-0.12860137
21	0x3df19fd9	0.11798067
22	0x3e01e737	0.12685858
23	0xbe7aae18	-0.24480474
24	0xbc763d79	-0.015029305
25	0x3e00d9e6	0.12583122
26	0x3c9b3054	0.018943943
27	0x3d5fb195	0.054612715
28	0xbde956ba	-0.11393495
29	0xbd11f7b0	-0.035636604
30	0xbc5c17af	-0.013433381
31	0xbd504c98	-0.050854295
32	0x3d333358	0.043750137
33	0x3e39f9d2	0.18161705
34	0x3cf8bc8e	0.030363347
35	0x3df25729	0.11833031
36	0x3d5cb184	0.05388023
37	0xbcf9d3a1	-0.03049642
38	0xbd1a7f9b	-0.03771935
39	0x3d3d5e62	0.04623259
40	0x3cfa74b4	0.030573227
41	0xbdf22890	-0.11824143
42	0x3c7103c9	0.014710375
43	0xbe25ccb5	-0.16191371
44	0x3cc46b94	0.023977078
45	0x3e2bebc3	0.16789155
46	0xbc66fa84	-0.0140978135
47	0xbd69feda	-0.05712781
48	0x3d9a4d66	0.07534294
49	0xbf61fa77	-0.88272804
50	0xb914ef61	-0.00014203555
51	0xbd8d2322	-0.06891467
52	0xbc1a258e	-0.009408368
53	0x3b93b4fd	0.0045076595
54	0x3df3c311	0.1190244
55	0x3e1e0c48	0.15434372
56	0x3cc67434	0.024225332
57	0x3e9fe179	0.3122671
58	0x3ddf5ac8	0.10905987
59	0x3cafbd4b	0.021452567
60	0xbc828a42	-0.015935067
61	0xbe379fc0	-0.17932034
62	0xbd86693c	-0.065630406
63	0x3dec2c55	0.11531893
64	0xbd785830	-0.060630977
65	0x3c1f1710	0.009710088
66	0x3ec54287	0.3852732
67	0xbc09404d	-0.008377147
68	0xbbb569bc	-0.005536286
69	0x3db05834	0.086105734
70	0xbd98ca2e	-0.07460438
71	0x3d108976	0.035287343
72	0x3eeca695	0.46220842
73	0x3d361681	0.044455055
74	0x3d835d1a	0.06414242
75	0xbd03004a	-0.031982698
76	0x3d9f19be	0.07768582
77	0x3d649996	0.055810533
78	0x3e57620a	0.21033493
79	0xbe444f5f	-0.19170903
80	0xbd99164f	-0.07474958
81	0xbd184ab2	-0.03718061
82	0x3d89353d	0.066996075
83	0x3e091eaf	0.13390611
84	0xbe5297ff	-0.20565794
85	0x39edda65	0.0004536688
86	0x3d273234	0.04081936
87	0xbdda492e	-0.10658489
88	0xbdf9ea1a	-0.122028545
89	0x3e6d333b	0.23164074
90	0x3cf32a66	0.029683303
91	0x3dca256d	0.0987042
92	0xbd057016	-0.032577597
93	0x3d66c219	0.05633745
94	0x3e1f36b2	0.15548208
95	0x3c973d3c	0.018461816
96	0xbcb7b2b0	-0.022424072
97	0xbd3122ed	-0.0432462
98	0xbcec87ca	-0.028873343
99	0x3dd8c7cd	0.10584984
100	0x3d37a4f6	0.044835053
101	0x3e3ab5f2	0.18233469
102	0xbc6fc826	-0.014635121
103	0x3df5f5cb	0.12009772
104	0x3de4e9df	0.1117742
105	0xbf5d3f3c	-0.86424613
106	0x3b8ccef4	0.0042971317
107	0xbd9a2029	-0.07525665
108	0xbd23e91e	-0.04001724
109	0x3d1833cb	0.03715877
110	0x3ec4c564	0.38431847
111	0x3eaa9511	0.33316854
112	0xbe2f1f50	-0.17101789
113	0x3c9b329f	0.018945036
114	0x3e2cde86	0.16881761
115	0xbd54b5d6	-0.051931225
116	0x3df432b2	0.11923732
117	0x3ef13c4f	0.47116324
118	0xbc8dc12e	-0.01730403
119	0xbe0e1b11	-0.13877513
120	0xbe46d833	-0.19418411
121	0x3e17a558	0.14809167
122	0xbdc672eb	-0.096898876
123	0xbd2df05b	-0.04246555
124	0x3c979f59	0.0185086
125	0x3e060d27	0.13090955
126	0x3cef6fad	0.029228056
127	0x3e08e876	0.13369927
128	0x3d3684bc	0.04456018
129	0xbdac98e6	-0.084276006
130	0xbe08065e	-0.13283679
131	0x3dd7168b	0.105023466
132	0x3e1b6d15	0.1517833
133	0x3dae0b2f	0.08498227
134	0xbdfc014f	-0.12304937
135	0x3d4614e8	0.04835978
136	0x3e059f42	0.13049033
137	0xbdcec104	-0.100954086
138	0x3dd0b59d	0.1019089
139	0xbe36e4f3	-0.17860775
140	0x3da3bf7e	0.079955086
141	0xbd7635a6	-0.060109757
142	0xbe7bc6b2	-0.24587515
143	0xbdfc7a55	-0.123280205
144	0x3d4e39ca	0.05034808
145	0xbdd0958f	-0.10184776
146	0xbd2ae21b	-0.041719537
147	0x3cf982c1	0.030457856
148	0xbe21950f	-0.15779518
149	0xbe3f0976	-0.18655953
150	0xbce210ee	-0.027595963
151	0x3cca3c27	0.024686886
152	0x3d9841a4	0.07434395
153	0x3d4a14c2	0.049336202
154	0x3e0ba87b	0.13638489
155	0x3dda81dc	0.106693
156	0xbd3746c6	-0.04474523
157	0x3d42c863	0.047554385
158	0x3d1e6f99	0.038680647
159	0x3ddf5ad6	0.109059975
160	0x3d4dee4a	0.05027608
161	0xbf2fdc4d	-0.6869553
162	0x3c062e2f	0.008189722
163	0x3c16fc84	0.009215478
164	0x3dbe4a06	0.092914626
165	0x3d833f16	0.06408517
166	0xbde19b3f	-0.11015939
167	0xbba2bc40	-0.004966289
168	0xbeeece76	-0.46641892
169	0xbf4f2bcc	-0.80926204
170	0xbe379695	-0.17928536
171	0x3de5ed0e	0.11226855
172	0x3d6348f2	0.055489488
173	0xbdb9ab31	-0.09065855
174	0xbd36d27e	-0.044634335
175	0xbe46c6a7	-0.19411717
176	0x3d8dac91	0.0691768
177	0xbdd2f751	-0.10301078
178	0x3dd6561f	0.10465645
179	0xbae848df	-0.0017721913
180	0xbcf62fe0	-0.030052125
181	0xbea0d475	-0.31412092
182	0x3e06ae27	0.13152371
183	0x3cdc00c2	0.02685583
184	0x3e99b621	0.30021766
185	0xbe7f2889	-0.24917807
186	0x3cd64933	0.026157951
187	0x3d99c6e9	0.07508642
188	0xbd17b6e3	-0.03703965
189	0x3dcc648d	0.09980116
190	0x3dd0721f	0.10178017
191	0x3d4fb720	0.05071175
192	0xbd9eb09c	-0.07748529
193	0x3d1994f4	0.03749557
194	0x3e33c413	0.17555265
195	0x3e091a81	0.13389017
196	0x3e0e9900	0.13925552
197	0xbdbcfcad	-0.092278816
198	0xbe08fec1	-0.13378431
199	0xbd9f60bb	-0.07782122
200	0xbe260c76	-0.16215691
201	0x3e41fae5	0.18943365
202	0x3dab90a4	0.083771974
203	0x3d525729	0.051352654
204	0x3dfed48c	0.12442884
205	0xbdfd5a1b	-0.12370702
206	0xbccd61f0	-0.025071114
207	0xbe6c88ce	-0.23099062
208	0xbe6c0472	-0.23048571
209	0xbd922b29	-0.071371384
210	0xbdaa7bf8	-0.083244264
211	0xbcdef447	-0.02721609
212	0xbdac1aab	-0.08403524
213	0xbd4e13d5	-0.050311882
214	0xbdb06673	-0.08613291
215	0xbd721c50	-0.059109032
216	0xbe1b8f09	-0.15191282
217	0x3e267148	0.16254151
218	0xbc09ad0d	-0.008403075
219	0xbd8f9cc1	-0.0701232
220	0xbe1f8c73	-0.15580921
221	0x3eb7848f	0.35843322
222	0xbcfb8fe9	-0.03070827
223	0x3db6c2f0	0.089239
224	0x3e85db5a	0.26143914
225	0x3e8d7576	0.27628678
226	0x3f30483c	0.6886022
227	0xbd613fb8	-0.054992408
228	0xbe27a860	-0.16372824
229	0x3eec1e3d	0.4611682
230	0xbe8686ea	-0.26274806
231	0x3e342d1e	0.17595336
232	0x3c8589cd	0.01630106
233	0x3d882898	0.06648368
234	0x3ec8b0d2	0.39197403
235	0x3d35b3cd	0.044360925
236	0x3d0cb9b3	0.034356784
237	0x3e7166ff	0.23574446
238	0xbd61f8c4	-0.055168882
239	0xbc403482	-0.011731269
240	0xbe8201b1	-0.25391915
241	0xbd8e8264	-0.06958464
242	0x3d7d6be4	0.06187047
243	0xbd1e711a	-0.03868208
244	0x3cc3a107	0.023880495
245	0xbe09117f	-0.1338558
246	0x3d05c33a	0.032656886
247	0x3e14de0b	0.14537828
248	0xbd1a89a6	-0.037728928
249	0xbd8ee5bb	-0.06977411
250	0xbdac1e15	-0.08404175
251	0xbc7d986e	-0.015478237
252	0xbe030702	-0.12795642
253	0x3db3efc0	0.08785963
254	0xbd9c1757	-0.07621639
255	0xbd6fba5f	-0.058527347

fc1.bias f4 [50]
0	0x3d518def	0.05116075
1	0x3dd52758	0.10407895
2	0xbd3e0d8c	-0.046399638
3	0xbdbc3a9a	-0.09190865
4	0xbc2e57b3	-0.010641026
5	0x3b9f9b3f	0.0048708017
6	0x3d873fd7	0.06603973
7	0x3db8e671	0.09028328
8	0xbde8dec8	-0.11370617
9	0x3d8611fc	0.06546399
10	0x3b7f836a	0.003898824
11	0x3d05705f	0.03257787
12	0x3d55762b	0.052114647
13	0x3d8c123b	0.06839415
14	0xbd216f6d	-0.039412905
15	0xbda3aed3	-0.079923294
16	0xbde6c142	-0.1126733
17	0x3d10a24e	0.035311036
18	0xbd4d1a5a	-0.05007396
19	0xbd2a7127	-0.041611817
20	0x3d7d16b2	0.061789222
21	0xbd53bfbc	-0.051696524
22	0xbcb1787d	-0.021663899
23	0xbd0311cd	-0.031999398
24	0x3d003b4c	0.03130655
25	0xbdcb87a5	-0.099379815
26	0x3d476166	0.04867687
27	0xbd202975	-0.039102037
28	0x3d837d49	0.064203806
29	0xbcdb9303	-0.0268035
30	0xbd616e51	-0.055036847
31	0x3e22146d	0.15828104
32	0x3e1edbaf	0.1551349
33	0xbd53b399	-0.05168495
34	0xbd7fb38b	-0.062427085
35	0xbcc8b86a	-0.024501998
36	0x3c83e572	0.016100619
37	0x3e08999b	0.13339846
38	0xbd8451e5	-0.06460933
39	0x3d1ed71e	0.03877937
40	0x3de90d24	0.113794595
41	0xbcb31530	-0.021860689
42	0x3d8794ad	0.066201545
43	0x3df5e702	0.12006952
44	0x3e27bc56	0.16380438
45	0x3cdcf962	0.026974384
46	0x3e0364c7	0.12831412
47	0x3d567a06	0.052362464
48	0x3c0a9f1f	0.008460789
49	0xbcecaac0	-0.028890014

fc2.weight f4 [30, 50]
0	0x3e013d76	0.12621102
1	0x3e1f7d16	0.1557506
2	0x3dbc0bb8	0.09181923
3	0x3e4a49c6	0.19754705
4	0xbe673529	-0.22578873
5	0xbe4ddf12	-0.20104626
6	0x3e1a46e8	0.15066111
7	0x3e153c63	0.14573817
8	0x3e913ce1	0.2836676
9	0x3b50a2c8	0.0031835306
10	0xbe97bc18	-0.29635692
11	0xbdd5ee92	-0.10445894
12	0xbdc16a35	-0.094440855
13	0xbcfc500e	-0.030799892
14	0xbe1eec18	-0.1551975
15	0xbc08a074	-0.008339036
16	0x3bf16058	0.0073662214
17	0xbcda7b4d	-0.026670123
18	0xbdea5787	-0.11442476
19	0x3e71a62e	0.23598549
20	0x3e03c8a5	0.12869509
21	0xbf117ecb	-0.56834096
22	0xbdabe790	-0.083937764
23	0x3ccd704e	0.025077965
24	0x3da71e47	0.08160072
25	0x3df29cff	0.11846351
26	0xbe073c81	-0.13206674
27	0xbc516da9	-0.012782493
28	0xbe0dde18	-0.13854253
29	0x3e3e21f1	0.18567635
30	0xbd0b9fe1	-0.03408802
31	0x3e132c2a	0.14372316
32	0x3d787611	0.060659472
33	0xbd5da517	-0.05411252
34	0xbb521fd6	-0.0032062433
35	0xbe48d37e	-0.19611928
36	0x3d133a4e	0.035944276
37	0xbd04703f	-0.03233361
38	0xbd26acf4	-0.040692285
39	0x3e1fa419	0.15589942
40	0x3d5f83d9	0.0545691
41	0x3e9364c4	0.28787816
42	0xbbfb99a3	-0.007678227
43	0xbd06e560	-0.032933593
44	0x3f0d1689	0.5511251
45	0x3e5f3660	0.21798086
46	0xbd8c8e51	-0.06863082
47	0x3e391d2f	0.18077539
48	0x3e65c87e	0.22439763
49	0x3d4722b1	0.04861707
50	0x3e2fe232	0.1717613
51	0x3d459e68	0.04824677
52	0x3e8be17c	0.27320468
53	0xbdc69783	-0.09696867
54	0x3babbb30	0.0052408203
55	0x3e1b2827	0.15152036
56	0x3e9c9430	0.30581808
57	0xbe01859b	-0.12648623
58	0xbe6bef40	-0.23040485
59	0x3d899ebe	0.06719731
60	0x3ed5c979	0.41755274
61	0x3d434907	0.047677066
62	0xbe83eadf	-0.2576513
63	0xbe8160d5	-0.2526919
64	0x3ec3b0d5	0.3822085
65	0xbec360da	-0.3815983
66	0xbd76a2fd	-0.06021403
67	0xbbec4b7a	-0.007211146
68	0x3e97beca	0.29637748
69	0xbe86302d	-0.2620863
70	0x3cf5433a	0.029939283
71	0xbde2129a	-0.11038704
72	0xbebb797e	-0.3661613
73	0x3e52627f	0.20545386
74	0xbe5eb334	-0.21748048
75	0x3e2f662d	0.1712882
76	0x3e6c672d	0.23086233
77	0xbe2f7b43	-0.17136864
78	0xbd8daabb	-0.0691733
79	0xbe81e8c5	-0.25372902
80	0xbe1587e1	-0.14602615
81	0x3a9c4247	0.0011921608
82	0x3d17f1dc	0.03709589
83	0x3cc2861c	0.023745589
84	0x3bb92434	0.0056500677
85	0x3dc5f95f	0.096667044
86	0x3de6d8a2	0.11271788
87	0xbc84dce4	-0.01621861
88	0xbdb2817d	-0.08716104
89	0x3e4bcc57	0.19902168
90	0x3da69a68	0.081349194
91	0xbc8d05d8	-0.0172147
92	0xbd9c6648	-0.07636696
93	0xbdc14dc7	-0.09438663
94	0xbf01aa5b	-0.50650567
95	0xbcb25361	-0.021768274
96	0xbee04f9c	-0.43810737
97	0xbece963c	-0.40348995
98	0xbebb11ed	-0.36537114
99	0xbe2ff52d	-0.17183371
100	0x3e22bc40	0.15892124
101	0x3e2a40ac	0.16626233
102	0xbd83b2a6	-0.06430559
103	0x3bc12834	0.005894685
104	0xbe1c67e0	-0.15274
105	0xbe72d84a	-0.2371532
106	0xbdef335c	-0.11679718
107	0xbd8811f6	-0.06644051
108	0x3dafe19b	0.08587953
109	0x3dcf4266	0.10120086
110	0xbe5f5b7c	-0.21812242
111	0xbe1d9abe	-0.1539106
112	0x3bd70c24	0.0065627266
113	0xbdc267a8	-0.09492427
114	0xbe32ccbf	-0.17460917
115	0xbdcc9d65	-0.09990958
116	0x3e474339	0.19459237
117	0x3e1555de	0.14583537
118	0xbe11f6f2	-0.14254358
119	0x3cd9c149	0.026581423
120	0xbc880e56	-0.016608398
121	0xbf1dc65d	-0.61630803
122	0xbd944386	-0.072394416
123	0x3dc9276e	0.09821974
124	0x3e43ce76	0.19121727
125	0x3dcbd3e2	0.09952523
126	0x3d75b49f	0.059986707
127	0x3e3ad3ba	0.1824483
128	0x3dc0d611	0.0941583
129	0x3e250ac1	0.16117384
130	0xb93969e7	-0.00017682427
131	0x3e05aa0d	0.1305315
132	0x3d819d68	0.06328851
133	0x3d73ed24	0.059552327
134	0x3e265315	0.16242631
135	0xbe5bf654	-0.21480685
136	0x3e358fe7	0.17730676
137	0x3e394edf	0.18096493
138	0xbe24b8a6	-0.16086063
139	0x3ce97cee	0.028501954
140	0xbcdb5ccd	-0.02677765
141	0x3dffc409	0.124885626
142	0x3dd7e08a	0.10540874
143	0xbd0cee48	-0.03440693
144	0x3f065d83	0.5248644
145	0x3e9a67d2	0.30157334
146	0xbd8d8b16	-0.06911294
147	0xbd4e7d24	-0.050412312
148	0x3e62a974	0.22134954
149	0xbe3611b5	-0.17780192
150	0x3b70dcdb	0.0036752734
151	0x3d317e72	0.04333348
152	0xbe3f4bbc	-0.18681234
153	0x3de266fd	0.110548
154	0xbd50eeac	-0.051008865
155	0x3d8336cc	0.06406936
156	0xbe0809d3	-0.13284998
157	0xbe104aac	-0.14090985
158	0x3e2cb609	0.16866316
159	0x3db72563	0.08942678
160	0xbdc6e672	-0.09711923
161	0xbdc09e9d	-0.09405253
162	0x3d94900c	0.07254037
163	0x3e17297e	0.14761922
164	0xbeb03587	-0.34415838
165	0x3dec19cf	0.1152836
166	0x3d1cd847	0.038292196
167	0x3d78891f	0.060677644
168	0xbe7424ff	-0.23842238
169	0xbd211182	-0.039323337
170	0x3d98ecd4	0.074670464
171	0xbe38c044	-0.18042094
172	0xbe50c71e	-0.20388457
173	0xbced73ea	-0.028985936
174	0x3e3cd2d2	0.18439797
175	0x3da5b340	0.0809083
176	0xbe688b37	-0.22709356
177	0x3e0bf0c7	0.13666068
178	0xbe1d2f43	-0.1535006
179	0x3e86bca6	0.26315802
180	0x3dbd92a4	0.09256485
181	0x3d3f950e	0.04677301
182	0x3d86a0da	0.06573649
183	0x3e02aaf4	0.12760526
184	0xbdb9c9eb	-0.09071716
185	0xbe51dfdb	-0.2049555
186	0xbe26121e	-0.16217849
187	0xbcf22342	-0.029557828
188	0x3e04f8b9	0.12985505
189	0xbd9a8a98	-0.07545966
190	0xbd7d2349	-0.06180123
191	0x3dde7112	0.1086141
192	0x3d4233b6	0.047412597
193	0xbd1a00cf	-0.037598427
194	0x3e7fa080	0.2496357
195	0x3bfb9dd1	0.0076787253
196	0xbe0f0576	-0.13966927
197	0xbd158bb6	-0.03651019
198	0x3deeebcf	0.11666071
199	0xbbc8d1b2	-0.0061285133
200	0x3dbdf646	0.092754886
201	0x3ea103ac	0.31448114
202	0xbd7f0026	-0.062256
203	0x3d7a2e98	0.06107959
204	0x3d88f4b8	0.066873014
205	0x3b8ae011	0.0042381366
206	0xbdace1ae	-0.084414825
207	0x3d6d94e9	0.05800334
208	0x3eb436a6	0.35197943
209	0x3dbb2a2e	0.091389045
210	0x3daec4a9	0.08533604
211	0x3e5fd9d5	0.2186044
212	0xbd2db7ae	-0.0424115
213	0x3c968d2c	0.018377863
214	0x3d39e212	0.045381613
215	0xbeb34e58	-0.3502071
216	0x3d56d6c7	0.05245092
217	0x3e264b68	0.16239703
218	0x3f03b45b	0.51447076
219	0x3d93b57e	0.07212351
220	0x3e47c4f5	0.19508727
221	0xbd991f1f	-0.07476639
222	0x3e4199a2	0.18906263
223	0x3d55f293	0.05223329
224	0x3e11efa8	0.14251578
225	0x3e9971b7	0.2996957
226	0xbe094320	-0.13404512
227	0x3bebc294	0.0071948264
228	0x3e4017bd	0.18759055
229	0xbd2dca89	-0.04242948
230	0x3d4c0979	0.04981372
231	0x3e4902e1	0.19630004
232	0xbde037e9	-0.10948164
233	0xbc0786b2	-0.00827186
234	0x3ce2504f	0.027626185
235	0x3ddc0c50	0.10744536
236	0x3eb6d319	0.3570793
237	0xbd0beed6	-0.03416332
238	0xbdb63581	-0.08896924
239	0x3e69419e	0.22778937
240	0x3cea396f	0.02859184
241	0x3ea0bab8	0.31392455
242	0x3d9205bb	0.07129999
243	0xbdd66b27	-0.104696564
244	0xbca60b04	-0.020268925
245	0x3e48d6b9	0.1961316
246	0xbe52ac91	-0.20573641
247	0x3e98643f	0.29763982
248	0x3d5cd04a	0.053909577
249	0x3e6f0517	0.23341785
250	0x3ceb81e4	0.02874846
251	0x3dfba616	0.12287538
252	0x3e1bac70	0.15202498
253	0xbe16bb53	-0.14719896
254	0x3e9906b5	0.2988793
255	0xbca54f43	-0.020179396

fc2.bias f4 [30]
0	0x3dc825b2	0.09772815
1	0x3de6889a	0.112565234
2	0x3dbae94d	0.0912653
3	0x3e2f5f3e	0.17126176
4	0x3e4081a7	0.18799458
5	0xbbaa9162	-0.0052053193
6	0xbca94fff	-0.020668028
7	0x3d4df605	0.05028345
8	0x3d20be8f	0.03924423
9	0x3dadd03f	0.084869854
10	0x3db3b2a6	0.08774309
11	0x3e946222	0.2898112
12	0x3df7f8c7	0.121079974
13	0xbc6abc28	-0.0143270865
14	0x3d48718e	0.04893642
15	0x3df91ca1	0.12163664
16	0x3e49815a	0.1967825
17	0x3e1038a7	0.14084111
18	0x3e2d4608	0.16921246
19	0x3e6dbaa6	0.23215732
20	0x3d38cddb	0.045118194
21	0x3e09c869	0.13455357
22	0x3dccb7e7	0.09996014
23	0x3e12fa53	0.14353304
24	0x3c9ba2e2	0.018998567
25	0xbdd61d65	-0.10454825
26	0x3e186491	0.14882113
27	0x3d6cb410	0.05778891
28	0xbcaa7eeb	-0.020812472
29	0xbe04fb2a	-0.12986436

fc3.weight f4 [20, 30]
0	0x3db89d45	0.09014372
1	0xbe5ed19b	-0.21759646
2	0x3ded55b8	0.11588615
3	0xbe1ab695	-0.15108712
4	0x3e08f4c9	0.13374628
5	0xbe7a3c3a	-0.24437037
6	0xbdb3ef04	-0.08785823
7	0xbc2b3cf8	-0.010451548
8	0xbdf33a20	-0.11876321
9	0x3d9b932d	0.07596431
10	0xbe896888	-0.26837564
11	0x3e0da1da	0.13831273
12	0xbf237926	-0.6385673
13	0xbec5be8e	-0.38621944
14	0x3e70b3e6	0.23506126
15	0xbe8d19d1	-0.2755876
16	0x3e5230af	0.20526384
17	0xbc5f9aef	-0.013647779
18	0x3d877f5d	0.066160895
19	0x3e05d6fa	0.13070288
20	0x3dde89e1	0.10866142
21	0x3ec2db10	0.38057756
22	0xbdca8b3b	-0.09889837
23	0xbdf8dc07	-0.12151342
24	0xbe9b3c44	-0.30319417
25	0x3e56bbff	0.20970152
26	0x3ea558ea	0.322944
27	0xbeaf6c64	-0.34262383
28	0xbe4f4141	-0.20239736
29	0x3d00417d	0.031312454
30	0xbdf8c3c1	-0.12146712
31	0x3eebf0cd	0.46082154
32	0xbe9c0239	-0.30470446
33	0xbd7a118e	-0.061051898
34	0x3e0f70b1	0.14007832
35	0x3dd1c4b4	0.10242596
36	0x3e5417dc	0.20712227
37	0x3d7a2b50	0.061076462
38	0x3e4a2096	0.19738993
39	0x3eb0f2da	0.3456028
40	0x3ec22204	0.37916577
41	0x3d7f804f	0.062378224
42	0x3db53845	0.08848623
43	0x3e80f1dc	0.25184524
44	0xbe79951b	-0.24373285
45	0x3e5cf533	0.21577911
46	0xbe2d2a80	-0.16910744
47	0xbe71f768	-0.23629534
48	0xbded3fec	-0.11584458
49	0x3e0cdcf7	0.13756166
50	0xbde33b4b	-0.110952936
51	0xbe564dd7	-0.20928131
52	0xbe36caf2	-0.17850855
53	0xbe8ad9d3	-0.27119312
54	0x3e4559ee	0.19272587
55	0x3e964fa6	0.29357642
56	0xbe2e1f27	-0.17004071
57	0x3c048a2c	0.008089583
58	0x3ebd1751	0.36931852
59	0x3daf7399	0.085669704
60	0x3e8d8dbf	0.27647206
61	0xbf15d57b	-0.5852887
62	0x3e76115c	0.2403006
63	0xbd135829	-0.035972748
64	0xbce4cbee	-0.027929273
65	0x3e0eda8b	0.13950555
66	0xbd46aff1	-0.048507635
67	0xbe5d932c	-0.21638173
68	0xbe85a6e6	-0.26103896
69	0x3c8df42f	0.01732835
70	0xbe2aa88b	-0.16665857
71	0x3df33aff	0.11876487
72	0x3d66aced	0.05631726
73	0xbe7693bf	-0.24079798
74	0x3e72ae3d	0.23699279
75	0xbd14259a	-0.036168672
76	0x3ea7a5c9	0.32743672
77	0x3d936aff	0.07198142
78	0x3e66458f	0.22487472
79	0x3cfcc9a7	0.030857874
80	0x3e243af0	0.16038108
81	0x3ed262b0	0.41090918
82	0x3d509637	0.050924506
83	0x3cfac227	0.030610157
84	0x3d04d280	0.03242731
85	0xbc1191db	-0.008884872
86	0x3eb68b38	0.3565309
87	0x3da9c73b	0.08289953
88	0xbe99bc9e	-0.30026716
89	0xbd19f87d	-0.037590493
90	0xbe893ab9	-0.26802614
91	0x3f469b6f	0.7758092
92	0xbeef1676	-0.46696824
93	0xbdb68aa4	-0.08913162
94	0x3e34aff2	0.17645243
95	0x3d45d08a	0.04829458
96	0x3e66a2b2	0.22523001
97	0xbe5a52a1	-0.21320583
98	0x3edb2cd8	0.4280765
99	0x3e830b8b	0.25594744
100	0x3e1da675	0.1539553
101	0x3e6463e0	0.22303724
102	0x3d5e217c	0.054231152
103	0x3f0bec09	0.54657036
104	0xbd3f6274	-0.04672475
105	0x3e824568	0.25443578
106	0xbe0538f9	-0.13010015
107	0xbe842504	-0.2580949
108	0xbdf62afc	-0.12019917
109	0x3e850642	0.25981337
110	0xbe178e3a	-0.14800349
111	0xbea4d316	-0.32192296
112	0xbd3a7693	-0.045523237
113	0xbe86365a	-0.26213342
114	0x3e51a39e	0.20472571
115	0x3dd2e5fc	0.10297772
116	0xbe8ff38d	-0.28115502
117	0xbe79bd61	-0.24388649
118	0x3eefb3f1	0.46816972
119	0x3dbe9973	0.09306612
120	0xbe04ebdb	-0.12980597
121	0x3e0dbc46	0.13841352
122	0x3bc64de1	0.0060517644
123	0x3cb7d0ff	0.022438524
124	0xbdba2e9e	-0.09090923
125	0xbdba5c3d	-0.09099624
126	0x3d758c6b	0.059948366
127	0xbd70446a	-0.058658995
128	0xbe395b4e	-0.18101236
129	0x3d6146aa	0.05499903
130	0xbe30bde7	-0.17259942
131	0xbd612e2d	-0.054975677
132	0x3d81bc9d	0.06334803
133	0xbe4305b9	-0.19045152
134	0xbd82db4a	-0.06389482
135	0xbd85f0f5	-0.065400995
136	0xbe46ae1c	-0.19402355
137	0x3e052e8c	0.13006037
138	0x3defe1a2	0.11712958
139	0xbd846181	-0.0646391
140	0xbda1091b	-0.07863065
141	0xbb41b94d	-0.002955991
142	0xbe540352	-0.20704392
143	0xbd2661e4	-0.0406207
144	0xbe0a2b05	-0.13492973
145	0xbdf23801	-0.11827088
146	0x3d2f481f	0.04279339
147	0xbd1840cc	-0.03717117
148	0x3d1668db	0.03672109
149	0x3da88c8c	0.08229932
150	0xbe85c77f	-0.26128766
151	0x3e4f81f6	0.2026442
152	0xbdf066cc	-0.11738357
153	0xbe521271	-0.20514847
154	0x3e640f6c	0.22271508
155	0xbe50eb03	-0.2040215
156	0x3d041be8	0.032253176
157	0xbe0b044f	-0.13575862
158	0x3efa57b0	0.48895025
159	0x3daa022e	0.08301197
160	0xbbf05313	-0.007334122
161	0x3c338cbe	0.0109588485
162	0x3dcfbbed	0.10143266
163	0x3e51efde	0.20501658
164	0x3e2822f1	0.16419579
165	0x3e235431	0.15950085
166	0xbcd5090f	-0.026005296
167	0xbe609954	-0.2193349
168	0xbe159e0d	-0.14611073
169	0x3d1144ae	0.03546589
170	0xbd6baf39	-0.057540152
171	0x3d4c66db	0.049902778
172	0xbdfb475e	-0.122694716
173	0xbc0ecbf5	-0.008715619
174	0x3dc5890b	0.096452795
175	0x3e539d75	0.20665534
176	0x3e0605fd	0.13088222
177	0xbe8e8610	-0.27836657
178	0x3de146c1	0.10999823
179	0x3e8cc76c	0.27495897
180	0xbd8947ab	-0.06703123
181	0xbd23aeaa	-0.039961495
182	0xbe20915c	-0.1568045
183	0x3bb98e86	0.005662742
184	0x3e2d4395	0.16920312
185	0x3db94308	0.09045988
186	0x3e4c343b	0.199418
187	0xbde27120	-0.11056733
188	0xbba31dea	-0.0049779313
189	0xbe23a08d	-0.15979214
190	0xbdec9793	-0.11552348
191	0xbe1dceb0	-0.15410876
192	0x3ccecf2d	0.025245273
193	0xbe05fc35	-0.1308449
194	0xbd824045	-0.06359915
195	0x3d10fe98	0.03539905
196	0x3d5c9625	0.053854126
197	0xbd858c36	-0.06520884
198	0xbe237af6	-0.15964875
199	0xbe431dfe	-0.1905441
200	0xbe1e2d46	-0.15446958
201	0x3d64bfbf	0.055846926
202	0xbdcd44e9	-0.10022909
203	0xbdad30c8	-0.0845657
204	0x3e834f08	0.25646234
205	0xbe1750fd	-0.14776988
206	0x3d8d70b6	0.069062635
207	0xbcd6bc56	-0.026212852
208	0x3d036304	0.03207685
209	0x3e0255e6	0.1272808
210	0x3ecdfe7d	0.40233222
211	0xbeda1131	-0.4259124
212	0x3d11b49e	0.03557264
213	0xbdfa69a7	-0.12227183
214	0x3e73ccc5	0.23808582
215	0xbe0d3934	-0.13791353
216	0xbc406507	-0.011742837
217	0x3d497256	0.049181305
218	0xbe4e474f	-0.2014439
219	0x3cd58127	0.026062561
220	0xbe77b2e6	-0.24189338
221	0x3e490b9c	0.19633335
222	0x3d3cd30e	0.046099715
223	0xbe774b92	-0.24149922
224	0xbd11281d	-0.035438646
225	0xbe5d1b12	-0.21592358
226	0x3e0fef99	0.14056243
227	0xbd324f52	-0.043532677
228	0x3db210b4	0.08694592
229	0x3e90c3c0	0.28274345
230	0xbd31cebc	-0.043410048
231	0xbc1d3fc5	-0.009597723
232	0xbe0fadb5	-0.14031108
233	0x3e02dc59	0.12779368
234	0xbd05722c	-0.032579586
235	0xbe868f99	-0.2628143
236	0x3ecf5f8e	0.4050259
237	0x3ddb8162	0.10718037
238	0xbef8b3f2	-0.48574787
239	0xbdd557f3	-0.104171656
240	0xbeb6a4ee	-0.35672706
241	0x3ede0478	0.43362784
242	0xbed572da	-0.41689187
243	0xbe88991d	-0.26679316
244	0x3d910009	0.07080085
245	0x3e008f99	0.12554778
246	0x3e9f129d	0.31068888
247	0xbd3a9916	-0.04555615
248	0x3e6cc567	0.23122178
249	0x3d464fc8	0.04841593
250	0x3e74983c	0.23886198
251	0xbd90b06a	-0.07064898
252	0x3e5145b0	0.2043674
253	0x3f0d5ad0	0.55216694
254	0x3db640f2	0.08899106
255	0x3e9de769	0.30840614

fc3.bias f4 [20]
0	0x3e3cee57	0.18450294
1	0x3e439918	0.1910137
2	0x3d357cf8	0.044308633
3	0x3db88597	0.09009855
4	0xbe072708	-0.13198483
5	0xbd031d8f	-0.03201061
6	0x3c8b6863	0.017017549
7	0x3d3c28bf	0.045937296
8	0x3dad49b0	0.084613204
9	0x3ce46c1e	0.027883586
10	0xbd65a159	-0.056062076
11	0x3df3925a	0.11893149
12	0xbe456491	-0.19276644
13	0x3d9a7c70	0.07543266
14	0x3e165f1e	0.14684722
15	0x3d1db7d6	0.038505398
16	0xbde8c21c	-0.113651484
17	0xbde84653	-0.11341538
18	0x3d6ffce3	0.05859078
19	0x3e0f69fb	0.14005272

fc4.weight f4 [2, 20]
0	0x3eaa3d67	0.3324997
1	0xbecf989e	-0.40546125
2	0x3e07be46	0.13256177
3	0xbf15be9a	-0.5849396
4	0x3e3469e0	0.17618513
5	0xbea1a13f	-0.31568334
6	0xbe13f133	-0.14447479
7	0x3e72aade	0.23697993
8	0xbeea4bd2	-0.4576097
9	0xbed75336	-0.42055672
10	0x3e06befe	0.13158795
11	0x3eb17c57	0.34665176
12	0x3ded0a3b	0.11574217
13	0x3ea1f5c6	0.31632823
14	0xbee84a47	-0.4536917
15	0x3ebd7c06	0.37008685
16	0xbe544e17	-0.20732914
17	0xbd013a51	-0.031549755
18	0x3e8ea1d7	0.2785785
19	0x3e35ae5b	0.17742293
20	0xbee749e5	-0.45173565
21	0x3e637121	0.22211124
22	0xbebdaf3f	-0.37047765
23	0x3e5d88fd	0.21634288
24	0x3e076fbd	0.13226219
25	0x3eb1469f	0.34624192
26	0x3e1bd4b4	0.15217859
27	0xbec318f9	-0.3810499
28	0x3e9d4f01	0.30724338
29	0x3eddc35b	0.43313107
30	0xbe1dcc20	-0.15409899
31	0xbde9dc87	-0.114190154
32	0xbe8b468f	-0.2720227
33	0xbeb10221	-0.34571937
34	0x3f1bacac	0.6081035
35	0xbef326d4	-0.4749056
36	0xbe270a4d	-0.16312523
37	0x3c436684	0.011926297
38	0xbeb43864	-0.35199273
39	0xbe7a468d	-0.24440975

fc4.bias f4 [2]
0	0xbe0fc971	-0.14041688
1	0xbcd25803	-0.025676733
