Sample_Based_Extension/UNSW/transfer_attack/dnn_pytorch.pt (torch, 23216 bytes, 8 tensors)

fc1.weight f4 [50, 56]
0.12971449 0.3342534 0.005599883 -0.07373918 -0.06469671 -0.18826212 -0.103272066 -0.19158034
-0.055052795 0.057736967 0.38371244 0.03451619 -0.056746636 0.47155264 0.12211216 -0.22107172
0.031180875 -0.16563697 0.005716093 0.23714401 0.06623169 0.095924266 0.040383045 -0.35488868
-0.3032436 0.13645704 0.29330796 0.13232999 0.050208416 -0.11882988 -0.20692234 -0.21727061
-0.16665883 0.024452472 -0.06848009 -0.0303515 0.10359461 -0.68421984 -0.6073137 -0.30758795
-0.03025973 0.21146 0.08079673 0.0110901 -0.05830059 -0.29365566 0.10056696 -0.05830832
0.02525797 0.07954405 -0.04720661 0.015809609 -0.07334552 0.0051639546 0.0639499 0.2717853
0.18306737 0.14232618 0.6064203 0.13409016 -0.22028251 0.33641276 -0.24463893 0.14330412
-0.13474807 0.012217749 -0.01915829 -0.024850473 -0.17122701 0.20029995 -0.43428233 -0.05821271
0.29350132 0.34082794 0.039755125 -0.12457047 -0.2035576 -0.119784504 0.033432055 -0.13526861
-0.1519083 -0.0020229504 0.04183814 0.039346326 -0.07709415 0.16387685 -0.12791926 -0.02065935
-0.12144988 0.08575976 0.058467336 -0.11341821 -0.12686455 -0.0064108344 0.07113174 0.005189222
-0.19064467 0.009267901 0.15817289 -0.04758268 0.49781623 0.2593975 -0.08352209 -0.046372272
0.50204337 -0.12000389 -0.024735885 0.05821669 0.097657405 0.042720005 0.15225156 0.19498557
-0.022429993 0.35349387 -0.13370398 -0.06156833 -0.051798988 -0.112290576 0.0026440762 -0.15491223
-0.2837049 -0.11546427 -0.18119462 0.20818776 -0.006673586 0.5263383 -0.40285537 0.009380981
0.11322947 0.16834384 0.12790743 -0.13151401 -0.13154118 0.07879543 -0.12102939 -0.2514856
0.050967067 0.034177307 0.10824702 0.06737503 -0.057342708 0.014006612 -0.3222216 -0.048757005
-0.2247564 0.1525915 -0.09154184 0.059453998 0.042284153 0.10617984 -0.01671613 0.06307231
-0.5879651 -0.052879725 0.1338025 -0.03435603 0.2065134 0.15935045 0.074191384 0.11433274
0.2744008 0.21897526 0.016385166 -0.0067627416 0.06347048 -0.053771257 -0.061980855 -0.020756593
-0.06441727 -0.3697743 0.36190534 -0.02569426 0.09754908 0.72145873 -0.06886623 0.063147396
0.06908896 0.34429985 0.3737727 0.10799351 0.41526398 0.07280341 0.09436056 0.045186885
-0.016766679 -0.032349225 -0.19422275 -0.09614674 0.01157423 -0.03711625 0.0796445 0.032049432
-0.045087453 -0.12948738 -0.08750544 0.13867737 0.010526503 -0.016014647 0.0317029 0.012475548
0.02048117 0.01272331 0.091237 -0.04048435 0.07783003 0.11265972 0.12889938 -0.052465692
-0.0067709316 -0.03737175 -0.04111379 -0.0837867 0.43804494 0.067870125 0.01976148 0.28532946
0.08250022 -0.98954916 -0.00801681 -0.048037607 -0.046543967 -0.036645442 0.55586684 -0.021849832
-0.46564686 -0.10679041 0.5582186 -0.058519624 0.060917377 0.15078476 -0.036138162 0.24243043
-0.16345035 -0.36202225 -0.094567925 0.42652208 -0.12063817 -0.65074205 0.16320789 -0.1345535
0.70814043 -0.088006124 0.10927783 -0.10405519 0.16218185 -0.2364932 0.022514222 0.16166684
-0.039910115 -0.055949476 -0.06468744 -0.088332094 -0.61258876 -0.057631094 0.23572905 0.012936794
00000000: e0d3 043e 4323 ab3e 397f b73b 9104 97bd
00000010: b57f 84bd c9c7 40be 4e80 d3bd a32d 44be
00000020: 0a7f 61bd 997d 6c3d f575 c43e d960 0d3d
00000030: 296f 68bd 596f f13e f115 fa3d a060 62be
00000040: 096f ff3c bd9c 29be 104e bb3b e1d5 723e
00000050: 7ba4 873d f173 c43d b168 253d f8b3 b5be
00000060: bf42 9bbe 65bb 0b3e 762c 963e 8381 073e
00000070: 57a7 4d3d 155d f3bd 73e3 53be 307c 5ebe
00000080: 9da8 2abe 8d50 c83c 4a3f 8cbd b5a3 f8bc
00000090: 6929 d43d 0829 2fbf e978 1bbf 2b7c 9dbe
000000a0: 41e3 f7bc f888 583e c278 a53d 40b3 353c
000000b0: 99cc 6ebd 095a 96be 0df6 cd3d b4d4 6ebd
000000c0: cde9 ce3c fee7 a23d b85b 41bd 2783 813c
000000d0: 2d36 96bd 6436 a93b 2af8 823d 7127 8b3e
000000e0: 0376 3b3e f4bd 113e 5c3e 1b3f ee4e 093e
000000f0: bd91 61be 4b3e ac3e a182 7abe 51be 123e
00000100: 66fb 09be f42c 483c d9f1 9cbc 3893 cbbc
00000110: 2256 2fbe 6e1b 4d3e 415a debe 7370 6ebd
00000120: ce45 963e 0081 ae3e 45d6 223d cd1e ffbd
00000130: 6771 50be 9451 f5bd 0df0 083d db83 0abe
00000140: d98d 1bbe 7a93 04bb 785e 2b3d 9d29 213d
00000150: 8ae3 9dbd 55cf 273e 44fd 02be cc3d a9bc
00000160: b7ba f8bd d0a2 af3d 727b 6f3d ce47 e8bd
00000170: c8e8 01be fa11 d2bb 85ad 913d 590a aa3b
00000180: 5b38 43be 65d8 173c 13f8 213e 0ee6 42bd
00000190: c5e1 fe3e c0cf 843e a10d abbd daf0 3dbd
000001a0: ea85 003f 99c4 f5bd e9a2 cabc a074 6e3d
000001b0: 9b00 c83d 2cfb 2e3d d5e7 1b3e 4caa 473e
000001c0: 1bbf b7bc 26fd b43e b2e9 08be 132f 7cbd
000001d0: 2d2b 54bd 9af8 e5bd 3d48 2d3b 50a1 1ebe
000001e0: c541 91be 8878 ecbd 158b 39be 2c2f 553e
000001f0: 19ae dabb 1bbe 063f 0f43 cebe b0b2 193c
00000200: dae4 e73d 5462 2c3e 2afa 023e 9cab 06be
00000210: bbb2 06be 805f a13d 42de f7bd b8c2 80be
00000220: d8c2 503d 81fd 0b3d 9db0 dd3d ebfb 893d
00000230: 30e0 6abd fd7b 653c 3bfa a4be 6db5 47bd
00000240: 8b26 66be f240 1c3e 4a7a bbbd 0986 733d
00000250: 2632 2d3d d174 d93d 44f0 88bc 0e2c 813d
00000260: e184 16bf 6998 58bd 8603 093e e9b8 0cbd
00000270: 4078 533e c42c 233e a7f1 973d 4927 ea3d
00000280: 437e 8c3e 0d3b 603e 2f3a 863c fd99 ddbb
00000290: d0fc 813d 403f 5cbd a3df 7dbd bb09 aabc
000002a0: 34ed 83bd 0f53 bdbe a84b b93e c57c d2bc
000002b0: d0c7 c73d 85b1 383f bd09 8dbd 6c53 813d
000002c0: 837e 8d3d 1248 b03e 235f bf3e b42b dd3d
000002d0: 7b9d d43e f419 953d 1c40 c13d e215 393d
000002e0: 465a 89bc 9f80 04bd 54e2 46be 95e8 c4bd
000002f0: d7a1 3d3c 3507 18bd a81c a33d 4446 033d
00000300: 9fad 38bd 5798 04be 0d36 b3bd 7101 0e3e
00000310: 5b77 2c3c 2631 83bc e6da 013d 3e66 4c3c
00000320: 20c8 a73c 6e75 503c 77da ba3d ebd2 25bd
00000330: 5a65 9f3d 24ba e63d 33fe 033e 44e6 56bd
00000340: b1de ddbb 1f13 19bd ef66 28bd 5d98 abbd
00000350: 6d47 e03e 7eff 8a3d d4e2 a13c b416 923e
00000360: e0f5 a83d 1853 7dbf f058 03bc 15c3 44bd
00000370: e3a4 3ebd 8819 16bd 4a4d 0e3f 6bfe b2bc
00000380: 4469 eebe eeb4 dabd 6ae7 0e3f 46b2 6fbd
00000390: 8084 793d 5267 1a3e 9c05 14bd af3f 783e
000003a0: 875f 27be fb5a b9be d4ac c1bd 1a61 da3e
000003b0: 2511 f7bd 0897 26bf f81f 273e 65c8 09be
000003c0: b148 353f 8e3c b4bd 0ecd df3d e31a d5bd
000003d0: 0013 263e 462b 72be bf6f b83c fe8b 253e
000003e0: ca78 23bd 472b 65bd d97a 84bd 75e7 b4bd
000003f0: 9ed2 1cbf 950e 6cbd f562 713e d9f4 533c

fc1.bias f4 [50]
-0.09952541 -0.18664205 -0.1714612 0.14934292 0.028190196 0.07358627 -0.1448462 -0.030208739
-0.05404047 -0.07759476 0.052837167 -0.20958427 -0.17540726 -0.022792483 0.093259335 0.06996701
0.031256903 -0.11268533 -0.07405994 -0.18247862 -0.16014145 -0.1682435 -0.117370665 0.19136706
0.046930607 -0.057657417 -0.0054882606 -0.089558825 0.08279367 0.014102894 -0.22987564 -0.12767918
0.0067283455 0.11143284 -0.07917872 0.032720834 0.009134826 0.1407981 -0.09830245 0.08264212
0.08863693 0.03789845 -0.06397891 0.06872765 -0.08917084 -0.023663415 -0.022018563 -0.016079579
0.047001537 0.091241166
00000000: fad3 cbbd 181f 3fbe 8693 2fbe 5aed 183e
00000010: 20ef e63c 66b4 963d 9052 14be 5178 f7bc
00000020: 8a59 5dbd 00ea 9ebd c96b 583d 429d 56be
00000030: f69d 33be 4db7 babc c0fe be3d dd4a 8f3d
00000040: 3d07 003d 91c7 e6bd bdac 97bd addb 3abe
00000050: 1ffc 23be 0648 2cbe 0860 f0bd baf5 433e
00000060: 4f3a 403d 2f2a 6cbd ded6 b3bb 9e6a b7bd
00000070: ba8f a93d d30f 673c 8564 6bbe 55be 02be
00000080: 7479 dc3b e736 e43d 7428 a2bd 4806 063d
00000090: 3daa 153c 612d 103e cb52 c9bd 4640 a93d
000000a0: 4787 b53d 683b 1b3d 6007 83bd 15c1 8c3d
000000b0: 349f b6bd c7d9 c1bc 4660 b4bc 52b9 83bc
000000c0: af84 403d a6dc ba3d

fc2.weight f4 [30, 50]
-0.12090604 0.2042953 0.087718986 0.005634673 0.70841116 -0.046548974 0.042656984 -0.059418153
0.17884727 0.013277196 0.20162663 1.0156391 0.17654942 0.09161414 -0.036237627 -0.049127627
-0.0775996 -0.1457161 -0.07208246 -0.55852854 -0.04077731 -0.0043895026 -0.17262259 -0.2391793
0.16020225 0.20868592 -0.043045145 -0.10318474 -0.098673046 0.10393255 0.1761759 0.040962327
0.38054496 -0.0740136 0.054102287 -0.2094588 0.3487607 0.30924612 0.16842286 -0.0752228
0.12654428 -0.26584604 0.0030508325 0.09099275 -0.13757443 0.23988888 0.23431686 -0.10802796
0.040403623 0.11560195 0.06138109 -0.38091174 -0.032964125 0.21766163 -0.28906682 -0.39592317
-0.11915972 0.2877643 -0.4745319 0.027947051 -0.15616146 1.3240486 0.040528968 -0.046533965
0.03358942 -0.016747316 0.13999435 -0.40497172 -0.27442282 0.03474789 -0.049782656 -0.91923124
-0.2551072 -0.2583551 -0.052844487 -0.34158966 -0.21053964 -0.18488942 0.22169523 0.19715385
0.14654364 -0.30343866 0.012920019 0.023790887 0.093636945 0.20470034 0.5671129 0.2959215
0.24270312 -0.04206951 0.053200595 0.070241936 -0.16546053 0.03698746 0.11863236 -0.00045076522
-0.32064173 0.08394094 0.31901327 0.47873095 -0.38310164 0.52492625 0.27709252 -0.089885525
-0.2062348 0.18980461 0.24498235 -0.16427453 0.22568128 0.20191075 -0.052712873 -0.21563363
0.15432517 -0.52384317 -0.39788625 0.090915285 0.0025665308 -0.29008046 0.25672552 -0.30414167
-0.11820592 -0.072202444 -0.9131164 -0.1756793 -0.41168875 -0.22621086 0.004155933 0.17108013
0.08827531 -0.52103406 0.7699618 -0.05075151 -0.2564829 0.0117576085 -0.31305677 0.07479433
-0.37370566 -0.047609158 0.16483617 0.2767489 0.27130282 -0.32757044 -0.6746157 0.0604446
0.16486007 -0.3134415 -0.2011648 0.5442857 -0.5931977 -0.5325297 0.24718939 -0.2957481
0.18874894 0.14447938 -0.30012524 0.12897448 -0.28327018 0.05590856 -0.045943618 0.32049552
0.00499183 -0.8302476 -0.088271655 -0.057082407 -0.046326786 -0.34100333 0.016047 0.17527933
0.148125 -0.07952714 -0.08968753 0.24775657 0.35545248 0.089000344 -0.019970888 -0.1719278
0.022855867 0.06897802 -0.05250416 -0.12761796 -0.4523949 0.13274145 0.009704387 -0.010084849
-0.26606134 -0.11153269 0.0152553525 -0.31658033 0.031999853 -0.068920724 0.051318053 0.28318688
-0.18790233 0.31203756 0.155658 -0.18673573 0.4310193 0.23897561 -0.19549221 -0.026990332
0.3824147 -0.020226927 0.022346167 0.53562516 -0.11977388 0.5471289 -0.008529318 0.4164276
-0.37266627 0.7119268 0.13847366 -0.96585786 -0.09432994 0.09581406 0.22621717 -0.24282293
-0.08635477 0.27797902 0.18706934 0.62404215 -0.029179173 -0.0974229 0.21679439 0.0153539125
0.26708966 0.0937727 -0.103704974 0.002666284 0.14346787 -0.025122982 -0.134035 -0.22296666
0.20570804 -0.0021259515 0.20486759 -0.16775382 0.039225098 0.07863083 -0.159844 -0.37590185
-0.012014535 0.3157018 -0.049169403 0.31014353 0.28066725 0.14666095 0.26548812 0.028824024
-0.12889668 0.03539104 0.051388115 -0.17611635 -0.016944984 0.40747264 -0.22248858 -0.1895552
00000000: 969d f7bd ca32 513e 03a6 b33d 10a3 b83b
00000010: 6f5a 353f 23aa 3ebd 17b9 2e3d 7360 73bd
00000020: bd23 373e 9988 593c 3677 4e3e 7600 823f
00000030: 5fc9 343e 32a0 bb3d e86d 14bd 0d3a 49bd
00000040: 8aec 9ebd 9a36 15be f89f 93bd bafb 0ebf
00000050: 1c06 27bd d1d5 8fbb fac3 30be 6beb 74be
00000060: 0f0c 243e c3b1 553e 1b50 30bd 8552 d3bd
00000070: 1815 cabd 97da d43d 7567 343e 1dc8 273d
00000080: cad6 c23e 7194 97bd 5c9a 5d3d 5e7c 56be
00000090: c390 b23e 8255 9e3e 0b77 2c3e 690e 9abd
000000a0: d394 013e f91c 88be 7af0 473b 685a ba3d
000000b0: 50e0 0cbe 6ea5 753e c2f0 6f3e c33d ddbd
000000c0: 457e 253d b7c0 ec3d bd6a 7b3d dd06 c3be
000000d0: 6405 07bd b1e2 5e3e 9100 94be 71b6 cabe
000000e0: 030a f4bd d855 933e d8f5 f2be 37f1 e43c
000000f0: cae8 1fbe 6d7a a93f b401 263d 669a 3ebd
00000100: 0f95 093d ab31 89bc ae5a 0f3e 7458 cfbe
00000110: 2681 8cbe ce53 0e3d e6e8 4bbd bd52 6bbf
00000120: 699d 82be 1f47 84be 7673 58bd d7e4 aebe
00000130: b497 57be a753 3dbe 1304 633e b3e2 493e
00000140: 890f 163e 505c 9bbe 7dae 533c 1be5 c23c
00000150: bac4 bf3d f79c 513e 502e 113f 0683 973e
00000160: 2b87 783e 1451 2cbd dee8 593d 01db 8f3d
00000170: 7c6e 29be 2a80 173d 86f5 f23d af54 ecb9
00000180: 272b a4be 3ae9 ab3d b555 a33e 391c f53e
00000190: e625 c4be 9161 063f 12df 8d3e e715 b8bd
000001a0: 372f 53be 245c 423e a7dc 7a3e 9537 28be
000001b0: fe18 673e b1c1 4e3e 74e9 57bd 10cf 5cbe
000001c0: 6b07 1e3e 961a 06bf bfb7 cbbe cb31 ba3d
000001d0: 3e33 283b 6d85 94be 8771 833e 75b8 9bbe
000001e0: f215 f2bd e0de 93bd ffc1 69bf 46e5 33be
000001f0: dec8 d2be d2a3 67be 7e2e 883b a12f 2f3e
00000200: b0c9 b43d 7d62 05bf 371c 453f d1e0 4fbd
00000210: ba51 83be fca2 403c fa48 a0be c52d 993d
00000220: 5956 bfbe d201 43bd d0ca 283e 08b2 8d3e
00000230: 34e8 8a3e 50b7 a7be 9db3 2cbf c294 773d
00000240: 14d1 283e 677b a0be 25fe 4dbe 4f56 0b3f
00000250: cedb 17bf de53 08bf 371f 7d3e 4c6c 97be
00000260: 6747 413e 67f2 133e 04aa 99be e311 043e
00000270: ca08 91be 6000 653d 602f 3cbd fd17 a43e
00000280: 8192 a33b 1b8b 54bf c5c7 b4bd 3ecf 69bd
00000290: 28c1 3dbd fd97 aebe 0075 833c 6d7c 333e
000002a0: 14ae 173e 20df a2bd 19ae b7bd e6b3 7d3e
000002b0: defd b53e d045 b63d fd99 a3bc d70d 30be
000002c0: 3a3c bb3c 5944 8d3d 9a0e 57bd 48ae 02be
000002d0: 4ea0 e7be 60ed 073e 26ff 1e3c ec3a 25bc
000002e0: 3139 88be 406b e4bd 96f1 793c d116 a2be
000002f0: 4712 033d 4f26 8dbd e132 523d dffd 903e
00000300: 7869 40be 63c3 9f3e d064 1f3e a737 3fbe
00000310: 90ae dc3e 06b6 743e 1c2f 48be d41a ddbc
00000320: dccb c33e f1b2 a5bc 4f0f b73c bb1e 093f
00000330: 024c f5bd a410 0c3f 8dbe 0bbc 0036 d53e
00000340: 1dce bebe d640 363f 0acc 0d3e 7642 77bf
00000350: 0e30 c1bd 293a c43d 79a5 673e 93a6 78be
00000360: c5da b0bd 4453 8e3e 1b8f 3f3e 3ac1 1f3f
00000370: 2909 efbc a885 c7bd 59ff 5d3e fa8e 7b3c
00000380: fabf 883e e70b c03d 4663 d4bd d3bc 2e3b
00000390: 3ee9 123e b6ce cdbc 7940 09be 5f51 64be
000003a0: 21a5 523e 8c53 0bbb cfc8 513e a8c7 2bbe
000003b0: 7faa 203d 3309 a13d 25ae 23be 3576 c0be
000003c0: 9dd8 44bc aba3 a13e db65 49bd 22cb 9e3e
000003d0: 9eb3 8f3e 4a2e 163e 0fee 873e 5c20 ec3c
000003e0: 7efd 03be 32f6 103d 587c 523d d857 34be
000003f0: 35d0 8abc 41a0 d03e 0cd4 63be c21a 42be

fc2.bias f4 [30]
0.14188462 -0.061248355 0.109954685 0.09757043 0.03515272 0.0045826524 -0.084295794 -0.08480303
0.22736809 0.10836281 -0.072294846 -0.013886113 0.03849485 -0.017063448 0.16484968 -0.02727875
0.01743529 -0.02292397 0.1517532 0.033302523 0.07861411 -0.041361567 0.037255026 0.23628557
0.0892057 -0.041739386 0.18257147 0.21805963 0.25545883 -0.037470557
00000000: 344a 113e 8edf 7abd ec2f e13d 01d3 c73d
00000010: 4cfc 0f3d 132a 963b 46a3 acbd 36ad adbd
00000020: 2ed3 683e 52ed dd3d 520f 94bd 9482 63bc
00000030: c7ac 1d3d a5c8 8bbc 5bce 283e af77 dfbc
00000040: 74d4 8e3c 0dcb bbbc 3165 1b3e 3a68 083d
00000050: 6f00 a13d bf6a 29bd ba98 183d d8f4 713e
00000060: 7ab1 b63d ebf6 2abd 04f4 3a3e 064b 5f3e
00000070: 80cb 823e ba7a 19bd

fc3.weight f4 [20, 30]
0.29199103 -0.444197 -0.32257888 -0.10115803 0.3289421 0.22226393 -0.10672627 0.19986656
-0.110638164 -0.46147475 0.32215044 0.038381793 -0.2478539 -0.2043848 0.282491 -0.0902852
0.6280048 -0.34727445 -0.3666864 -0.26641494 -0.9357595 -0.10248646 -0.942362 0.19035403
0.23367569 -0.31411928 0.1349483 0.27851203 0.1970523 -0.16152193 0.06694227 0.025243906
0.31420532 0.024962286 -0.36367318 0.08136728 -0.04341864 0.4483898 0.35529187 0.020985758
-0.34745416 0.16842277 -0.1608262 0.03609981 0.20257658 0.097647734 -0.43151018 0.16527866
0.19086903 0.16366448 0.15931232 -0.30099577 -0.113762446 -0.0128874 -0.4511679 0.09673103
0.06283751 0.09136687 0.17896725 0.34009376 0.26269162 0.35518572 0.26801163 0.009386971
-0.45466426 0.12180733 0.05189635 0.3304242 0.26185763 0.22163318 -0.20380463 0.085879505
0.041089263 0.22860537 0.3712615 -0.07727607 -0.6222913 -0.11722212 0.3352559 0.09096888
-0.1374958 -0.088858396 -0.03563867 0.032228347 -0.18342315 0.27867827 0.026245119 0.18652256
0.13700774 0.45288843 0.03872004 0.02561326 -0.09645051 0.040495407 0.33309805 0.027341407
-0.0009912096 0.09718944 0.28803042 0.00060431525 0.17589918 -4.5732526e-05 -0.3580207 -0.5283324
0.047895413 -0.048790094 0.68370557 -0.5141663 -0.3228759 -0.15939109 -1.1416712 0.208697
-0.56618357 0.0762316 0.3934077 -0.12059714 -0.10663472 0.25269148 0.24067439 -0.42154554
0.33779624 0.44315627 0.4023609 0.02887824 -0.40941396 0.139502 -0.16659953 0.27938792
0.07210586 0.02582696 -0.3703151 0.23697135 0.030867144 0.14725158 0.39031607 0.026112976
-0.46448347 -0.088852234 0.27321854 0.18123645 -0.0351814 -0.1084427 -0.08079711 0.33026502
-0.31627464 0.43457863 -0.16832194 0.053044 0.0695237 0.57900745 -0.27425548 -0.35598198
-0.36286253 0.43774426 0.15133531 -0.86863077 -0.03547645 -0.14239478 0.0006098906 -0.1637698
-0.20205858 -0.20985875 0.8013347 0.21525337 -0.21257788 -0.024391554 0.7964836 0.08675475
0.0077779256 0.12684198 0.44051474 0.006371768 0.34747362 -0.15032233 0.009133603 -0.13638276
-0.4106594 -0.34451056 -0.18487349 -0.41516796 0.28079146 0.26069513 0.2531823 -0.2868547
-0.29651543 0.17138681 -0.2294686 0.3929809 0.08415756 0.24028835 -0.54669315 0.34816188
-0.1567876 -0.011966412 0.2133583 0.1343219 -0.66433483 0.099719696 0.3960924 0.095219806
0.1124817 -0.14662345 -0.09614231 0.224503 -0.3062514 0.4299073 -0.17004378 0.06865336
0.25003085 0.37031016 0.07405077 -0.16369982 -0.13595724 -0.1312039 -0.04594178 0.008815815
-0.19283193 -0.08131471 0.07912086 0.066118024 0.18187983 0.06478683 0.0030592664 -0.16454409
-0.15396719 -0.15760274 0.12615696 -0.116096295 -0.0028647573 0.053858813 -0.11300329 -0.17337747
0.08797094 -0.09813101 -0.18961322 0.15499423 -0.17401837 0.05030516 -0.1538341 -0.0068951123
0.18887743 0.2788158 0.5447607 -0.014006676 -0.3496586 0.14551336 -0.20285518 0.3286523
0.18681021 0.045413442 -0.30360717 0.2914324 -0.20217134 0.1878074 0.26035905 0.18061082
00000000: d97f 953e ca6d e3be 0f29 a5be f12b cfbd
00000010: 196b a83e 2899 633e 4d93 dabd d2a9 4c3e
00000020: 4396 e2bd 6b46 ecbe e7f0 a43e 3a36 1d3d
00000030: 6acd 7dbe 404a 51be a9a2 903e 72e7 b8bd
00000040: ecc4 203f f5cd b1be 52be bbbe 8a67 88be
00000050: ef8d 6fbf 6ce4 d1bd a33e 71bf 2bec 423e
00000060: ae48 6f3e 3ed4 a0be e32f 0a3e 2199 8e3e
00000070: 14c8 493e 0166 25be 0719 893d 4fcc ce3c
00000080: 85df a03e b57d cc3c 5f33 babe e3a3 a63d
00000090: bed7 31bd 5993 e53e d1e8 b53e 53ea ab3c
000000a0: 83e5 b1be 0577 2c3e a0af 24be 65dd 133d
000000b0: 3c70 4f3e 89fb c73d e7ee dcbe cf3e 293e
000000c0: 2c73 433e a997 273e c522 233e 1e1c 9abe
000000d0: 49fc e8bd ac25 53bc 7bff e6be eb1a c63d
000000e0: f4b0 803d 8e1e bb3d 3143 373e c520 ae3e
000000f0: 847f 863e e7da b53e d238 893e cfcb 193c
00000100: c1c9 e8be 1f76 f93d 4491 543d 5c2d a93e
00000110: 3412 863e cff3 623e 29b2 50be 98e1 af3d
00000120: 374d 283d 8717 6a3e fd15 be3e eb42 9ebd
00000130: 7c4e 1fbf 2712 f0bd a9a6 ab3e e44d ba3d
00000140: b3cb 0cbe 64fb b5bd dbf9 11bd df01 043d
00000150: 47d3 3bbe ebae 8e3e 0100 d73c c5ff 3e3e
00000160: c24b 0c3e fee0 e73e e898 1e3d e6d2 d13c
00000170: d887 c5bd 83de 253d d48b aa3e 16fb df3c
00000180: 7aeb 81ba 420b c73d b978 933e e96a 1e3a
00000190: ea1e 343e edd0 3fb8 7d4e b7be cb40 07bf
000001a0: fb2d 443d 1fd8 47bd 5407 2f3f 67a0 03bf
000001b0: fd4f a5be 6b37 23be 4822 92bf abb4 553e
000001c0: 68f1 10bf 501f 9c3d bc6c c93e a2fb f6bd
000001d0: 4e63 dabd c760 813e 5973 763e d1d4 d7be
000001e0: a1f3 ac3e 61e5 e23e 3f02 ce3e 0f92 ec3c
000001f0: b59e d1be 9dd9 0e3e 1199 2abe ef0b 8f3e
00000200: 3dac 933d 1093 d33c f199 bdbe 9ea8 723e
00000210: 18dd fc3c 1ec9 163e 82d7 c73e e1ea d53c
00000220: c7d0 edbe 29f8 b5bd 4de3 8b3e 0c96 393e
00000230: 5f1a 10bd 3517 debd f578 a5bd 7f18 a93e
00000240: c0ee a1be 1781 de3e 965c 2cbe aa44 593d
00000250: 7162 8e3d d539 143f 376b 8cbe 4543 b6be
00000260: 1ec9 b9be 0420 e03e a5f7 1a3e 965e 5ebf
00000270: c14f 11bd f0cf 11be 11e1 1f3a 45b3 27be
00000280: 72e8 4ebe 36e5 56be 4524 4d3f 616b 5c3e
00000290: 04ae 59be ccd0 c7bc 59e6 4b3f 79ac b13d
000002a0: f8dd fe3b dde2 013e 268b e13e 44ca d03b
000002b0: 10e8 b13e 19ee 19be 1ca5 153c eca7 0bbe
000002c0: f341 d2be b063 b0be 7a4f 3dbe e590 d4be
000002d0: e6c3 8f3e d579 853e 1ca1 813e 9fde 92be
000002e0: dfd0 97be 0680 2f3e d1f9 6abe cb34 c93e
000002f0: cc5a ac3d 260e 763e 15f4 0bbf 4642 b23e
00000300: ee8c 20be c50e 44bc 997a 5a3e ae8b 093e
00000310: d911 2abf d739 cc3d a0cc ca3e 9a02 c33d
00000320: ce5c e63d 7524 16be 42e6 c4bd 1de4 653e
00000330: fccc 9cbe cf1c dc3e f51f 2ebe 229a 8c3d
00000340: 0b04 803e 4b99 bd3e eea7 973d eda0 27be
00000350: 6038 0bbe 515a 06be 732d 3cbd 3570 103c
00000360: bc75 45be 5488 a6bd 1e0a a23d e368 873d
00000370: b53e 3a3e f5ae 843d f97d 483b 3f7e 28be
00000380: 93a9 1dbe 9d62 21be 4a2f 013e e5c3 edbd
00000390: a7be 3bbb 0f9b 5c3d 456e e7bd dd89 31be
000003a0: 1c2a b43d e9f8 c8bd f829 42be cfb6 1e3e
000003b0: df31 32be c90c 4e3d b086 1dbe 65f0 e1bb
000003c0: 1669 413e f2c0 8e3e 7075 0b3f 427c 65bc
000003d0: 7406 b3be 7401 153e 45b9 4fbe 1d45 a83e
000003e0: 2d4b 3f3e 7203 3a3d 6672 9bbe a136 953e
000003f0: 0106 4fbe 9550 403e c84d 853e 0bf2 383e

fc3.bias f4 [20]
-0.015508627 0.072062455 -0.041781817 0.2019226 0.028150687 0.19815563 0.18490952 -0.13763449
0.02823215 0.0014803379 -0.23457475 0.20029463 -0.04910351 0.13916636 0.10207254 -0.19194351
-0.07950833 -0.17880546 0.13994412 0.2045513
00000000: e517 7ebc 7b95 933d 6923 2bbd ccc4 4e3e
00000010: 459c e63c 4fe9 4a3e ec58 3d3e 0ef0 0cbe
00000020: 1c47 e73c e607 c23a 5d34 70be 091a 4d3e
00000030: c320 49bd a081 0e3e 680b d13d d78c 44be
00000040: 43d5 a2bd c718 37be 834d 0f3e e575 513e

fc4.weight f4 [2, 20]
-0.58995897 0.41798785 0.2696822 -0.64558893 0.39176458 -0.5381765 0.26920617 -0.12565102
0.16292986 -0.4848648 0.1604154 0.35094127 0.3715274 0.18881936 -0.30418852 0.05480907
0.07827897 0.048249666 0.40424618 -0.38597432 0.58537716 -0.2694302 -0.38761157 0.6316986
-0.19036987 0.6606766 -0.388353 -0.0012208 -0.44375134 0.34025627 -0.3511069 -0.28019363
-0.38829833 -0.27332994 0.6189281 -0.11234444 0.16272084 0.07715267 -0.30384532 0.42396438
00000000: 8d07 17bf 8102 d63e c913 8a3e 5145 25bf
00000010: 5e95 c83e efc5 09bf 64d5 893e a9aa 00be
00000020: 16d7 263e 3340 f8be ef43 243e 93ae b33e
00000030: d738 be3e dd59 413e 99be 9bbe 7a7f 603d
00000040: ba50 a03d 71a1 453d 5bf9 ce3e 6d9e c5be
00000050: 47db 153f c1f2 89be 0675 c6be 00b7 213f
00000060: 52f0 42be 1a22 293f 34d6 c6be 4003 a0ba
00000070: 6033 e3be 1236 ae3e 49c4 b3be 8a75 8fbe
00000080: 0acf c6be e7f1 8bbe 1272 1e3f d714 e6bd
00000090: 4ba0 263e 3802 9e3d 9d91 9bbe dc11 d93e

fc4.bias f4 [2]
0.00030813747 0.0593162
00000000: 838d a139 8bf5 723d
